dave.tflite (tflite, 75616 bytes, 18 tensors)

tfl.pseudo_qconst1 i1 [1, 1088] scale=0.006555437 zero_point=0
0	0x09	0.058998935
1	0xf7	-0.058998935
2	0xed	-0.12455331
3	0xda	-0.24910662
4	0xe2	-0.19666311
5	0xdd	-0.2294403
6	0x16	0.14421962
7	0xf6	-0.06555437
8	0x15	0.13766418
9	0xea	-0.14421962
10	0x24	0.23599574
11	0xf9	-0.04588806
12	0xf0	-0.104886994
13	0x0f	0.098331556
14	0xf3	-0.08522068
15	0x19	0.16388592
16	0xf7	-0.058998935
17	0xf6	-0.06555437
18	0xd9	-0.25566205
19	0xf5	-0.07210981
20	0xe4	-0.18355224
21	0x00	0.0
22	0x05	0.032777186
23	0x0c	0.07866524
24	0xf1	-0.098331556
25	0xee	-0.11799787
26	0xe1	-0.20321855
27	0xe6	-0.17044136
28	0x08	0.052443497
29	0xdf	-0.21632943
30	0x31	0.3212164
31	0xef	-0.11144243
32	0xfd	-0.01966631
33	0xe3	-0.19010767
34	0xe5	-0.1769968
35	0x20	0.20977399
36	0x01	0.006555437
37	0xf1	-0.098331556
38	0xfd	-0.01966631
39	0xfe	-0.013110874
40	0xde	-0.22288486
41	0xdf	-0.21632943
42	0xee	-0.11799787
43	0xde	-0.22288486
44	0xde	-0.22288486
45	0x0a	0.06555437
46	0xe4	-0.18355224
47	0xd4	-0.28843924
48	0xe7	-0.16388592
49	0x03	0.01966631
50	0xd9	-0.25566205
51	0x0d	0.08522068
52	0xe6	-0.17044136
53	0x00	0.0
54	0x12	0.11799787
55	0xf1	-0.098331556
56	0xd6	-0.27532837
57	0xf2	-0.09177612
58	0xde	-0.22288486
59	0xf8	-0.052443497
60	0xeb	-0.13766418
61	0x08	0.052443497
62	0x18	0.15733048
63	0xe0	-0.20977399
64	0xfa	-0.03933262
65	0xfa	-0.03933262
66	0xfa	-0.03933262
67	0xd2	-0.30155012
68	0xf8	-0.052443497
69	0xef	-0.11144243
70	0x0b	0.07210981
71	0xf3	-0.08522068
72	0x07	0.04588806
73	0xf3	-0.08522068
74	0x18	0.15733048
75	0xfb	-0.032777186
76	0xff	-0.006555437
77	0x01	0.006555437
78	0xfa	-0.03933262
79	0x18	0.15733048
80	0x00	0.0
81	0xfa	-0.03933262
82	0xee	-0.11799787
83	0x04	0.026221748
84	0xf2	-0.09177612
85	0xfa	-0.03933262
86	0xfb	-0.032777186
87	0x11	0.11144243
88	0xfb	-0.032777186
89	0xf5	-0.07210981
90	0xeb	-0.13766418
91	0xf1	-0.098331556
92	0x02	0.013110874
93	0xf2	-0.09177612
94	0x14	0.13110875
95	0xf7	-0.058998935
96	0xf9	-0.04588806
97	0xfd	-0.01966631
98	0xdc	-0.23599574
99	0x0d	0.08522068
100	0xfd	-0.01966631
101	0xe5	-0.1769968
102	0xf9	-0.04588806
103	0xf5	-0.07210981
104	0xeb	-0.13766418
105	0xf6	-0.06555437
106	0xf1	-0.098331556
107	0xf4	-0.07866524
108	0xed	-0.12455331
109	0x0e	0.09177612
110	0xed	-0.12455331
111	0xde	-0.22288486
112	0xec	-0.13110875
113	0xfc	-0.026221748
114	0xf1	-0.098331556
115	0x06	0.03933262
116	0xeb	-0.13766418
117	0xf6	-0.06555437
118	0x12	0.11799787
119	0xf8	-0.052443497
120	0xea	-0.14421962
121	0xf1	-0.098331556
122	0xe9	-0.15077506
123	0x00	0.0
124	0xf8	-0.052443497
125	0x14	0.13110875
126	0x0f	0.098331556
127	0xe9	-0.15077506
128	0xfe	-0.013110874
129	0x04	0.026221748
130	0x03	0.01966631
131	0xcf	-0.3212164
132	0x07	0.04588806
133	0xf3	-0.08522068
134	0xff	-0.006555437
135	0xea	-0.14421962
136	0x0b	0.07210981
137	0xf1	-0.098331556
138	0x1a	0.17044136
139	0xfb	-0.032777186
140	0x18	0.15733048
141	0x10	0.104886994
142	0xf0	-0.104886994
143	0x14	0.13110875
144	0x06	0.03933262
145	0x05	0.032777186
146	0xec	-0.13110875
147	0xe8	-0.15733048
148	0x01	0.006555437
149	0xfb	-0.032777186
150	0xf9	-0.04588806
151	0x04	0.026221748
152	0xf5	-0.07210981
153	0x13	0.12455331
154	0xff	-0.006555437
155	0xe8	-0.15733048
156	0xfa	-0.03933262
157	0xfe	-0.013110874
158	0x0d	0.08522068
159	0xf8	-0.052443497
160	0x03	0.01966631
161	0xff	-0.006555437
162	0xe4	-0.18355224
163	0xfb	-0.032777186
164	0xfd	-0.01966631
165	0xea	-0.14421962
166	0xff	-0.006555437
167	0xfd	-0.01966631
168	0xfb	-0.032777186
169	0xff	-0.006555437
170	0x08	0.052443497
171	0x0b	0.07210981
172	0x02	0.013110874
173	0xfd	-0.01966631
174	0xe9	-0.15077506
175	0xe1	-0.20321855
176	0xf0	-0.104886994
177	0xf7	-0.058998935
178	0xef	-0.11144243
179	0xfe	-0.013110874
180	0xfc	-0.026221748
181	0x0c	0.07866524
182	0x18	0.15733048
183	0xf5	-0.07210981
184	0xfd	-0.01966631
185	0x09	0.058998935
186	0xf6	-0.06555437
187	0xfd	-0.01966631
188	0xf6	-0.06555437
189	0x18	0.15733048
190	0x05	0.032777186
191	0x06	0.03933262
192	0x03	0.01966631
193	0xf4	-0.07866524
194	0x10	0.104886994
195	0xdc	-0.23599574
196	0x0a	0.06555437
197	0xf4	-0.07866524
198	0xf6	-0.06555437
199	0xe5	-0.1769968
200	0x0f	0.098331556
201	0xf6	-0.06555437
202	0x12	0.11799787
203	0x08	0.052443497
204	0x0a	0.06555437
205	0x06	0.03933262
206	0xf3	-0.08522068
207	0x06	0.03933262
208	0xfb	-0.032777186
209	0x09	0.058998935
210	0xe5	-0.1769968
211	0xf0	-0.104886994
212	0xfa	-0.03933262
213	0x01	0.006555437
214	0xf4	-0.07866524
215	0xec	-0.13110875
216	0xf2	-0.09177612
217	0x0e	0.09177612
218	0xf5	-0.07210981
219	0xf4	-0.07866524
220	0xfa	-0.03933262
221	0x04	0.026221748
222	0x15	0.13766418
223	0xf8	-0.052443497
224	0xf7	-0.058998935
225	0xe9	-0.15077506
226	0xed	-0.12455331
227	0xfc	-0.026221748
228	0xf6	-0.06555437
229	0xf9	-0.04588806
230	0xea	-0.14421962
231	0x0e	0.09177612
232	0x00	0.0
233	0x08	0.052443497
234	0x09	0.058998935
235	0xfb	-0.032777186
236	0x00	0.0
237	0xfc	-0.026221748
238	0xf2	-0.09177612
239	0xfd	-0.01966631
240	0xf1	-0.098331556
241	0x13	0.12455331
242	0xf0	-0.104886994
243	0xfe	-0.013110874
244	0xf8	-0.052443497
245	0x06	0.03933262
246	0x06	0.03933262
247	0xf3	-0.08522068
248	0x01	0.006555437
249	0x06	0.03933262
250	0x06	0.03933262
251	0x05	0.032777186
252	0xef	-0.11144243
253	0x0b	0.07210981
254	0x0b	0.07210981
255	0x11	0.11144243

tfl.pseudo_qconst3 i1 [64, 1, 1, 64]
0	0xe4	-28
1	0x17	23
2	0xd9	-39
3	0x1d	29
4	0x1a	26
5	0xed	-19
6	0xe6	-26
7	0x21	33
8	0xf0	-16
9	0xfc	-4
10	0x1d	29
11	0x47	71
12	0xd8	-40
13	0x38	56
14	0xbd	-67
15	0xe6	-26
16	0xf3	-13
17	0x81	-127
18	0xec	-20
19	0x16	22
20	0xef	-17
21	0x07	7
22	0x9f	-97
23	0x0a	10
24	0xd0	-48
25	0xd8	-40
26	0x34	52
27	0x0d	13
28	0x19	25
29	0x15	21
30	0x23	35
31	0xdc	-36
32	0xd9	-39
33	0x10	16
34	0xac	-84
35	0x3c	60
36	0x46	70
37	0xda	-38
38	0x28	40
39	0xa6	-90
40	0xf8	-8
41	0xc9	-55
42	0xc6	-58
43	0x1d	29
44	0x51	81
45	0xc0	-64
46	0x11	17
47	0xd2	-46
48	0x11	17
49	0xf1	-15
50	0xc8	-56
51	0x3e	62
52	0x28	40
53	0x1b	27
54	0xab	-85
55	0xfd	-3
56	0xe5	-27
57	0x45	69
58	0x32	50
59	0xe7	-25
60	0x13	19
61	0xf5	-11
62	0x0c	12
63	0x2b	43
64	0xa3	-93
65	0x48	72
66	0x09	9
67	0xdd	-35
68	0xef	-17
69	0xb2	-78
70	0x48	72
71	0x7c	124
72	0x1c	28
73	0x10	16
74	0xae	-82
75	0x19	25
76	0xb3	-77
77	0xd6	-42
78	0x0b	11
79	0x0e	14
80	0xe4	-28
81	0xf1	-15
82	0x0f	15
83	0xa2	-94
84	0xcf	-49
85	0x10	16
86	0xbe	-66
87	0xdd	-35
88	0x38	56
89	0x85	-123
90	0xe9	-23
91	0x4b	75
92	0x30	48
93	0xca	-54
94	0x9f	-97
95	0xe5	-27
96	0xdb	-37
97	0x2f	47
98	0x7f	127
99	0xe4	-28
100	0xd5	-43
101	0x43	67
102	0x16	22
103	0x4c	76
104	0xdf	-33
105	0xa2	-94
106	0xb8	-72
107	0x4d	77
108	0x0a	10
109	0x35	53
110	0xa5	-91
111	0xe8	-24
112	0x09	9
113	0x98	-104
114	0xd6	-42
115	0xe4	-28
116	0x69	105
117	0x24	36
118	0xd2	-46
119	0x05	5
120	0x02	2
121	0xde	-34
122	0xe2	-30
123	0x1b	27
124	0xfe	-2
125	0xfe	-2
126	0xf5	-11
127	0x26	38
128	0xa2	-94
129	0x67	103
130	0x40	64
131	0xa4	-92
132	0xf7	-9
133	0x49	73
134	0x10	16
135	0x02	2
136	0xb3	-77
137	0xd5	-43
138	0xde	-34
139	0x1d	29
140	0xd7	-41
141	0x02	2
142	0xc3	-61
143	0xc9	-55
144	0xdf	-33
145	0xba	-70
146	0xc2	-62
147	0x0d	13
148	0x1a	26
149	0x4b	75
150	0x1a	26
151	0xa6	-90
152	0xdd	-35
153	0xea	-22
154	0x12	18
155	0xcc	-52
156	0x06	6
157	0xc8	-56
158	0x02	2
159	0xe8	-24
160	0x7f	127
161	0xe9	-23
162	0x42	66
163	0x1d	29
164	0x13	19
165	0x25	37
166	0x1d	29
167	0x45	69
168	0x21	33
169	0xcd	-51
170	0x17	23
171	0x05	5
172	0x03	3
173	0x3a	58
174	0xad	-83
175	0x2f	47
176	0x15	21
177	0xfb	-5
178	0x10	16
179	0x32	50
180	0xcf	-49
181	0xcc	-52
182	0xdf	-33
183	0x2f	47
184	0x7b	123
185	0x02	2
186	0xcf	-49
187	0xfc	-4
188	0x24	36
189	0x51	81
190	0x33	51
191	0x10	16
192	0x0d	13
193	0xeb	-21
194	0x22	34
195	0x48	72
196	0x01	1
197	0xd7	-41
198	0xd5	-43
199	0xaf	-81
200	0xd7	-41
201	0x42	66
202	0x33	51
203	0x21	33
204	0xde	-34
205	0x9e	-98
206	0xd8	-40
207	0xc8	-56
208	0x3d	61
209	0x9d	-99
210	0xf8	-8
211	0xe0	-32
212	0x8f	-113
213	0xe2	-30
214	0x21	33
215	0xcf	-49
216	0x2a	42
217	0xf9	-7
218	0x1a	26
219	0x03	3
220	0x85	-123
221	0xc3	-61
222	0x4f	79
223	0x5b	91
224	0xd5	-43
225	0xf8	-8
226	0x9e	-98
227	0x0d	13
228	0x1e	30
229	0x07	7
230	0xbf	-65
231	0xcd	-51
232	0xb2	-78
233	0x1b	27
234	0x17	23
235	0xdb	-37
236	0x1f	31
237	0x28	40
238	0xd4	-44
239	0xca	-54
240	0xe1	-31
241	0xbf	-65
242	0xc7	-57
243	0xf9	-7
244	0x04	4
245	0xdb	-37
246	0x7f	127
247	0x12	18
248	0x00	0
249	0xfd	-3
250	0xdb	-37
251	0xd6	-42
252	0xf8	-8
253	0xf9	-7
254	0xde	-34
255	0x3a	58

tfl.pseudo_qconst5 i1 [1, 23, 1, 64]
0	0x5f	95
1	0x5d	93
2	0x47	71
3	0x63	99
4	0x47	71
5	0xc1	-63
6	0x7f	127
7	0x81	-127
8	0x81	-127
9	0x0d	13
10	0x03	3
11	0xe4	-28
12	0x7f	127
13	0x61	97
14	0x81	-127
15	0x81	-127
16	0xd5	-43
17	0x0a	10
18	0x47	71
19	0x6c	108
20	0x8f	-113
21	0xad	-83
22	0x01	1
23	0x48	72
24	0xfa	-6
25	0xf0	-16
26	0x69	105
27	0x7f	127
28	0xba	-70
29	0x03	3
30	0x30	48
31	0xf5	-11
32	0xc7	-57
33	0x15	21
34	0x41	65
35	0xfb	-5
36	0x7f	127
37	0xf9	-7
38	0x4c	76
39	0xe0	-32
40	0xd4	-44
41	0xff	-1
42	0x0b	11
43	0xe8	-24
44	0x34	52
45	0xcf	-49
46	0x2a	42
47	0x81	-127
48	0xa2	-94
49	0xb4	-76
50	0xf0	-16
51	0x2c	44
52	0xae	-82
53	0x3a	58
54	0xf4	-12
55	0x86	-122
56	0x7f	127
57	0x81	-127
58	0x85	-123
59	0x17	23
60	0xc1	-63
61	0xe4	-28
62	0xc3	-61
63	0x16	22
64	0x63	99
65	0x59	89
66	0x12	18
67	0x50	80
68	0x18	24
69	0xd3	-45
70	0x64	100
71	0xaa	-86
72	0x8b	-117
73	0x0a	10
74	0xe4	-28
75	0xe0	-32
76	0x6f	111
77	0x73	115
78	0x89	-119
79	0x8f	-113
80	0xc3	-61
81	0xfa	-6
82	0x38	56
83	0x77	119
84	0x88	-120
85	0xa4	-92
86	0xc3	-61
87	0x30	48
88	0xc4	-60
89	0x95	-107
90	0x72	114
91	0x62	98
92	0xb8	-72
93	0xe6	-26
94	0x1a	26
95	0x01	1
96	0xce	-50
97	0x0a	10
98	0x4c	76
99	0x08	8
100	0x63	99
101	0xc5	-59
102	0x5f	95
103	0xbf	-65
104	0xe2	-30
105	0xec	-20
106	0x13	19
107	0xfc	-4
108	0x2d	45
109	0xe2	-30
110	0x36	54
111	0xac	-84
112	0x9a	-102
113	0x9e	-98
114	0xe7	-25
115	0x28	40
116	0x9a	-102
117	0x5f	95
118	0xd5	-43
119	0x81	-127
120	0x4c	76
121	0x87	-121
122	0x82	-126
123	0xb8	-72
124	0xdc	-36
125	0x12	18
126	0xb4	-76
127	0x1b	27
128	0x7f	127
129	0x54	84
130	0x15	21
131	0x31	49
132	0x67	103
133	0xd8	-40
134	0x5e	94
135	0xb6	-74
136	0xb2	-78
137	0xf8	-8
138	0xe8	-24
139	0x13	19
140	0x37	55
141	0x31	49
142	0x92	-110
143	0xae	-82
144	0xc9	-55
145	0x18	24
146	0x48	72
147	0x3f	63
148	0x96	-106
149	0xa3	-93
150	0xe5	-27
151	0x50	80
152	0xa0	-96
153	0xa7	-89
154	0x7f	127
155	0x6c	108
156	0xd4	-44
157	0xec	-20
158	0xff	-1
159	0x29	41
160	0xde	-34
161	0x13	19
162	0x51	81
163	0xf8	-8
164	0x3c	60
165	0x9a	-102
166	0x60	96
167	0x33	51
168	0xe8	-24
169	0xdf	-33
170	0xda	-38
171	0x09	9
172	0x4c	76
173	0xe7	-25
174	0x74	116
175	0xdd	-35
176	0xad	-83
177	0xad	-83
178	0xd0	-48
179	0x3d	61
180	0xaf	-81
181	0x57	87
182	0x06	6
183	0xba	-70
184	0x34	52
185	0xc9	-55
186	0x86	-122
187	0xab	-85
188	0x0a	10
189	0x5a	90
190	0xc9	-55
191	0xfa	-6
192	0x6a	106
193	0x3f	63
194	0x3d	61
195	0x45	69
196	0x34	52
197	0xed	-19
198	0x48	72
199	0xac	-84
200	0xaf	-81
201	0x00	0
202	0xaa	-86
203	0x2d	45
204	0xf7	-9
205	0x4c	76
206	0xb9	-71
207	0xb8	-72
208	0xeb	-21
209	0x16	22
210	0x3b	59
211	0x01	1
212	0x9e	-98
213	0x8d	-115
214	0xcb	-53
215	0x40	64
216	0xce	-50
217	0xd3	-45
218	0x28	40
219	0x54	84
220	0xf0	-16
221	0xe7	-25
222	0xfe	-2
223	0x0f	15
224	0x10	16
225	0x18	24
226	0x26	38
227	0x0f	15
228	0x3d	61
229	0xa9	-87
230	0x3b	59
231	0x0b	11
232	0xf0	-16
233	0xe5	-27
234	0xc4	-60
235	0x08	8
236	0x36	54
237	0xde	-34
238	0x7d	125
239	0xcf	-49
240	0xcf	-49
241	0xb7	-73
242	0xcc	-52
243	0x61	97
244	0x94	-108
245	0x40	64
246	0x12	18
247	0xd5	-43
248	0x04	4
249	0xd2	-46
250	0x9e	-98
251	0xc6	-58
252	0xdd	-35
253	0x7f	127
254	0xe9	-23
255	0xdf	-33

tfl.pseudo_qconst7 i1 [64, 1, 1, 64]
0	0x28	40
1	0x2e	46
2	0x21	33
3	0x0a	10
4	0xef	-17
5	0x13	19
6	0x0b	11
7	0x10	16
8	0xe8	-24
9	0xff	-1
10	0xc7	-57
11	0x1e	30
12	0x03	3
13	0x03	3
14	0xf3	-13
15	0x02	2
16	0x35	53
17	0xfd	-3
18	0xee	-18
19	0xb7	-73
20	0xd0	-48
21	0xf7	-9
22	0x02	2
23	0x17	23
24	0x1a	26
25	0x27	39
26	0x1d	29
27	0xe6	-26
28	0xf4	-12
29	0xd8	-40
30	0x22	34
31	0x3e	62
32	0xe4	-28
33	0xe3	-29
34	0x07	7
35	0x24	36
36	0x81	-127
37	0x29	41
38	0xfe	-2
39	0xdd	-35
40	0xe7	-25
41	0x0d	13
42	0x06	6
43	0x2b	43
44	0xe2	-30
45	0xec	-20
46	0x77	119
47	0xfa	-6
48	0xf4	-12
49	0xe2	-30
50	0x2b	43
51	0xf3	-13
52	0x13	19
53	0x1d	29
54	0x57	87
55	0x15	21
56	0x25	37
57	0xfa	-6
58	0xa5	-91
59	0xe9	-23
60	0xcc	-52
61	0xf8	-8
62	0x5c	92
63	0x05	5
64	0x11	17
65	0xbd	-67
66	0x30	48
67	0xfe	-2
68	0xd8	-40
69	0xf2	-14
70	0x3f	63
71	0xfd	-3
72	0xa7	-89
73	0xf1	-15
74	0xb6	-74
75	0xf0	-16
76	0xa7	-89
77	0xda	-38
78	0x12	18
79	0x9f	-97
80	0x38	56
81	0x32	50
82	0xe1	-31
83	0x1c	28
84	0x1d	29
85	0xb7	-73
86	0xe2	-30
87	0x30	48
88	0x1d	29
89	0xda	-38
90	0xef	-17
91	0x51	81
92	0xd1	-47
93	0xb9	-71
94	0x1b	27
95	0x1c	28
96	0xe4	-28
97	0x29	41
98	0xd6	-42
99	0x00	0
100	0x6a	106
101	0x09	9
102	0x23	35
103	0x1d	29
104	0x7f	127
105	0xef	-17
106	0x12	18
107	0xac	-84
108	0x08	8
109	0x33	51
110	0xfc	-4
111	0x1b	27
112	0x26	38
113	0x42	66
114	0xfa	-6
115	0x67	103
116	0x38	56
117	0xc6	-58
118	0xdd	-35
119	0xf9	-7
120	0xe2	-30
121	0x4c	76
122	0x27	39
123	0xd6	-42
124	0x11	17
125	0x13	19
126	0x05	5
127	0x00	0
128	0x14	20
129	0x6e	110
130	0xa4	-92
131	0xe4	-28
132	0xea	-22
133	0x11	17
134	0xc8	-56
135	0xb1	-79
136	0x04	4
137	0x4c	76
138	0x0f	15
139	0xda	-38
140	0xf2	-14
141	0x01	1
142	0xd9	-39
143	0x0e	14
144	0x2d	45
145	0xf6	-10
146	0xde	-34
147	0x09	9
148	0xfc	-4
149	0xc0	-64
150	0xac	-84
151	0xc4	-60
152	0x36	54
153	0xc3	-61
154	0xa5	-91
155	0xee	-18
156	0xd0	-48
157	0x1e	30
158	0x0a	10
159	0xdb	-37
160	0xe4	-28
161	0x1a	26
162	0xb6	-74
163	0xce	-50
164	0xf9	-7
165	0xae	-82
166	0xeb	-21
167	0xc8	-56
168	0xeb	-21
169	0x17	23
170	0x0b	11
171	0xc6	-58
172	0x57	87
173	0xe9	-23
174	0xd4	-44
175	0xda	-38
176	0x9e	-98
177	0xbb	-69
178	0xfb	-5
179	0x46	70
180	0xe7	-25
181	0xfc	-4
182	0xad	-83
183	0xc9	-55
184	0xc2	-62
185	0x81	-127
186	0xb3	-77
187	0x1f	31
188	0xe5	-27
189	0x25	37
190	0x18	24
191	0x36	54
192	0x30	48
193	0xe9	-23
194	0x56	86
195	0x0c	12
196	0xd5	-43
197	0xfb	-5
198	0xe5	-27
199	0x23	35
200	0x29	41
201	0xfa	-6
202	0xee	-18
203	0x3c	60
204	0x3f	63
205	0x11	17
206	0x3a	58
207	0xf9	-7
208	0xe7	-25
209	0x49	73
210	0xd6	-42
211	0xe0	-32
212	0xe3	-29
213	0xfc	-4
214	0xc8	-56
215	0xc7	-57
216	0xbf	-65
217	0x0b	11
218	0xf8	-8
219	0xe6	-26
220	0xfa	-6
221	0xd8	-40
222	0xf5	-11
223	0x3e	62
224	0xfa	-6
225	0x12	18
226	0x3e	62
227	0x1f	31
228	0xb3	-77
229	0x2f	47
230	0xcf	-49
231	0xbf	-65
232	0xb3	-77
233	0x07	7
234	0x1a	26
235	0x3f	63
236	0xc8	-56
237	0xfb	-5
238	0x7f	127
239	0xcc	-52
240	0xf8	-8
241	0xa2	-94
242	0x1f	31
243	0xef	-17
244	0x0e	14
245	0xfa	-6
246	0x1a	26
247	0xe5	-27
248	0xff	-1
249	0x2f	47
250	0xb2	-78
251	0xc7	-57
252	0x38	56
253	0x4a	74
254	0x1c	28
255	0x22	34

tfl.pseudo_qconst9 i1 [1, 15, 1, 32]
0	0x15	21
1	0x1e	30
2	0xa6	-90
3	0x87	-121
4	0xb2	-78
5	0x7f	127
6	0x8f	-113
7	0xf4	-12
8	0x31	49
9	0x68	104
10	0x7f	127
11	0x81	-127
12	0x81	-127
13	0x3f	63
14	0x7f	127
15	0x6a	106
16	0x56	86
17	0xc8	-56
18	0x34	52
19	0xc4	-60
20	0xfd	-3
21	0xb3	-77
22	0x89	-119
23	0x81	-127
24	0x81	-127
25	0x2c	44
26	0x81	-127
27	0x81	-127
28	0xf9	-7
29	0x98	-104
30	0x23	35
31	0x47	71
32	0x22	34
33	0x1d	29
34	0x23	35
35	0xb7	-73
36	0x81	-127
37	0x25	37
38	0x81	-127
39	0xca	-54
40	0x27	39
41	0x0c	12
42	0x64	100
43	0x9a	-102
44	0xb5	-75
45	0xd1	-47
46	0x63	99
47	0x1e	30
48	0x12	18
49	0x07	7
50	0x38	56
51	0xd5	-43
52	0xf5	-11
53	0xba	-70
54	0x81	-127
55	0xaa	-86
56	0xb3	-77
57	0x4b	75
58	0xaa	-86
59	0xc1	-63
60	0x0d	13
61	0x81	-127
62	0x02	2
63	0xf4	-12
64	0x7f	127
65	0x08	8
66	0x00	0
67	0xeb	-21
68	0x95	-107
69	0x18	24
70	0xaf	-81
71	0xe3	-29
72	0x7f	127
73	0x3a	58
74	0x39	57
75	0xb2	-78
76	0x18	24
77	0x42	66
78	0x45	69
79	0x72	114
80	0xa8	-88
81	0x0b	11
82	0xd4	-44
83	0xc7	-57
84	0x0f	15
85	0xec	-20
86	0xc2	-62
87	0xf5	-11
88	0xc6	-58
89	0x3f	63
90	0x91	-111
91	0x14	20
92	0xf5	-11
93	0x90	-112
94	0xb9	-71
95	0xb5	-75
96	0x3e	62
97	0xf8	-8
98	0xf8	-8
99	0x43	67
100	0x91	-111
101	0x0c	12
102	0xc2	-62
103	0x81	-127
104	0x36	54
105	0x45	69
106	0xfa	-6
107	0xf9	-7
108	0x3f	63
109	0x35	53
110	0x2b	43
111	0x7c	124
112	0x9f	-97
113	0x9b	-101
114	0x4f	79
115	0xf2	-14
116	0x41	65
117	0xd3	-45
118	0xd8	-40
119	0x19	25
120	0xed	-19
121	0xfc	-4
122	0xfc	-4
123	0x33	51
124	0xe4	-28
125	0x9d	-99
126	0xf7	-9
127	0x81	-127
128	0x5e	94
129	0xe6	-26
130	0xaf	-81
131	0x0d	13
132	0xb3	-77
133	0x8d	-115
134	0x27	39
135	0x81	-127
136	0x4e	78
137	0x6f	111
138	0x0e	14
139	0xce	-50
140	0x15	21
141	0x23	35
142	0x1f	31
143	0x40	64
144	0x89	-119
145	0xae	-82
146	0x71	113
147	0xc6	-58
148	0x31	49
149	0xf8	-8
150	0x06	6
151	0x15	21
152	0xe4	-28
153	0xd6	-42
154	0x14	20
155	0x18	24
156	0x11	17
157	0x02	2
158	0xe0	-32
159	0x98	-104
160	0x24	36
161	0x0a	10
162	0xee	-18
163	0xcb	-53
164	0xc0	-64
165	0xcc	-52
166	0x3e	62
167	0xab	-85
168	0x1f	31
169	0xe1	-31
170	0x07	7
171	0x15	21
172	0xf0	-16
173	0x16	22
174	0x0b	11
175	0xeb	-21
176	0x9c	-100
177	0xca	-54
178	0x3f	63
179	0xea	-22
180	0xea	-22
181	0xd0	-48
182	0xeb	-21
183	0x26	38
184	0xdb	-37
185	0xf7	-9
186	0x1b	27
187	0xf1	-15
188	0x0e	14
189	0xf1	-15
190	0xff	-1
191	0xce	-50
192	0x04	4
193	0xfd	-3
194	0x59	89
195	0x97	-105
196	0x98	-104
197	0xc3	-61
198	0x01	1
199	0xbb	-69
200	0x3c	60
201	0x3c	60
202	0x15	21
203	0x0a	10
204	0xc0	-64
205	0x2d	45
206	0xe0	-32
207	0x0e	14
208	0x13	19
209	0xd5	-43
210	0x06	6
211	0x16	22
212	0xe8	-24
213	0x0d	13
214	0x0c	12
215	0x22	34
216	0xfb	-5
217	0xf1	-15
218	0x40	64
219	0xed	-19
220	0xe3	-29
221	0x0e	14
222	0xf8	-8
223	0xc0	-64
224	0xf7	-9
225	0xfe	-2
226	0x56	86
227	0xc1	-63
228	0xb6	-74
229	0x07	7
230	0xba	-70
231	0xca	-54
232	0xd7	-41
233	0x29	41
234	0xf2	-14
235	0x39	57
236	0x0c	12
237	0xca	-54
238	0xbb	-69
239	0xa0	-96
240	0x54	84
241	0xce	-50
242	0xd7	-41
243	0x1c	28
244	0x09	9
245	0xbc	-68
246	0x0c	12
247	0x27	39
248	0xdc	-36
249	0xf9	-7
250	0xd9	-39
251	0xd6	-42
252	0x06	6
253	0xfe	-2
254	0xb2	-78
255	0xf7	-9

tfl.pseudo_qconst11 i1 [1, 9, 1, 32]
0	0x13	19
1	0xfb	-5
2	0x7f	127
3	0x6c	108
4	0x81	-127
5	0xe2	-30
6	0x06	6
7	0x7f	127
8	0x25	37
9	0x50	80
10	0x94	-108
11	0xdd	-35
12	0x7f	127
13	0xb4	-76
14	0x1e	30
15	0xfe	-2
16	0x9e	-98
17	0xb2	-78
18	0xd6	-42
19	0xe2	-30
20	0xfb	-5
21	0x81	-127
22	0x9d	-99
23	0x1b	27
24	0xf5	-11
25	0x66	102
26	0xd1	-47
27	0x21	33
28	0xfb	-5
29	0x0b	11
30	0x14	20
31	0xec	-20
32	0xe0	-32
33	0xa7	-89
34	0x1b	27
35	0xc9	-55
36	0xc7	-57
37	0xc5	-59
38	0x2b	43
39	0x39	57
40	0xe8	-24
41	0x0d	13
42	0xed	-19
43	0xef	-17
44	0x22	34
45	0xf7	-9
46	0x64	100
47	0xf0	-16
48	0x81	-127
49	0xaf	-81
50	0x1d	29
51	0xa5	-91
52	0x35	53
53	0x9d	-99
54	0x82	-126
55	0xf2	-14
56	0xb8	-72
57	0x79	121
58	0x8d	-115
59	0x29	41
60	0x44	68
61	0x15	21
62	0x0d	13
63	0x56	86
64	0x10	16
65	0x15	21
66	0xe6	-26
67	0xca	-54
68	0xe2	-30
69	0xd5	-43
70	0xa7	-89
71	0x58	88
72	0x06	6
73	0xe6	-26
74	0xe2	-30
75	0x26	38
76	0x24	36
77	0x12	18
78	0x7f	127
79	0xc1	-63
80	0xb1	-79
81	0xd4	-44
82	0x62	98
83	0x8b	-117
84	0xed	-19
85	0xc8	-56
86	0x9e	-98
87	0x40	64
88	0xf8	-8
89	0x57	87
90	0x07	7
91	0xbc	-68
92	0xac	-84
93	0x21	33
94	0x04	4
95	0x1c	28
96	0xe1	-31
97	0xb5	-75
98	0x04	4
99	0x2c	44
100	0x0d	13
101	0x05	5
102	0xe2	-30
103	0xd8	-40
104	0xd4	-44
105	0x58	88
106	0xe0	-32
107	0x45	69
108	0x8e	-114
109	0x21	33
110	0x3b	59
111	0x03	3
112	0xb0	-80
113	0xef	-17
114	0xfe	-2
115	0x81	-127
116	0x92	-110
117	0xb6	-74
118	0xbe	-66
119	0xce	-50
120	0xc2	-62
121	0x19	25
122	0xb8	-72
123	0xdc	-36
124	0xaf	-81
125	0xd6	-42
126	0x09	9
127	0x0e	14
128	0x2c	44
129	0xc0	-64
130	0xfd	-3
131	0x54	84
132	0x30	48
133	0x06	6
134	0xde	-34
135	0x9e	-98
136	0x13	19
137	0x76	118
138	0xa8	-88
139	0x1c	28
140	0x9e	-98
141	0x08	8
142	0x25	37
143	0xf7	-9
144	0xe7	-25
145	0xf9	-7
146	0x96	-106
147	0x94	-108
148	0xaa	-86
149	0xd4	-44
150	0x77	119
151	0xc6	-58
152	0xa6	-90
153	0x12	18
154	0x7f	127
155	0xb9	-71
156	0x7f	127
157	0xd9	-39
158	0x0d	13
159	0xc0	-64
160	0x3a	58
161	0x90	-112
162	0x2b	43
163	0x40	64
164	0x5a	90
165	0x31	49
166	0x7f	127
167	0xfa	-6
168	0xe3	-29
169	0x0e	14
170	0xe8	-24
171	0x36	54
172	0x91	-111
173	0x28	40
174	0xe4	-28
175	0x0d	13
176	0x8f	-113
177	0x81	-127
178	0xad	-83
179	0x91	-111
180	0xd2	-46
181	0xf5	-11
182	0x7f	127
183	0x08	8
184	0xfd	-3
185	0x7f	127
186	0x53	83
187	0x45	69
188	0x2d	45
189	0xfa	-6
190	0xe7	-25
191	0xa0	-96
192	0x7a	122
193	0x81	-127
194	0xe3	-29
195	0x7f	127
196	0x3e	62
197	0x50	80
198	0xd1	-47
199	0xef	-17
200	0x1d	29
201	0xcf	-49
202	0xd6	-42
203	0xde	-34
204	0x98	-104
205	0x11	17
206	0x33	51
207	0x55	85
208	0xb4	-76
209	0xb5	-75
210	0x81	-127
211	0xca	-54
212	0x36	54
213	0xde	-34
214	0x01	1
215	0x81	-127
216	0x8f	-113
217	0xed	-19
218	0x07	7
219	0x7f	127
220	0xee	-18
221	0x16	22
222	0x05	5
223	0x81	-127
224	0x75	117
225	0xe7	-25
226	0xcb	-53
227	0x62	98
228	0x0d	13
229	0x21	33
230	0x01	1
231	0xef	-17
232	0x68	104
233	0x95	-107
234	0x2f	47
235	0x81	-127
236	0x83	-125
237	0x01	1
238	0xfa	-6
239	0x73	115
240	0x2a	42
241	0x90	-112
242	0x26	38
243	0x06	6
244	0x7f	127
245	0x21	33
246	0x83	-125
247	0xdd	-35
248	0x81	-127
249	0x1b	27
250	0x7b	123
251	0x60	96
252	0x87	-121
253	0x43	67
254	0x1f	31
255	0xc0	-64

tfl.pseudo_qconst13 i1 [64, 1, 1, 64]
0	0xd9	-39
1	0x2a	42
2	0x36	54
3	0xe9	-23
4	0x20	32
5	0x1f	31
6	0x24	36
7	0x2e	46
8	0x71	113
9	0xfc	-4
10	0xc8	-56
11	0x2b	43
12	0x3b	59
13	0xeb	-21
14	0x05	5
15	0x08	8
16	0x1f	31
17	0x15	21
18	0x2e	46
19	0xee	-18
20	0xe4	-28
21	0x7f	127
22	0xc5	-59
23	0xe4	-28
24	0x3b	59
25	0x4d	77
26	0xd4	-44
27	0xf8	-8
28	0xf5	-11
29	0xc0	-64
30	0x22	34
31	0x20	32
32	0x1c	28
33	0xfc	-4
34	0xce	-50
35	0xe9	-23
36	0xc2	-62
37	0x32	50
38	0x13	19
39	0x11	17
40	0xe5	-27
41	0xed	-19
42	0x38	56
43	0xf0	-16
44	0xfa	-6
45	0x25	37
46	0x28	40
47	0x09	9
48	0x16	22
49	0x2c	44
50	0xba	-70
51	0x0e	14
52	0xe8	-24
53	0x0b	11
54	0xf6	-10
55	0x0b	11
56	0x35	53
57	0x16	22
58	0x88	-120
59	0xe5	-27
60	0xd7	-41
61	0xd6	-42
62	0x36	54
63	0xf7	-9
64	0x97	-105
65	0x52	82
66	0x17	23
67	0x7f	127
68	0x19	25
69	0xf4	-12
70	0xd4	-44
71	0xc0	-64
72	0xfd	-3
73	0xfc	-4
74	0x09	9
75	0x2b	43
76	0xb9	-71
77	0xed	-19
78	0xcc	-52
79	0x2f	47
80	0x18	24
81	0x1c	28
82	0x38	56
83	0xee	-18
84	0x2c	44
85	0x1b	27
86	0xe4	-28
87	0x21	33
88	0x20	32
89	0xf4	-12
90	0xf2	-14
91	0x5f	95
92	0x91	-111
93	0xcc	-52
94	0x18	24
95	0x33	51
96	0x28	40
97	0x28	40
98	0x3a	58
99	0x72	114
100	0xe2	-30
101	0xe0	-32
102	0xe4	-28
103	0x28	40
104	0xd1	-47
105	0x37	55
106	0x0c	12
107	0x12	18
108	0x24	36
109	0xc5	-59
110	0x15	21
111	0xff	-1
112	0x2f	47
113	0xc0	-64
114	0xa2	-94
115	0xcb	-53
116	0x3f	63
117	0x0d	13
118	0x03	3
119	0x33	51
120	0xc3	-61
121	0x10	16
122	0xfa	-6
123	0x3d	61
124	0xcd	-51
125	0xfb	-5
126	0xe3	-29
127	0xe6	-26
128	0x3e	62
129	0xbc	-68
130	0x0a	10
131	0x6b	107
132	0xe1	-31
133	0x87	-121
134	0xfd	-3
135	0xc1	-63
136	0xe9	-23
137	0xf5	-11
138	0xfb	-5
139	0x27	39
140	0xe1	-31
141	0xed	-19
142	0x03	3
143	0xad	-83
144	0x7f	127
145	0xd9	-39
146	0x11	17
147	0x3d	61
148	0x0d	13
149	0x52	82
150	0xf9	-7
151	0xf5	-11
152	0x06	6
153	0x10	16
154	0xe5	-27
155	0xd1	-47
156	0xb0	-80
157	0xfa	-6
158	0x0a	10
159	0xfa	-6
160	0x0d	13
161	0x32	50
162	0xc2	-62
163	0x4b	75
164	0x59	89
165	0x42	66
166	0x9b	-101
167	0xef	-17
168	0x07	7
169	0x68	104
170	0x93	-109
171	0xe0	-32
172	0x29	41
173	0x4b	75
174	0xa2	-94
175	0xc5	-59
176	0x16	22
177	0x2a	42
178	0x5f	95
179	0x7b	123
180	0x4c	76
181	0x1d	29
182	0xc0	-64
183	0xe0	-32
184	0xc3	-61
185	0xf0	-16
186	0xf4	-12
187	0x0a	10
188	0x18	24
189	0xff	-1
190	0x2b	43
191	0x26	38
192	0x17	23
193	0xbb	-69
194	0xcb	-53
195	0xd1	-47
196	0x53	83
197	0x01	1
198	0xad	-83
199	0x26	38
200	0x07	7
201	0x38	56
202	0xef	-17
203	0x31	49
204	0x3f	63
205	0x3d	61
206	0xff	-1
207	0x11	17
208	0xb6	-74
209	0xd5	-43
210	0x23	35
211	0x14	20
212	0xe2	-30
213	0x5c	92
214	0xfb	-5
215	0xf2	-14
216	0x21	33
217	0x2d	45
218	0x25	37
219	0x29	41
220	0xfb	-5
221	0xbd	-67
222	0x05	5
223	0x0f	15
224	0xd4	-44
225	0x2d	45
226	0xe2	-30
227	0xd4	-44
228	0x94	-108
229	0x1f	31
230	0xb0	-80
231	0x44	68
232	0x3b	59
233	0x16	22
234	0xe8	-24
235	0xc4	-60
236	0x7f	127
237	0x53	83
238	0x3d	61
239	0x6c	108
240	0x27	39
241	0xd4	-44
242	0xf3	-13
243	0x07	7
244	0xec	-20
245	0x3d	61
246	0x6e	110
247	0x01	1
248	0xd0	-48
249	0xca	-54
250	0xb3	-77
251	0xb1	-79
252	0x44	68
253	0x13	19
254	0x65	101
255	0xf5	-11

tfl.pseudo_qconst15 i1 [1, 11, 1, 32]
0	0x81	-127
1	0xce	-50
2	0x93	-109
3	0xa6	-90
4	0xeb	-21
5	0x90	-112
6	0x62	98
7	0x18	24
8	0x63	99
9	0x45	69
10	0x81	-127
11	0x1e	30
12	0x3a	58
13	0xca	-54
14	0x3f	63
15	0xec	-20
16	0xf5	-11
17	0x3e	62
18	0xd1	-47
19	0x81	-127
20	0xee	-18
21	0xb2	-78
22	0x53	83
23	0x7f	127
24	0xdf	-33
25	0x69	105
26	0x01	1
27	0x7f	127
28	0xce	-50
29	0xe3	-29
30	0xd1	-47
31	0xb6	-74
32	0x16	22
33	0xe0	-32
34	0xd3	-45
35	0xf3	-13
36	0xb5	-75
37	0xcd	-51
38	0x7f	127
39	0x18	24
40	0x7f	127
41	0x3b	59
42	0xb6	-74
43	0x7f	127
44	0xe2	-30
45	0xc5	-59
46	0xe2	-30
47	0xdc	-36
48	0xf0	-16
49	0xe0	-32
50	0x08	8
51	0xd5	-43
52	0xee	-18
53	0xe6	-26
54	0xff	-1
55	0x6e	110
56	0x10	16
57	0xe4	-28
58	0xf3	-13
59	0x46	70
60	0xd9	-39
61	0xb5	-75
62	0x34	52
63	0x9b	-101
64	0x42	66
65	0x1d	29
66	0x0b	11
67	0xd1	-47
68	0x95	-107
69	0x78	120
70	0x32	50
71	0x29	41
72	0x15	21
73	0x52	82
74	0xc4	-60
75	0x3d	61
76	0xbc	-68
77	0x25	37
78	0xee	-18
79	0xca	-54
80	0xfb	-5
81	0x02	2
82	0x5c	92
83	0x07	7
84	0x43	67
85	0xd7	-41
86	0x12	18
87	0x33	51
88	0xe1	-31
89	0x25	37
90	0xd5	-43
91	0x46	70
92	0xfb	-5
93	0x3d	61
94	0xf9	-7
95	0x81	-127
96	0x22	34
97	0x36	54
98	0xbb	-69
99	0xfc	-4
100	0x3d	61
101	0xcd	-51
102	0x4c	76
103	0x04	4
104	0x1a	26
105	0x0c	12
106	0xc7	-57
107	0x07	7
108	0xc5	-59
109	0xe8	-24
110	0x90	-112
111	0x0c	12
112	0xd1	-47
113	0x0d	13
114	0x7f	127
115	0xf9	-7
116	0x7f	127
117	0x7e	126
118	0x68	104
119	0x42	66
120	0x81	-127
121	0x45	69
122	0x10	16
123	0x36	54
124	0xe6	-26
125	0x6c	108
126	0xa6	-90
127	0x90	-112
128	0xba	-70
129	0xf7	-9
130	0x28	40
131	0xde	-34
132	0xe5	-27
133	0x46	70
134	0xf2	-14
135	0xe1	-31
136	0x19	25
137	0xd4	-44
138	0xe0	-32
139	0x4b	75
140	0xc7	-57
141	0x2f	47
142	0x81	-127
143	0x00	0
144	0xc0	-64
145	0x04	4
146	0x5a	90
147	0x13	19
148	0x35	53
149	0x7e	126
150	0x5a	90
151	0x12	18
152	0xba	-70
153	0x48	72
154	0xda	-38
155	0xe5	-27
156	0xd0	-48
157	0x5c	92
158	0x81	-127
159	0xaa	-86
160	0xd1	-47
161	0x81	-127
162	0x06	6
163	0x09	9
164	0xc2	-62
165	0xac	-84
166	0x17	23
167	0xce	-50
168	0x2c	44
169	0xd0	-48
170	0x29	41
171	0x0f	15
172	0xfa	-6
173	0x7f	127
174	0x96	-106
175	0xfb	-5
176	0x81	-127
177	0x53	83
178	0x1f	31
179	0x0e	14
180	0x01	1
181	0x04	4
182	0x40	64
183	0x5f	95
184	0x2c	44
185	0x9e	-98
186	0x15	21
187	0x0a	10
188	0xb0	-80
189	0xf5	-11
190	0xbc	-68
191	0xe5	-27
192	0xe5	-27
193	0xc1	-63
194	0xbf	-65
195	0xdb	-37
196	0x20	32
197	0xaa	-86
198	0x96	-106
199	0xa3	-93
200	0x0c	12
201	0x17	23
202	0x3f	63
203	0xf6	-10
204	0xcb	-53
205	0x79	121
206	0x9a	-102
207	0xdb	-37
208	0xbc	-68
209	0x29	41
210	0xdf	-33
211	0x17	23
212	0xf3	-13
213	0x3b	59
214	0x04	4
215	0x2e	46
216	0x4b	75
217	0x81	-127
218	0xd4	-44
219	0xb9	-71
220	0x1f	31
221	0xd1	-47
222	0x30	48
223	0x3f	63
224	0x06	6
225	0xa3	-93
226	0xa3	-93
227	0xa2	-94
228	0x23	35
229	0xc1	-63
230	0xa7	-89
231	0xdf	-33
232	0x09	9
233	0x19	25
234	0x59	89
235	0x47	71
236	0x26	38
237	0x59	89
238	0xc2	-62
239	0x27	39
240	0xd3	-45
241	0x25	37
242	0x91	-111
243	0x09	9
244	0xf8	-8
245	0x6a	106
246	0xdc	-36
247	0x63	99
248	0x4f	79
249	0x0a	10
250	0xf7	-9
251	0x23	35
252	0x7f	127
253	0x81	-127
254	0x6e	110
255	0x4d	77

tfl.pseudo_qconst17 i1 [1, 7, 1, 32]
0	0x19	25
1	0x7f	127
2	0xeb	-21
3	0xe5	-27
4	0x56	86
5	0x00	0
6	0x24	36
7	0x04	4
8	0xf2	-14
9	0xb8	-72
10	0x45	69
11	0xb1	-79
12	0x48	72
13	0x16	22
14	0x81	-127
15	0xa6	-90
16	0x4d	77
17	0xf9	-7
18	0x4e	78
19	0x33	51
20	0x2b	43
21	0x9a	-102
22	0x4d	77
23	0x50	80
24	0xca	-54
25	0xc1	-63
26	0x81	-127
27	0x0f	15
28	0x52	82
29	0x7f	127
30	0x31	49
31	0x7f	127
32	0x39	57
33	0x9d	-99
34	0x81	-127
35	0x1e	30
36	0x5a	90
37	0x21	33
38	0x2f	47
39	0x1b	27
40	0x0d	13
41	0xfa	-6
42	0x1d	29
43	0x81	-127
44	0x00	0
45	0x48	72
46	0x5a	90
47	0xe5	-27
48	0x02	2
49	0xa4	-92
50	0xd9	-39
51	0x2e	46
52	0x08	8
53	0xd4	-44
54	0x37	55
55	0x15	21
56	0xba	-70
57	0x59	89
58	0xcc	-52
59	0x11	17
60	0x48	72
61	0x5e	94
62	0xc0	-64
63	0x61	97
64	0x03	3
65	0xc5	-59
66	0x37	55
67	0xa6	-90
68	0x7f	127
69	0xc8	-56
70	0xfc	-4
71	0xec	-20
72	0x04	4
73	0x7f	127
74	0xd5	-43
75	0x04	4
76	0xb5	-75
77	0x7f	127
78	0x31	49
79	0x3c	60
80	0x0a	10
81	0x81	-127
82	0xa0	-96
83	0x27	39
84	0xe1	-31
85	0xc0	-64
86	0xe7	-25
87	0xa7	-89
88	0x42	66
89	0x1f	31
90	0xea	-22
91	0x1c	28
92	0x1f	31
93	0x79	121
94	0x9c	-100
95	0x54	84
96	0x38	56
97	0xd8	-40
98	0xf2	-14
99	0xd6	-42
100	0x60	96
101	0xb5	-75
102	0xc7	-57
103	0x81	-127
104	0x0d	13
105	0x46	70
106	0x57	87
107	0x5a	90
108	0xd4	-44
109	0x55	85
110	0x2e	46
111	0xc2	-62
112	0xd0	-48
113	0x09	9
114	0xd5	-43
115	0xf6	-10
116	0xc8	-56
117	0x2e	46
118	0xe9	-23
119	0xdd	-35
120	0x12	18
121	0xa8	-88
122	0xe8	-24
123	0x0d	13
124	0x7f	127
125	0x59	89
126	0x81	-127
127	0x0f	15
128	0x7c	124
129	0x73	115
130	0x88	-120
131	0xa8	-88
132	0xd7	-41
133	0x05	5
134	0x93	-109
135	0xb7	-73
136	0xe1	-31
137	0x12	18
138	0xf8	-8
139	0x1c	28
140	0x11	17
141	0x36	54
142	0x28	40
143	0x7f	127
144	0x25	37
145	0x1b	27
146	0xad	-83
147	0xe9	-23
148	0x81	-127
149	0x73	115
150	0x45	69
151	0x7f	127
152	0x77	119
153	0xd2	-46
154	0xd3	-45
155	0xd4	-44
156	0x2b	43
157	0xfd	-3
158	0xd0	-48
159	0x85	-123
160	0x35	53
161	0x0f	15
162	0xbd	-67
163	0x81	-127
164	0x13	19
165	0x7f	127
166	0xec	-20
167	0xae	-82
168	0x00	0
169	0xcf	-49
170	0xfe	-2
171	0x25	37
172	0x4b	75
173	0x6f	111
174	0xa0	-96
175	0x60	96
176	0xd1	-47
177	0x02	2
178	0x1b	27
179	0xa4	-92
180	0xb5	-75
181	0xf3	-13
182	0x54	84
183	0x04	4
184	0xc2	-62
185	0xf7	-9
186	0xd7	-41
187	0xce	-50
188	0x15	21
189	0xff	-1
190	0x1d	29
191	0x9f	-97
192	0x7f	127
193	0x0b	11
194	0x72	114
195	0xaf	-81
196	0xc7	-57
197	0x6d	109
198	0x81	-127
199	0x09	9
200	0x81	-127
201	0xa8	-88
202	0x81	-127
203	0xf7	-9
204	0x7f	127
205	0x1e	30
206	0x33	51
207	0x77	119
208	0x81	-127
209	0x43	67
210	0x81	-127
211	0x81	-127
212	0x3b	59
213	0x81	-127
214	0x7f	127
215	0xaf	-81
216	0x81	-127
217	0x81	-127
218	0x00	0
219	0x81	-127
220	0x24	36
221	0x3b	59
222	0xda	-38
223	0xd6	-42

tfl.pseudo_qconst19 i1 [64, 1, 1, 32]
0	0x08	8
1	0x31	49
2	0x3e	62
3	0x57	87
4	0x2d	45
5	0xf8	-8
6	0xe0	-32
7	0x29	41
8	0x0b	11
9	0x31	49
10	0xf4	-12
11	0x81	-127
12	0x19	25
13	0xc4	-60
14	0x3c	60
15	0xe6	-26
16	0xdb	-37
17	0xd4	-44
18	0xe3	-29
19	0x30	48
20	0xe4	-28
21	0xd4	-44
22	0x28	40
23	0xf8	-8
24	0xca	-54
25	0x0b	11
26	0x1d	29
27	0xe1	-31
28	0x3e	62
29	0xc3	-61
30	0x32	50
31	0x4c	76
32	0x3b	59
33	0x49	73
34	0xe2	-30
35	0xac	-84
36	0x13	19
37	0x05	5
38	0x0e	14
39	0xce	-50
40	0xd9	-39
41	0xdc	-36
42	0x1c	28
43	0xd6	-42
44	0xd3	-45
45	0x38	56
46	0x7f	127
47	0x0a	10
48	0x2c	44
49	0x29	41
50	0x3f	63
51	0x1c	28
52	0xee	-18
53	0xfb	-5
54	0x1b	27
55	0x58	88
56	0xdb	-37
57	0xee	-18
58	0xe7	-25
59	0x14	20
60	0x6d	109
61	0xfb	-5
62	0x13	19
63	0xe7	-25
64	0x16	22
65	0x22	34
66	0x09	9
67	0x00	0
68	0x24	36
69	0x11	17
70	0x05	5
71	0xbe	-66
72	0xb7	-73
73	0xf3	-13
74	0xd3	-45
75	0xf0	-16
76	0xf5	-11
77	0xec	-20
78	0x2c	44
79	0x1c	28
80	0x29	41
81	0x14	20
82	0x11	17
83	0xd8	-40
84	0xb2	-78
85	0x31	49
86	0xe6	-26
87	0x7f	127
88	0x27	39
89	0x52	82
90	0xa9	-87
91	0xf3	-13
92	0xcc	-52
93	0x21	33
94	0x52	82
95	0xeb	-21
96	0x45	69
97	0xf9	-7
98	0x24	36
99	0xf0	-16
100	0xf3	-13
101	0xe3	-29
102	0xef	-17
103	0xca	-54
104	0xf6	-10
105	0xd6	-42
106	0xda	-38
107	0xf6	-10
108	0x24	36
109	0x7f	127
110	0x86	-122
111	0xf2	-14
112	0x5f	95
113	0xd8	-40
114	0x9d	-99
115	0x2b	43
116	0xe1	-31
117	0x16	22
118	0xfe	-2
119	0x4e	78
120	0x30	48
121	0x00	0
122	0x08	8
123	0xba	-70
124	0x18	24
125	0xb0	-80
126	0x58	88
127	0xca	-54
128	0x1a	26
129	0xfd	-3
130	0xdb	-37
131	0x39	57
132	0xff	-1
133	0x9e	-98
134	0xe3	-29
135	0xae	-82
136	0x01	1
137	0x55	85
138	0x4d	77
139	0x1d	29
140	0xbc	-68
141	0xfd	-3
142	0xfe	-2
143	0x61	97
144	0xc8	-56
145	0xbe	-66
146	0x31	49
147	0xe5	-27
148	0x81	-127
149	0x9a	-102
150	0x34	52
151	0xda	-38
152	0x02	2
153	0x61	97
154	0xbb	-69
155	0xc3	-61
156	0x54	84
157	0x25	37
158	0xfd	-3
159	0x73	115
160	0xe2	-30
161	0xbb	-69
162	0x0e	14
163	0x5e	94
164	0x37	55
165	0x04	4
166	0xe9	-23
167	0xa8	-88
168	0x0f	15
169	0xdb	-37
170	0x31	49
171	0xb3	-77
172	0x5d	93
173	0xea	-22
174	0x81	-127
175	0xea	-22
176	0x72	114
177	0xfd	-3
178	0x31	49
179	0x5d	93
180	0xd6	-42
181	0xc0	-64
182	0xf8	-8
183	0x06	6
184	0x7b	123
185	0x2e	46
186	0x35	53
187	0x2d	45
188	0xe9	-23
189	0xce	-50
190	0x54	84
191	0xba	-70
192	0x11	17
193	0x0f	15
194	0x99	-103
195	0xac	-84
196	0x37	55
197	0x5b	91
198	0xae	-82
199	0x92	-110
200	0x59	89
201	0xe5	-27
202	0xa2	-94
203	0xe3	-29
204	0xb5	-75
205	0xc5	-59
206	0x30	48
207	0xb8	-72
208	0x81	-127
209	0xcd	-51
210	0x12	18
211	0x5a	90
212	0x29	41
213	0x0c	12
214	0xb8	-72
215	0x1f	31
216	0x1b	27
217	0x2a	42
218	0x30	48
219	0xcf	-49
220	0x67	103
221	0xf5	-11
222	0x2f	47
223	0x09	9
224	0x7f	127
225	0x16	22
226	0x2d	45
227	0x46	70
228	0xd4	-44
229	0x5f	95
230	0xec	-20
231	0x29	41
232	0xbf	-65
233	0x1e	30
234	0x40	64
235	0xf8	-8
236	0x15	21
237	0x22	34
238	0x0a	10
239	0x14	20
240	0xdb	-37
241	0x2f	47
242	0x0a	10
243	0x44	68
244	0x12	18
245	0x06	6
246	0x23	35
247	0xa5	-91
248	0xeb	-21
249	0x3b	59
250	0xe2	-30
251	0x0e	14
252	0x16	22
253	0x14	20
254	0x20	32
255	0x11	17

tfl.pseudo_qconst21 i1 [1, 5, 1, 32]
0	0x7f	127
1	0xec	-20
2	0x81	-127
3	0xda	-38
4	0xd8	-40
5	0x1a	26
6	0xaf	-81
7	0xe8	-24
8	0x7c	124
9	0x54	84
10	0x24	36
11	0xdb	-37
12	0x22	34
13	0x62	98
14	0xfa	-6
15	0xf7	-9
16	0xcf	-49
17	0xa0	-96
18	0x57	87
19	0x7f	127
20	0xbc	-68
21	0xbd	-67
22	0x81	-127
23	0xb9	-71
24	0x21	33
25	0x04	4
26	0x48	72
27	0xf2	-14
28	0xf2	-14
29	0x70	112
30	0xfe	-2
31	0x7f	127
32	0x1e	30
33	0xb1	-79
34	0xd8	-40
35	0xb9	-71
36	0x1f	31
37	0x71	113
38	0x41	65
39	0x1b	27
40	0x12	18
41	0x58	88
42	0x10	16
43	0xba	-70
44	0x0d	13
45	0x7f	127
46	0x81	-127
47	0x1f	31
48	0xc0	-64
49	0xd1	-47
50	0x81	-127
51	0x5d	93
52	0x81	-127
53	0x17	23
54	0xcf	-49
55	0x40	64
56	0xb1	-79
57	0x7f	127
58	0x13	19
59	0x81	-127
60	0xfc	-4
61	0xd4	-44
62	0xe9	-23
63	0x47	71
64	0x6a	106
65	0x81	-127
66	0x71	113
67	0xc5	-59
68	0xe2	-30
69	0x7f	127
70	0x7c	124
71	0x14	20
72	0x81	-127
73	0x6c	108
74	0xcc	-52
75	0x81	-127
76	0x81	-127
77	0x29	41
78	0xa4	-92
79	0x6e	110
80	0x81	-127
81	0xe1	-31
82	0x89	-119
83	0x11	17
84	0xc3	-61
85	0x00	0
86	0xa6	-90
87	0x7f	127
88	0x7f	127
89	0x4d	77
90	0x47	71
91	0xa4	-92
92	0x59	89
93	0xa1	-95
94	0x67	103
95	0x3b	59
96	0x21	33
97	0xc2	-62
98	0xac	-84
99	0x08	8
100	0x56	86
101	0x54	84
102	0x7f	127
103	0x92	-110
104	0x03	3
105	0x7f	127
106	0xd2	-46
107	0x9c	-100
108	0xac	-84
109	0x50	80
110	0x90	-112
111	0x9a	-102
112	0xe0	-32
113	0x33	51
114	0x09	9
115	0x50	80
116	0xe4	-28
117	0x7f	127
118	0x25	37
119	0x96	-106
120	0x72	114
121	0xf1	-15
122	0x81	-127
123	0x2a	42
124	0x7f	127
125	0x81	-127
126	0x19	25
127	0xb5	-75
128	0x50	80
129	0xc5	-59
130	0x43	67
131	0x7f	127
132	0x7f	127
133	0x19	25
134	0x1e	30
135	0x81	-127
136	0xbc	-68
137	0x68	104
138	0x81	-127
139	0x13	19
140	0x6e	110
141	0x68	104
142	0xb7	-73
143	0x81	-127
144	0x38	56
145	0x7f	127
146	0x48	72
147	0x43	67
148	0xdd	-35
149	0x77	119
150	0x1d	29
151	0x0f	15
152	0xe4	-28
153	0x10	16
154	0x64	100
155	0x48	72
156	0x47	71
157	0xc7	-57
158	0x81	-127
159	0x86	-122

tfl.pseudo_qconst23 i1 [32, 5, 1, 40]
0	0x0a	10
1	0xd3	-45
2	0xd8	-40
3	0x3e	62
4	0xf0	-16
5	0x36	54
6	0x36	54
7	0xda	-38
8	0xe7	-25
9	0xd3	-45
10	0x0b	11
11	0xbd	-67
12	0xf6	-10
13	0x05	5
14	0xde	-34
15	0xd6	-42
16	0x31	49
17	0xeb	-21
18	0xfa	-6
19	0x4d	77
20	0xfa	-6
21	0xff	-1
22	0xf4	-12
23	0x0f	15
24	0x05	5
25	0x09	9
26	0x0a	10
27	0x2c	44
28	0xf2	-14
29	0xe6	-26
30	0x0c	12
31	0xfe	-2
32	0xea	-22
33	0x27	39
34	0xe5	-27
35	0x04	4
36	0xda	-38
37	0x20	32
38	0x17	23
39	0xd9	-39
40	0xe3	-29
41	0xff	-1
42	0x09	9
43	0x5a	90
44	0xf9	-7
45	0x2a	42
46	0x32	50
47	0xcd	-51
48	0xcc	-52
49	0xf6	-10
50	0xe0	-32
51	0xd7	-41
52	0x03	3
53	0xfe	-2
54	0x14	20
55	0xe0	-32
56	0xf8	-8
57	0xd3	-45
58	0x23	35
59	0x4c	76
60	0xef	-17
61	0x06	6
62	0xe6	-26
63	0xdd	-35
64	0x13	19
65	0x53	83
66	0x16	22
67	0xf7	-9
68	0xeb	-21
69	0x0d	13
70	0xee	-18
71	0x24	36
72	0xe2	-30
73	0x06	6
74	0xe4	-28
75	0xf6	-10
76	0x0a	10
77	0x0c	12
78	0xdd	-35
79	0x02	2
80	0xe5	-27
81	0x12	18
82	0xfe	-2
83	0x10	16
84	0xac	-84
85	0xdd	-35
86	0x24	36
87	0xee	-18
88	0xf2	-14
89	0xf1	-15
90	0xfb	-5
91	0xc3	-61
92	0xff	-1
93	0xf6	-10
94	0xd6	-42
95	0xcc	-52
96	0x29	41
97	0xdd	-35
98	0xe0	-32
99	0x1e	30
100	0xce	-50
101	0x40	64
102	0xfe	-2
103	0x30	48
104	0x16	22
105	0x23	35
106	0xd3	-45
107	0x00	0
108	0xdf	-33
109	0x16	22
110	0xdb	-37
111	0x25	37
112	0xef	-17
113	0xe5	-27
114	0xc5	-59
115	0x0c	12
116	0xe0	-32
117	0x1b	27
118	0x16	22
119	0x0d	13
120	0x0e	14
121	0x10	16
122	0xcd	-51
123	0x17	23
124	0xd1	-47
125	0xf5	-11
126	0x12	18
127	0xce	-50
128	0xba	-70
129	0xea	-22
130	0x14	20
131	0x0d	13
132	0xca	-54
133	0x44	68
134	0xd3	-45
135	0xdc	-36
136	0xf1	-15
137	0xeb	-21
138	0x1c	28
139	0x3c	60
140	0xb0	-80
141	0xe2	-30
142	0x06	6
143	0x04	4
144	0x09	9
145	0x0a	10
146	0xf3	-13
147	0x01	1
148	0xf8	-8
149	0x19	25
150	0xba	-70
151	0xf8	-8
152	0xda	-38
153	0x0c	12
154	0xc3	-61
155	0xd0	-48
156	0x00	0
157	0x10	16
158	0xf6	-10
159	0x1e	30
160	0x27	39
161	0x20	32
162	0xeb	-21
163	0xd9	-39
164	0xd0	-48
165	0x1d	29
166	0xf0	-16
167	0xb4	-76
168	0xec	-20
169	0xc4	-60
170	0x22	34
171	0x00	0
172	0xcf	-49
173	0xe0	-32
174	0xe4	-28
175	0x11	17
176	0xd6	-42
177	0xf7	-9
178	0x39	57
179	0xed	-19
180	0xe2	-30
181	0x36	54
182	0x08	8
183	0xfd	-3
184	0xf9	-7
185	0x0d	13
186	0x05	5
187	0x0f	15
188	0xce	-50
189	0x2f	47
190	0x81	-127
191	0xf0	-16
192	0xc0	-64
193	0x9b	-101
194	0xd6	-42
195	0x34	52
196	0x00	0
197	0x34	52
198	0x10	16
199	0x39	57
200	0x44	68
201	0xf2	-14
202	0x21	33
203	0x15	21
204	0x48	72
205	0xfa	-6
206	0x3e	62
207	0x0b	11
208	0x0a	10
209	0xd7	-41
210	0xd2	-46
211	0xc1	-63
212	0x02	2
213	0xe6	-26
214	0xcc	-52
215	0xe6	-26
216	0xfc	-4
217	0x2b	43
218	0x04	4
219	0xbf	-65
220	0x3e	62
221	0xf2	-14
222	0xf9	-7
223	0xdd	-35
224	0x0b	11
225	0x36	54
226	0xd2	-46
227	0xe1	-31
228	0xdf	-33
229	0xe8	-24
230	0x0d	13
231	0x3d	61
232	0x34	52
233	0x0a	10
234	0x4b	75
235	0xea	-22
236	0x0a	10
237	0xc9	-55
238	0xf0	-16
239	0xfe	-2
240	0x4d	77
241	0xef	-17
242	0x13	19
243	0x24	36
244	0x48	72
245	0xc8	-56
246	0x45	69
247	0x09	9
248	0xf2	-14
249	0xdc	-36
250	0xd7	-41
251	0xda	-38
252	0xdc	-36
253	0xc9	-55
254	0xd4	-44
255	0xee	-18

arith.constant19 f4 [1, 14, 1, 64]
0	0x00000000	0.0
1	0x00000000	0.0
2	0x00000000	0.0
3	0x00000000	0.0
4	0x00000000	0.0
5	0x00000000	0.0
6	0x00000000	0.0
7	0x00000000	0.0
8	0x00000000	0.0
9	0x00000000	0.0
10	0x00000000	0.0
11	0x00000000	0.0
12	0x00000000	0.0
13	0x00000000	0.0
14	0x00000000	0.0
15	0x00000000	0.0
16	0x00000000	0.0
17	0x00000000	0.0
18	0x00000000	0.0
19	0x00000000	0.0
20	0x00000000	0.0
21	0x00000000	0.0
22	0x00000000	0.0
23	0x00000000	0.0
24	0x00000000	0.0
25	0x00000000	0.0
26	0x00000000	0.0
27	0x00000000	0.0
28	0x00000000	0.0
29	0x00000000	0.0
30	0x00000000	0.0
31	0x00000000	0.0
32	0x00000000	0.0
33	0x00000000	0.0
34	0x00000000	0.0
35	0x00000000	0.0
36	0x00000000	0.0
37	0x00000000	0.0
38	0x00000000	0.0
39	0x00000000	0.0
40	0x00000000	0.0
41	0x00000000	0.0
42	0x00000000	0.0
43	0x00000000	0.0
44	0x00000000	0.0
45	0x00000000	0.0
46	0x00000000	0.0
47	0x00000000	0.0
48	0x00000000	0.0
49	0x00000000	0.0
50	0x00000000	0.0
51	0x00000000	0.0
52	0x00000000	0.0
53	0x00000000	0.0
54	0x00000000	0.0
55	0x00000000	0.0
56	0x00000000	0.0
57	0x00000000	0.0
58	0x00000000	0.0
59	0x00000000	0.0
60	0x00000000	0.0
61	0x00000000	0.0
62	0x00000000	0.0
63	0x00000000	0.0
64	0x00000000	0.0
65	0x00000000	0.0
66	0x00000000	0.0
67	0x00000000	0.0
68	0x00000000	0.0
69	0x00000000	0.0
70	0x00000000	0.0
71	0x00000000	0.0
72	0x00000000	0.0
73	0x00000000	0.0
74	0x00000000	0.0
75	0x00000000	0.0
76	0x00000000	0.0
77	0x00000000	0.0
78	0x00000000	0.0
79	0x00000000	0.0
80	0x00000000	0.0
81	0x00000000	0.0
82	0x00000000	0.0
83	0x00000000	0.0
84	0x00000000	0.0
85	0x00000000	0.0
86	0x00000000	0.0
87	0x00000000	0.0
88	0x00000000	0.0
89	0x00000000	0.0
90	0x00000000	0.0
91	0x00000000	0.0
92	0x00000000	0.0
93	0x00000000	0.0
94	0x00000000	0.0
95	0x00000000	0.0
96	0x00000000	0.0
97	0x00000000	0.0
98	0x00000000	0.0
99	0x00000000	0.0
100	0x00000000	0.0
101	0x00000000	0.0
102	0x00000000	0.0
103	0x00000000	0.0
104	0x00000000	0.0
105	0x00000000	0.0
106	0x00000000	0.0
107	0x00000000	0.0
108	0x00000000	0.0
109	0x00000000	0.0
110	0x00000000	0.0
111	0x00000000	0.0
112	0x00000000	0.0
113	0x00000000	0.0
114	0x00000000	0.0
115	0x00000000	0.0
116	0x00000000	0.0
117	0x00000000	0.0
118	0x00000000	0.0
119	0x00000000	0.0
120	0x00000000	0.0
121	0x00000000	0.0
122	0x00000000	0.0
123	0x00000000	0.0
124	0x00000000	0.0
125	0x00000000	0.0
126	0x00000000	0.0
127	0x00000000	0.0
128	0x00000000	0.0
129	0x00000000	0.0
130	0x00000000	0.0
131	0x00000000	0.0
132	0x00000000	0.0
133	0x00000000	0.0
134	0x00000000	0.0
135	0x00000000	0.0
136	0x00000000	0.0
137	0x00000000	0.0
138	0x00000000	0.0
139	0x00000000	0.0
140	0x00000000	0.0
141	0x00000000	0.0
142	0x00000000	0.0
143	0x00000000	0.0
144	0x00000000	0.0
145	0x00000000	0.0
146	0x00000000	0.0
147	0x00000000	0.0
148	0x00000000	0.0
149	0x00000000	0.0
150	0x00000000	0.0
151	0x00000000	0.0
152	0x00000000	0.0
153	0x00000000	0.0
154	0x00000000	0.0
155	0x00000000	0.0
156	0x00000000	0.0
157	0x00000000	0.0
158	0x00000000	0.0
159	0x00000000	0.0
160	0x00000000	0.0
161	0x00000000	0.0
162	0x00000000	0.0
163	0x00000000	0.0
164	0x00000000	0.0
165	0x00000000	0.0
166	0x00000000	0.0
167	0x00000000	0.0
168	0x00000000	0.0
169	0x00000000	0.0
170	0x00000000	0.0
171	0x00000000	0.0
172	0x00000000	0.0
173	0x00000000	0.0
174	0x00000000	0.0
175	0x00000000	0.0
176	0x00000000	0.0
177	0x00000000	0.0
178	0x00000000	0.0
179	0x00000000	0.0
180	0x00000000	0.0
181	0x00000000	0.0
182	0x00000000	0.0
183	0x00000000	0.0
184	0x00000000	0.0
185	0x00000000	0.0
186	0x00000000	0.0
187	0x00000000	0.0
188	0x00000000	0.0
189	0x00000000	0.0
190	0x00000000	0.0
191	0x00000000	0.0
192	0x00000000	0.0
193	0x00000000	0.0
194	0x00000000	0.0
195	0x00000000	0.0
196	0x00000000	0.0
197	0x00000000	0.0
198	0x00000000	0.0
199	0x00000000	0.0
200	0x00000000	0.0
201	0x00000000	0.0
202	0x00000000	0.0
203	0x00000000	0.0
204	0x00000000	0.0
205	0x00000000	0.0
206	0x00000000	0.0
207	0x00000000	0.0
208	0x00000000	0.0
209	0x00000000	0.0
210	0x00000000	0.0
211	0x00000000	0.0
212	0x00000000	0.0
213	0x00000000	0.0
214	0x00000000	0.0
215	0x00000000	0.0
216	0x00000000	0.0
217	0x00000000	0.0
218	0x00000000	0.0
219	0x00000000	0.0
220	0x00000000	0.0
221	0x00000000	0.0
222	0x00000000	0.0
223	0x00000000	0.0
224	0x00000000	0.0
225	0x00000000	0.0
226	0x00000000	0.0
227	0x00000000	0.0
228	0x00000000	0.0
229	0x00000000	0.0
230	0x00000000	0.0
231	0x00000000	0.0
232	0x00000000	0.0
233	0x00000000	0.0
234	0x00000000	0.0
235	0x00000000	0.0
236	0x00000000	0.0
237	0x00000000	0.0
238	0x00000000	0.0
239	0x00000000	0.0
240	0x00000000	0.0
241	0x00000000	0.0
242	0x00000000	0.0
243	0x00000000	0.0
244	0x00000000	0.0
245	0x00000000	0.0
246	0x00000000	0.0
247	0x00000000	0.0
248	0x00000000	0.0
249	0x00000000	0.0
250	0x00000000	0.0
251	0x00000000	0.0
252	0x00000000	0.0
253	0x00000000	0.0
254	0x00000000	0.0
255	0x00000000	0.0

arith.constant20 f4 [1, 10, 1, 64]
0	0x00000000	0.0
1	0x00000000	0.0
2	0x00000000	0.0
3	0x00000000	0.0
4	0x00000000	0.0
5	0x00000000	0.0
6	0x00000000	0.0
7	0x00000000	0.0
8	0x00000000	0.0
9	0x00000000	0.0
10	0x00000000	0.0
11	0x00000000	0.0
12	0x00000000	0.0
13	0x00000000	0.0
14	0x00000000	0.0
15	0x00000000	0.0
16	0x00000000	0.0
17	0x00000000	0.0
18	0x00000000	0.0
19	0x00000000	0.0
20	0x00000000	0.0
21	0x00000000	0.0
22	0x00000000	0.0
23	0x00000000	0.0
24	0x00000000	0.0
25	0x00000000	0.0
26	0x00000000	0.0
27	0x00000000	0.0
28	0x00000000	0.0
29	0x00000000	0.0
30	0x00000000	0.0
31	0x00000000	0.0
32	0x00000000	0.0
33	0x00000000	0.0
34	0x00000000	0.0
35	0x00000000	0.0
36	0x00000000	0.0
37	0x00000000	0.0
38	0x00000000	0.0
39	0x00000000	0.0
40	0x00000000	0.0
41	0x00000000	0.0
42	0x00000000	0.0
43	0x00000000	0.0
44	0x00000000	0.0
45	0x00000000	0.0
46	0x00000000	0.0
47	0x00000000	0.0
48	0x00000000	0.0
49	0x00000000	0.0
50	0x00000000	0.0
51	0x00000000	0.0
52	0x00000000	0.0
53	0x00000000	0.0
54	0x00000000	0.0
55	0x00000000	0.0
56	0x00000000	0.0
57	0x00000000	0.0
58	0x00000000	0.0
59	0x00000000	0.0
60	0x00000000	0.0
61	0x00000000	0.0
62	0x00000000	0.0
63	0x00000000	0.0
64	0x00000000	0.0
65	0x00000000	0.0
66	0x00000000	0.0
67	0x00000000	0.0
68	0x00000000	0.0
69	0x00000000	0.0
70	0x00000000	0.0
71	0x00000000	0.0
72	0x00000000	0.0
73	0x00000000	0.0
74	0x00000000	0.0
75	0x00000000	0.0
76	0x00000000	0.0
77	0x00000000	0.0
78	0x00000000	0.0
79	0x00000000	0.0
80	0x00000000	0.0
81	0x00000000	0.0
82	0x00000000	0.0
83	0x00000000	0.0
84	0x00000000	0.0
85	0x00000000	0.0
86	0x00000000	0.0
87	0x00000000	0.0
88	0x00000000	0.0
89	0x00000000	0.0
90	0x00000000	0.0
91	0x00000000	0.0
92	0x00000000	0.0
93	0x00000000	0.0
94	0x00000000	0.0
95	0x00000000	0.0
96	0x00000000	0.0
97	0x00000000	0.0
98	0x00000000	0.0
99	0x00000000	0.0
100	0x00000000	0.0
101	0x00000000	0.0
102	0x00000000	0.0
103	0x00000000	0.0
104	0x00000000	0.0
105	0x00000000	0.0
106	0x00000000	0.0
107	0x00000000	0.0
108	0x00000000	0.0
109	0x00000000	0.0
110	0x00000000	0.0
111	0x00000000	0.0
112	0x00000000	0.0
113	0x00000000	0.0
114	0x00000000	0.0
115	0x00000000	0.0
116	0x00000000	0.0
117	0x00000000	0.0
118	0x00000000	0.0
119	0x00000000	0.0
120	0x00000000	0.0
121	0x00000000	0.0
122	0x00000000	0.0
123	0x00000000	0.0
124	0x00000000	0.0
125	0x00000000	0.0
126	0x00000000	0.0
127	0x00000000	0.0
128	0x00000000	0.0
129	0x00000000	0.0
130	0x00000000	0.0
131	0x00000000	0.0
132	0x00000000	0.0
133	0x00000000	0.0
134	0x00000000	0.0
135	0x00000000	0.0
136	0x00000000	0.0
137	0x00000000	0.0
138	0x00000000	0.0
139	0x00000000	0.0
140	0x00000000	0.0
141	0x00000000	0.0
142	0x00000000	0.0
143	0x00000000	0.0
144	0x00000000	0.0
145	0x00000000	0.0
146	0x00000000	0.0
147	0x00000000	0.0
148	0x00000000	0.0
149	0x00000000	0.0
150	0x00000000	0.0
151	0x00000000	0.0
152	0x00000000	0.0
153	0x00000000	0.0
154	0x00000000	0.0
155	0x00000000	0.0
156	0x00000000	0.0
157	0x00000000	0.0
158	0x00000000	0.0
159	0x00000000	0.0
160	0x00000000	0.0
161	0x00000000	0.0
162	0x00000000	0.0
163	0x00000000	0.0
164	0x00000000	0.0
165	0x00000000	0.0
166	0x00000000	0.0
167	0x00000000	0.0
168	0x00000000	0.0
169	0x00000000	0.0
170	0x00000000	0.0
171	0x00000000	0.0
172	0x00000000	0.0
173	0x00000000	0.0
174	0x00000000	0.0
175	0x00000000	0.0
176	0x00000000	0.0
177	0x00000000	0.0
178	0x00000000	0.0
179	0x00000000	0.0
180	0x00000000	0.0
181	0x00000000	0.0
182	0x00000000	0.0
183	0x00000000	0.0
184	0x00000000	0.0
185	0x00000000	0.0
186	0x00000000	0.0
187	0x00000000	0.0
188	0x00000000	0.0
189	0x00000000	0.0
190	0x00000000	0.0
191	0x00000000	0.0
192	0x00000000	0.0
193	0x00000000	0.0
194	0x00000000	0.0
195	0x00000000	0.0
196	0x00000000	0.0
197	0x00000000	0.0
198	0x00000000	0.0
199	0x00000000	0.0
200	0x00000000	0.0
201	0x00000000	0.0
202	0x00000000	0.0
203	0x00000000	0.0
204	0x00000000	0.0
205	0x00000000	0.0
206	0x00000000	0.0
207	0x00000000	0.0
208	0x00000000	0.0
209	0x00000000	0.0
210	0x00000000	0.0
211	0x00000000	0.0
212	0x00000000	0.0
213	0x00000000	0.0
214	0x00000000	0.0
215	0x00000000	0.0
216	0x00000000	0.0
217	0x00000000	0.0
218	0x00000000	0.0
219	0x00000000	0.0
220	0x00000000	0.0
221	0x00000000	0.0
222	0x00000000	0.0
223	0x00000000	0.0
224	0x00000000	0.0
225	0x00000000	0.0
226	0x00000000	0.0
227	0x00000000	0.0
228	0x00000000	0.0
229	0x00000000	0.0
230	0x00000000	0.0
231	0x00000000	0.0
232	0x00000000	0.0
233	0x00000000	0.0
234	0x00000000	0.0
235	0x00000000	0.0
236	0x00000000	0.0
237	0x00000000	0.0
238	0x00000000	0.0
239	0x00000000	0.0
240	0x00000000	0.0
241	0x00000000	0.0
242	0x00000000	0.0
243	0x00000000	0.0
244	0x00000000	0.0
245	0x00000000	0.0
246	0x00000000	0.0
247	0x00000000	0.0
248	0x00000000	0.0
249	0x00000000	0.0
250	0x00000000	0.0
251	0x00000000	0.0
252	0x00000000	0.0
253	0x00000000	0.0
254	0x00000000	0.0
255	0x00000000	0.0

arith.constant21 f4 [1, 4, 1, 32]
0	0x00000000	0.0
1	0x00000000	0.0
2	0x00000000	0.0
3	0x00000000	0.0
4	0x00000000	0.0
5	0x00000000	0.0
6	0x00000000	0.0
7	0x00000000	0.0
8	0x00000000	0.0
9	0x00000000	0.0
10	0x00000000	0.0
11	0x00000000	0.0
12	0x00000000	0.0
13	0x00000000	0.0
14	0x00000000	0.0
15	0x00000000	0.0
16	0x00000000	0.0
17	0x00000000	0.0
18	0x00000000	0.0
19	0x00000000	0.0
20	0x00000000	0.0
21	0x00000000	0.0
22	0x00000000	0.0
23	0x00000000	0.0
24	0x00000000	0.0
25	0x00000000	0.0
26	0x00000000	0.0
27	0x00000000	0.0
28	0x00000000	0.0
29	0x00000000	0.0
30	0x00000000	0.0
31	0x00000000	0.0
32	0x00000000	0.0
33	0x00000000	0.0
34	0x00000000	0.0
35	0x00000000	0.0
36	0x00000000	0.0
37	0x00000000	0.0
38	0x00000000	0.0
39	0x00000000	0.0
40	0x00000000	0.0
41	0x00000000	0.0
42	0x00000000	0.0
43	0x00000000	0.0
44	0x00000000	0.0
45	0x00000000	0.0
46	0x00000000	0.0
47	0x00000000	0.0
48	0x00000000	0.0
49	0x00000000	0.0
50	0x00000000	0.0
51	0x00000000	0.0
52	0x00000000	0.0
53	0x00000000	0.0
54	0x00000000	0.0
55	0x00000000	0.0
56	0x00000000	0.0
57	0x00000000	0.0
58	0x00000000	0.0
59	0x00000000	0.0
60	0x00000000	0.0
61	0x00000000	0.0
62	0x00000000	0.0
63	0x00000000	0.0
64	0x00000000	0.0
65	0x00000000	0.0
66	0x00000000	0.0
67	0x00000000	0.0
68	0x00000000	0.0
69	0x00000000	0.0
70	0x00000000	0.0
71	0x00000000	0.0
72	0x00000000	0.0
73	0x00000000	0.0
74	0x00000000	0.0
75	0x00000000	0.0
76	0x00000000	0.0
77	0x00000000	0.0
78	0x00000000	0.0
79	0x00000000	0.0
80	0x00000000	0.0
81	0x00000000	0.0
82	0x00000000	0.0
83	0x00000000	0.0
84	0x00000000	0.0
85	0x00000000	0.0
86	0x00000000	0.0
87	0x00000000	0.0
88	0x00000000	0.0
89	0x00000000	0.0
90	0x00000000	0.0
91	0x00000000	0.0
92	0x00000000	0.0
93	0x00000000	0.0
94	0x00000000	0.0
95	0x00000000	0.0
96	0x00000000	0.0
97	0x00000000	0.0
98	0x00000000	0.0
99	0x00000000	0.0
100	0x00000000	0.0
101	0x00000000	0.0
102	0x00000000	0.0
103	0x00000000	0.0
104	0x00000000	0.0
105	0x00000000	0.0
106	0x00000000	0.0
107	0x00000000	0.0
108	0x00000000	0.0
109	0x00000000	0.0
110	0x00000000	0.0
111	0x00000000	0.0
112	0x00000000	0.0
113	0x00000000	0.0
114	0x00000000	0.0
115	0x00000000	0.0
116	0x00000000	0.0
117	0x00000000	0.0
118	0x00000000	0.0
119	0x00000000	0.0
120	0x00000000	0.0
121	0x00000000	0.0
122	0x00000000	0.0
123	0x00000000	0.0
124	0x00000000	0.0
125	0x00000000	0.0
126	0x00000000	0.0
127	0x00000000	0.0
