dave.tflite (tflite, 60944 bytes, 18 tensors)

tfl.pseudo_qconst1 i1 [1, 1088] scale=0.005242204 zero_point=0
00000000: d7e6 fa1e cf1a 21a9 01ef 16dc ede0 0de0
00000010: e9f2 efc8 c8f8 c4f5 fe2c 09d9 1cef feca
00000020: f4f8 e7e0 e708 05e0 d7e5 d6f6 edc6 db04
00000030: e3d1 05ec e8c5 edfe eff2 fedf 2c03 f9d1
00000040: eef6 fc01 e8fc 26f1 fcf3 020e 0802 2e00
00000050: e5eb e0ea e9f8 e813 ff24 13ed 060b fde1
00000060: f9f7 f9fa ea14 eced f300 fffb f7ef fee2
00000070: eaf2 ebfd ffe3 01fc f8d6 00e3 1712 1201
00000080: d7f2 f9ff e0f0 1011 fbe1 f90a 0f00 1a04
00000090: e8f2 d7f2 ee0c e8fe f62a 0df4 ee0d 00e7
000000a0: f8ef f9fc e30b e5ec 03f1 faec e6e4 f0ee
000000b0: edf1 f2e8 f3e2 0300 f4db 00ea 0f09 11ec
000000c0: dbf1 f9e2 e3e8 1406 08f1 f6f9 eb0d 140c
000000d0: f801 d1ef fd0d f7eb db29 0800 faec 0df6
000000e0: e1e2 de0d 0016 edfc f50d eafc fadf f3ec
000000f0: e5d9 ecf2 07f7 e7f3 ebdd 15fa 1405 14f5
-0.21493036 -0.1362973 -0.031453222 0.15726611 -0.25686797 0.1362973 0.17299272 -0.45607173
0.005242204 -0.08911747 0.11532848 -0.18871933 -0.09960187 -0.16775052 0.06814865 -0.16775052
-0.12057069 -0.07339086 -0.08911747 -0.29356343 -0.29356343 -0.04193763 -0.31453222 -0.05766424
-0.010484408 0.23065697 0.047179833 -0.20444594 0.14678171 -0.08911747 -0.010484408 -0.283079
-0.062906444 -0.04193763 -0.1310551 -0.16775052 -0.1310551 0.04193763 0.02621102 -0.16775052
-0.21493036 -0.1415395 -0.22017255 -0.05242204 -0.09960187 -0.30404782 -0.19396155 0.020968815
-0.15202391 -0.24638358 0.02621102 -0.10484408 -0.12581289 -0.30929002 -0.09960187 -0.010484408
-0.08911747 -0.07339086 -0.010484408 -0.17299272 0.23065697 0.015726611 -0.03669543 -0.24638358
-0.094359666 -0.05242204 -0.020968815 0.005242204 -0.12581289 -0.020968815 0.19920374 -0.078633055
-0.020968815 -0.06814865 0.010484408 0.07339086 0.04193763 0.010484408 0.24114138 0.0
-0.1415395 -0.11008628 -0.16775052 -0.11532848 -0.12057069 -0.04193763 -0.12581289 0.09960187
-0.005242204 0.18871933 0.09960187 -0.09960187 0.031453222 0.05766424 -0.015726611 -0.16250832
-0.03669543 -0.047179833 -0.03669543 -0.031453222 -0.11532848 0.10484408 -0.10484408 -0.09960187
-0.06814865 0.0 -0.005242204 -0.02621102 -0.047179833 -0.08911747 -0.010484408 -0.15726611
-0.11532848 -0.07339086 -0.11008628 -0.015726611 -0.005242204 -0.15202391 0.005242204 -0.020968815
-0.04193763 -0.22017255 0.0 -0.15202391 0.12057069 0.094359666 0.094359666 0.005242204
-0.21493036 -0.07339086 -0.03669543 -0.005242204 -0.16775052 -0.08387526 0.08387526 0.08911747
-0.02621102 -0.16250832 -0.03669543 0.05242204 0.078633055 0.0 0.1362973 0.020968815
-0.12581289 -0.07339086 -0.21493036 -0.07339086 -0.094359666 0.062906444 -0.12581289 -0.010484408
-0.05242204 0.22017255 0.06814865 -0.062906444 -0.094359666 0.06814865 0.0 -0.1310551
-0.04193763 -0.08911747 -0.03669543 -0.020968815 -0.15202391 0.05766424 -0.1415395 -0.10484408
0.015726611 -0.078633055 -0.031453222 -0.10484408 -0.1362973 -0.14678171 -0.08387526 -0.094359666
-0.09960187 -0.078633055 -0.07339086 -0.12581289 -0.06814865 -0.15726611 0.015726611 0.0
-0.062906444 -0.19396155 0.0 -0.11532848 0.078633055 0.047179833 0.08911747 -0.10484408
-0.19396155 -0.078633055 -0.03669543 -0.15726611 -0.15202391 -0.12581289 0.10484408 0.031453222
0.04193763 -0.078633055 -0.05242204 -0.03669543 -0.11008628 0.06814865 0.10484408 0.062906444
-0.04193763 0.005242204 -0.24638358 -0.08911747 -0.015726611 0.06814865 -0.047179833 -0.11008628
-0.19396155 0.21493036 0.04193763 0.0 -0.031453222 -0.10484408 0.06814865 -0.05242204
-0.16250832 -0.15726611 -0.17823493 0.06814865 0.0 0.11532848 -0.09960187 -0.020968815
-0.05766424 0.06814865 -0.11532848 -0.020968815 -0.031453222 -0.17299272 -0.06814865 -0.10484408
-0.1415395 -0.20444594 -0.10484408 -0.07339086 0.03669543 -0.047179833 -0.1310551 -0.06814865
-0.11008628 -0.18347713 0.11008628 -0.031453222 0.10484408 0.02621102 0.10484408 -0.05766424

tfl.pseudo_qconst3 i1 [64, 1, 1, 64]
00000000: e6b3 f1e3 b922 1bd9 20cf cd42 c046 d5e7
00000010: 7f5e 2146 9ad8 061c baa7 0a32 2cb9 34a9
00000020: 3cce 1511 08c2 de40 2c34 12f3 fad1 0652
00000030: 641a 484f d3c3 1eaa f6e6 c13d c903 901e
00000040: 130f ca0f e324 ea00 1b3d eeec 7fce dbbf
00000050: 9d33 0d39 f4cf f8ed d9f7 11f9 1624 0402
00000060: 1646 dfa6 26b9 e014 fce2 febf 4619 af1c
00000070: f818 26f7 41d2 0629 f7fd bea8 cb27 e6e4
00000080: 0516 2581 be5f 05e8 b3fb b0e5 479d f3dc
00000090: ea4b 0bdc c860 42f9 e22a ef1d d514 5d40
000000a0: cc2b 46a5 c41f 25d7 c408 9a2a 2402 df3b
000000b0: 2562 dd10 6e27 2e5f f5d1 1a23 56d6 97ae
000000c0: 30ed 11d5 135a fbd9 5467 1bde 1e01 d0da
000000d0: ae9f 22ea 5628 14ff 0b14 2309 140e 62c9
000000e0: caf7 15d8 e6ef 26c0 db29 ba20 582d eb02
000000f0: cb53 c038 3a00 1317 7ff5 de3d d02b 5e02
-26 -77 -15 -29 -71 34 27 -39
32 -49 -51 66 -64 70 -43 -25
127 94 33 70 -102 -40 6 28
-70 -89 10 50 44 -71 52 -87
60 -50 21 17 8 -62 -34 64
44 52 18 -13 -6 -47 6 82
100 26 72 79 -45 -61 30 -86
-10 -26 -63 61 -55 3 -112 30
19 15 -54 15 -29 36 -22 0
27 61 -18 -20 127 -50 -37 -65
-99 51 13 57 -12 -49 -8 -19
-39 -9 17 -7 22 36 4 2
22 70 -33 -90 38 -71 -32 20
-4 -30 -2 -65 70 25 -81 28
-8 24 38 -9 65 -46 6 41
-9 -3 -66 -88 -53 39 -26 -28
5 22 37 -127 -66 95 5 -24
-77 -5 -80 -27 71 -99 -13 -36
-22 75 11 -36 -56 96 66 -7
-30 42 -17 29 -43 20 93 64
-52 43 70 -91 -60 31 37 -41
-60 8 -102 42 36 2 -33 59
37 98 -35 16 110 39 46 95
-11 -47 26 35 86 -42 -105 -82
48 -19 17 -43 19 90 -5 -39
84 103 27 -34 30 1 -48 -38
-82 -97 34 -22 86 40 20 -1
11 20 35 9 20 14 98 -55
-54 -9 21 -40 -26 -17 38 -64
-37 41 -70 32 88 45 -21 2
-53 83 -64 56 58 0 19 23
127 -11 -34 61 -48 43 94 2

tfl.pseudo_qconst5 i1 [1, 23, 1, 64]
00000000: ec11 8d2f cce0 038b c381 eb38 5e7f f081
00000010: efe5 5708 ebd2 6e68 896a 205e bd21 a229
00000020: b57f 1f62 4481 4581 2224 7fd0 3ec2 c47f
00000030: 9c9c 18a8 3ca8 7881 810e 2d3c 7f7f a6e2
00000040: df1d d029 edbf eb81 b6b2 e80b 7d44 a9b3
00000050: d2ec 4304 c4e8 547b 817f e00e f4ef b5d2
00000060: da66 3a42 0aab 43b2 3a1c 5edd 09bf ae63
00000070: c0d1 13c7 1781 6bb9 a11e 1f23 6b22 e6ab
00000080: ef1e 1e12 c8dc ffc1 bbe6 f215 7f21 d7c5
00000090: 8a11 4516 99d3 4568 8f4a 0303 1c9c c5b0
000000a0: 06f9 252c 369d 07bf 4b18 73ea ea00 c133
000000b0: 04db 17b3 dd9a 3ecd e008 032a 52f1 fbe0
000000c0: cf1d 7ffd c109 d0e5 caf4 fd28 5317 edbc
000000d0: 8139 7f3d 1bdd 1f04 a843 f6ee 42be c2c8
000000e0: 27e8 0b0c cfbd edc1 325c 5ec8 d71b b7bc
000000f0: f1db 1b17 abe9 19e1 1815 1730 22d2 e20f
-20 17 -115 47 -52 -32 3 -117
-61 -127 -21 56 94 127 -16 -127
-17 -27 87 8 -21 -46 110 104
-119 106 32 94 -67 33 -94 41
-75 127 31 98 68 -127 69 -127
34 36 127 -48 62 -62 -60 127
-100 -100 24 -88 60 -88 120 -127
-127 14 45 60 127 127 -90 -30
-33 29 -48 41 -19 -65 -21 -127
-74 -78 -24 11 125 68 -87 -77
-46 -20 67 4 -60 -24 84 123
-127 127 -32 14 -12 -17 -75 -46
-38 102 58 66 10 -85 67 -78
58 28 94 -35 9 -65 -82 99
-64 -47 19 -57 23 -127 107 -71
-95 30 31 35 107 34 -26 -85
-17 30 30 18 -56 -36 -1 -63
-69 -26 -14 21 127 33 -41 -59
-118 17 69 22 -103 -45 69 104
-113 74 3 3 28 -100 -59 -80
6 -7 37 44 54 -99 7 -65
75 24 115 -22 -22 0 -63 51
4 -37 23 -77 -35 -102 62 -51
-32 8 3 42 82 -15 -5 -32
-49 29 127 -3 -63 9 -48 -27
-54 -12 -3 40 83 23 -19 -68
-127 57 127 61 27 -35 31 4
-88 67 -10 -18 66 -66 -62 -56
39 -24 11 12 -49 -67 -19 -63
50 92 94 -56 -41 27 -73 -68
-15 -37 27 23 -85 -23 25 -31
24 21 23 48 34 -46 -30 15

tfl.pseudo_qconst7 i1 [64, 1, 1, 64]
00000000: 4526 cdc1 0507 f0c3 0302 ffc9 c33b dc20
00000010: 0b27 f809 c0e9 3506 f534 7fec e056 f3eb
00000020: ef27 d755 fe17 de04 1cfd f349 dcda 1b3c
00000030: e1fa d906 c14e 4cf4 e8c3 e3e4 050f 02eb
00000040: 28d7 f72c d7f6 09dc 111e e2de 1e28 cfe4
00000050: efe0 0b29 1334 e91a dc05 33b8 f6dd 2203
00000060: 0c02 f41a 071e f822 08de f8f0 48e7 faeb
00000070: 0212 7f1b c6ed e908 d6dd 06f0 10de 0127
00000080: 5fa6 146f c4ec 0deb 1cf2 f734 1d1e 5424
00000090: e501 00de 6e19 3481 7882 4335 fb6c 8efb
000000a0: 344a ddf0 3aeb 4eee 2f11 a255 ecc5 0eaf
000000b0: da1d d6b3 e54e 6eb3 177e 590c 4c11 e6c0
000000c0: f014 f1e2 195d 7f06 4eb9 da07 c126 d546
000000d0: 090e ead7 0cf0 05ea ebde f4ba 10d3 38e4
000000e0: efbc 07e4 35c7 d312 de23 1842 cc01 6afa
000000f0: f016 2404 9809 5616 27cb 360c 0af1 2b02
69 38 -51 -63 5 7 -16 -61
3 2 -1 -55 -61 59 -36 32
11 39 -8 9 -64 -23 53 6
-11 52 127 -20 -32 86 -13 -21
-17 39 -41 85 -2 23 -34 4
28 -3 -13 73 -36 -38 27 60
-31 -6 -39 6 -63 78 76 -12
-24 -61 -29 -28 5 15 2 -21
40 -41 -9 44 -41 -10 9 -36
17 30 -30 -34 30 40 -49 -28
-17 -32 11 41 19 52 -23 26
-36 5 51 -72 -10 -35 34 3
12 2 -12 26 7 30 -8 34
8 -34 -8 -16 72 -25 -6 -21
2 18 127 27 -58 -19 -23 8
-42 -35 6 -16 16 -34 1 39
95 -90 20 111 -60 -20 13 -21
28 -14 -9 52 29 30 84 36
-27 1 0 -34 110 25 52 -127
120 -126 67 53 -5 108 -114 -5
52 74 -35 -16 58 -21 78 -18
47 17 -94 85 -20 -59 14 -81
-38 29 -42 -77 -27 78 110 -77
23 126 89 12 76 17 -26 -64
-16 20 -15 -30 25 93 127 6
78 -71 -38 7 -63 38 -43 70
9 14 -22 -41 12 -16 5 -22
-21 -34 -12 -70 16 -45 56 -28
-17 -68 7 -28 53 -57 -45 18
-34 35 24 66 -52 1 106 -6
-16 22 36 4 -104 9 86 22
39 -53 54 12 10 -15 43 2

tfl.pseudo_qconst9 i1 [1, 15, 1, 32]
00000000: 819a f30f 7b4b 2ab1 747f 7fb2 cdc5 81db
00000010: 71ca 23cd bdc3 8118 0681 7fc5 567f 7f2d
00000020: a8c5 3b19 7f03 1027 494a 5e94 a916 a143
00000030: 7ff8 129a 81db a710 fb90 54d7 496e 4119
00000040: dc81 7048 4bf2 ca2d 0816 5cdb 9f30 c837
00000050: 7c00 0581 04d4 e61a e984 3fe3 e85f 132a
00000060: e19b 354a 4c1b 917f f6cb 3ffd d9f6 c96d
00000070: 7dd8 0ada 1119 e5d0 eed8 2315 cd6f 2d4e
00000080: 04c8 2600 1b14 8175 19ef 12ec d0cf e159
00000090: 48e4 040a 72f5 cca7 d9e0 fc23 1f23 082c
000000a0: c3e7 2bef dd03 905e 0d25 e281 12df ec28
000000b0: 0d0f 0824 3cda d68f 81cc 011f d128 08f0
000000c0: 1b1b dd01 b9fb 892a 0a20 ddb5 0aec 0fe7
000000d0: ff01 f22b d0ff 17ad b9f7 d91b fd04 1ef8
000000e0: 16f8 c4e8 2dd7 e22e 52fc 26d8 1edd 1acf
000000f0: 85f2 1214 a2df 29eb 1808 d940 e90e 4505
-127 -102 -13 15 123 75 42 -79
116 127 127 -78 -51 -59 -127 -37
113 -54 35 -51 -67 -61 -127 24
6 -127 127 -59 86 127 127 45
-88 -59 59 25 127 3 16 39
73 74 94 -108 -87 22 -95 67
127 -8 18 -102 -127 -37 -89 16
-5 -112 84 -41 73 110 65 25
-36 -127 112 72 75 -14 -54 45
8 22 92 -37 -97 48 -56 55
124 0 5 -127 4 -44 -26 26
-23 -124 63 -29 -24 95 19 42
-31 -101 53 74 76 27 -111 127
-10 -53 63 -3 -39 -10 -55 109
125 -40 10 -38 17 25 -27 -48
-18 -40 35 21 -51 111 45 78
4 -56 38 0 27 20 -127 117
25 -17 18 -20 -48 -49 -31 89
72 -28 4 10 114 -11 -52 -89
-39 -32 -4 35 31 35 8 44
-61 -25 43 -17 -35 3 -112 94
13 37 -30 -127 18 -33 -20 40
13 15 8 36 60 -38 -42 -113
-127 -52 1 31 -47 40 8 -16
27 27 -35 1 -71 -5 -119 42
10 32 -35 -75 10 -20 15 -25
-1 1 -14 43 -48 -1 23 -83
-71 -9 -39 27 -3 4 30 -8
22 -8 -60 -24 45 -41 -30 46
82 -4 38 -40 30 -35 26 -49
-123 -14 18 20 -94 -33 41 -21
24 8 -39 64 -23 14 69 5

tfl.pseudo_qconst11 i1 [1, 9, 1, 32]
00000000: d9f0 81ee e351 f10c f0c7 b80b 14bf 3ec1
00000010: fa28 916e 7f04 e9d5 3eaa e2e9 8124 97c3
00000020: bed4 83e8 0234 600f a009 f421 dbf8 7f81
00000030: b337 812e 3549 f627 093b 1bcd d7ed bd2c
00000040: c098 a4cc 277f 7fcb b3e3 6e32 02d5 58b5
00000050: fb2f dafe 2c1a f967 ff7f 73e6 0d4b c5f6
00000060: c181 95ea 7f00 39f9 e3f2 4d03 ceb5 52be
00000070: c625 0877 0509 ad3f af46 210e c5f3 f3d0
00000080: 96f5 c8cf 35fa 28b6 8121 3603 c719 c312
00000090: 1922 667f 3523 f9fa b625 55e8 191e 7fd9
000000a0: ce1b ca07 23c3 1598 b7f9 7f4d 2e2e 9a40
000000b0: e1d9 7547 23c8 baf3 adf7 7f11 3b29 6c81
000000c0: ca16 d3c9 d22b d1c2 b335 f966 337f c273
000000d0: acc6 ed4b da1a bb04 a5f3 38de 1ef4 0d85
000000e0: 81f1 1ce0 0745 c1e7 8a40 ec5f fa61 0557
000000f0: 81ae ff9e f97d a2d1 1501 6fe0 47bb f917
-39 -16 -127 -18 -29 81 -15 12
-16 -57 -72 11 20 -65 62 -63
-6 40 -111 110 127 4 -23 -43
62 -86 -30 -23 -127 36 -105 -61
-66 -44 -125 -24 2 52 96 15
-96 9 -12 33 -37 -8 127 -127
-77 55 -127 46 53 73 -10 39
9 59 27 -51 -41 -19 -67 44
-64 -104 -92 -52 39 127 127 -53
-77 -29 110 50 2 -43 88 -75
-5 47 -38 -2 44 26 -7 103
-1 127 115 -26 13 75 -59 -10
-63 -127 -107 -22 127 0 57 -7
-29 -14 77 3 -50 -75 82 -66
-58 37 8 119 5 9 -83 63
-81 70 33 14 -59 -13 -13 -48
-106 -11 -56 -49 53 -6 40 -74
-127 33 54 3 -57 25 -61 18
25 34 102 127 53 35 -7 -6
-74 37 85 -24 25 30 127 -39
-50 27 -54 7 35 -61 21 -104
-73 -7 127 77 46 46 -102 64
-31 -39 117 71 35 -56 -70 -13
-83 -9 127 17 59 41 108 -127
-54 22 -45 -55 -46 43 -47 -62
-77 53 -7 102 51 127 -62 115
-84 -58 -19 75 -38 26 -69 4
-91 -13 56 -34 30 -12 13 -123
-127 -15 28 -32 7 69 -63 -25
-118 64 -20 95 -6 97 5 87
-127 -82 -1 -98 -7 125 -94 -47
21 1 111 -32 71 -69 -7 23

tfl.pseudo_qconst13 i1 [64, 1, 1, 64]
00000000: f613 c05b c7ec 7f01 0016 f3e2 1dd9 3c31
00000010: e2e0 180f 49a5 99af f5a0 e6e9 37ab ef1f
00000020: 0fc9 b8d3 123b 610f e1e7 c027 6e07 e609
00000030: 37ed b32a 3c2d 4e37 e9ef 2543 de18 3ec2
00000040: c42b dc29 fe42 06de 2c2d edf6 ead1 dfc8
00000050: 5b09 100f 15d0 101d f952 3906 2c81 1a20
00000060: 02e4 1ad7 f607 0f0e efdf 16fe 1efc ff1e
00000070: 0afd e20f 25f5 2cc9 12e0 c4fb c1c2 07e1
00000080: c681 29ed c01b 1f0b f30c 14e3 18eb eb09
00000090: 26a7 061f f328 f8f6 30f9 dd0e 0e1f c4f1
000000a0: 47f5 14d7 482c ff06 d20c f1f5 13de 09fc
000000b0: 101c 160a ee09 fddc 5e24 02f8 0c0e 1eaf
000000c0: ffea d5eb f6f3 12f2 8df7 2d16 0213 ee20
000000d0: 1521 127f 05be 1ab1 21c5 053e fa0a ec1e
000000e0: 2a0e dd3c 0104 08ec f5dc 19f9 e5de f60f
000000f0: 4131 2fe9 1bd7 f1ea c1ec ec02 f20d f4e0
-10 19 -64 91 -57 -20 127 1
0 22 -13 -30 29 -39 60 49
-30 -32 24 15 73 -91 -103 -81
-11 -96 -26 -23 55 -85 -17 31
15 -55 -72 -45 18 59 97 15
-31 -25 -64 39 110 7 -26 9
55 -19 -77 42 60 45 78 55
-23 -17 37 67 -34 24 62 -62
-60 43 -36 41 -2 66 6 -34
44 45 -19 -10 -22 -47 -33 -56
91 9 16 15 21 -48 16 29
-7 82 57 6 44 -127 26 32
2 -28 26 -41 -10 7 15 14
-17 -33 22 -2 30 -4 -1 30
10 -3 -30 15 37 -11 44 -55
18 -32 -60 -5 -63 -62 7 -31
-58 -127 41 -19 -64 27 31 11
-13 12 20 -29 24 -21 -21 9
38 -89 6 31 -13 40 -8 -10
48 -7 -35 14 14 31 -60 -15
71 -11 20 -41 72 44 -1 6
-46 12 -15 -11 19 -34 9 -4
16 28 22 10 -18 9 -3 -36
94 36 2 -8 12 14 30 -81
-1 -22 -43 -21 -10 -13 18 -14
-115 -9 45 22 2 19 -18 32
21 33 18 127 5 -66 26 -79
33 -59 5 62 -6 10 -20 30
42 14 -35 60 1 4 8 -20
-11 -36 25 -7 -27 -34 -10 15
65 49 47 -23 27 -41 -15 -22
-63 -20 -20 2 -14 13 -12 -32

tfl.pseudo_qconst15 i1 [1, 11, 1, 32]
00000000: da7f 7fe1 4425 81be 34cf 8194 ff48 93e9
00000010: 7fb1 930b c6a8 f11d 0312 06ad eed9 2a11
00000020: cf4c 3306 3ee0 8fb0 0f81 8c5d 7f5f fc81
00000030: 7681 ca6d a6cf 1408 c02e 0881 142e e0e0
00000040: dd0a f515 1902 02b9 4dd7 e97f 3617 7fa1
00000050: 2259 8eee fb1f f7b6 c3ae 4eb1 41be 06df
00000060: c7d7 2c0a efcf 3a00 250d 5c21 5e30 4708
00000070: 3c63 db8f e53c ef81 ace4 dcae 7f81 4981
00000080: 810f d309 e4ac dadd 810a 350b c12d eb50
00000090: fc20 0206 1dc3 81c0 d452 11cf 372c 42e9
000000a0: c040 2925 cc81 edbe eaf6 eb43 83f4 ded5
000000b0: e8d9 5f7f cba2 e0f9 4172 030a 700b b1dd
000000c0: acff 55f9 199d e4c9 5403 2f1b 21a1 0e72
000000d0: b5ea 2ced 03eb 6cf0 cbe5 1503 557f 81d3
000000e0: 8ddb 2fef e103 da3d fef6 2105 14cc c266
000000f0: e74b 7f17 c37f 2103 9081 f6ff af10 03ee
-38 127 127 -31 68 37 -127 -66
52 -49 -127 -108 -1 72 -109 -23
127 -79 -109 11 -58 -88 -15 29
3 18 6 -83 -18 -39 42 17
-49 76 51 6 62 -32 -113 -80
15 -127 -116 93 127 95 -4 -127
118 -127 -54 109 -90 -49 20 8
-64 46 8 -127 20 46 -32 -32
-35 10 -11 21 25 2 2 -71
77 -41 -23 127 54 23 127 -95
34 89 -114 -18 -5 31 -9 -74
-61 -82 78 -79 65 -66 6 -33
-57 -41 44 10 -17 -49 58 0
37 13 92 33 94 48 71 8
60 99 -37 -113 -27 60 -17 -127
-84 -28 -36 -82 127 -127 73 -127
-127 15 -45 9 -28 -84 -38 -35
-127 10 53 11 -63 45 -21 80
-4 32 2 6 29 -61 -127 -64
-44 82 17 -49 55 44 66 -23
-64 64 41 37 -52 -127 -19 -66
-22 -10 -21 67 -125 -12 -34 -43
-24 -39 95 127 -53 -94 -32 -7
65 114 3 10 112 11 -79 -35
-84 -1 85 -7 25 -99 -28 -55
84 3 47 27 33 -95 14 114
-75 -22 44 -19 3 -21 108 -16
-53 -27 21 3 85 127 -127 -45
-115 -37 47 -17 -31 3 -38 61
-2 -10 33 5 20 -52 -62 102
-25 75 127 23 -61 127 33 3
-112 -127 -10 -1 -81 16 3 -18

tfl.pseudo_qconst17 i1 [1, 7, 1, 32]
00000000: ffec 8115 ba81 b381 927f e929 b4e7 0216
00000010: a822 7fbd f148 7f95 731a 5402 fc4f 36c9
00000020: 19ce f07f 81f5 db95 a2e9 2839 dff3 d4c1
00000030: 040a f67f 7f48 1c81 f8fa 7ff1 1e23 0403
00000040: edd5 6b4d eade 05db d590 384e d706 f5da
00000050: 3305 8823 3f0a ca9d 4a81 44db 249f 3b19
00000060: ddca 3d70 540f 1c6f bda8 44b7 94b9 a613
00000070: 2fdc a80e 319c a9da 5caa d239 119f 137a
00000080: 81b4 ee46 5c53 fef7 cb27 fa89 292d 0903
00000090: e83a e44d 1981 f430 419b e5d7 e2d5 9a03
000000a0: a89a b032 034a 7f53 812c d711 3d5f 7071
000000b0: c12b c9e3 1de7 08ae 7fe5 4125 c61c 81b7
000000c0: c281 cecb 06f7 418d 01f4 817f 7f7f 7f7f
000000d0: 817f ff49 ae1d a5a2 5445 1e7f 817f 2181
-1 -20 -127 21 -70 -127 -77 -127
-110 127 -23 41 -76 -25 2 22
-88 34 127 -67 -15 72 127 -107
115 26 84 2 -4 79 54 -55
25 -50 -16 127 -127 -11 -37 -107
-94 -23 40 57 -33 -13 -44 -63
4 10 -10 127 127 72 28 -127
-8 -6 127 -15 30 35 4 3
-19 -43 107 77 -22 -34 5 -37
-43 -112 56 78 -41 6 -11 -38
51 5 -120 35 63 10 -54 -99
74 -127 68 -37 36 -97 59 25
-35 -54 61 112 84 15 28 111
-67 -88 68 -73 -108 -71 -90 19
47 -36 -88 14 49 -100 -87 -38
92 -86 -46 57 17 -97 19 122
-127 -76 -18 70 92 83 -2 -9
-53 39 -6 -119 41 45 9 3
-24 58 -28 77 25 -127 -12 48
65 -101 -27 -41 -30 -43 -102 3
-88 -102 -80 50 3 74 127 83
-127 44 -41 17 61 95 112 113
-63 43 -55 -29 29 -25 8 -82
127 -27 65 37 -58 28 -127 -73
-62 -127 -50 -53 6 -9 65 -115
1 -12 -127 127 127 127 127 127
-127 127 -1 73 -82 29 -91 -94
84 69 30 127 -127 127 33 -127

tfl.pseudo_qconst19 i1 [64, 1, 1, 32]
00000000: 1eac 0487 4ed4 bdad 1729 8afa 33d3 3af0
00000010: 121c 16e9 e543 1c43 b0f2 7104 347f db52
00000020: 4ddd 3846 34e6 f1e4 a611 17b1 3a53 c1dc
00000030: df57 85db d865 f1ec a101 0781 f431 e6b6
00000040: d430 3206 cefd 0bed f1ee b6ba 161c 144c
00000050: f3ed 051c 812a 5baf 0628 8dfd f512 3e35
00000060: 06fa dff2 f0fb 3bbd e7cd 30ba c4f5 e599
00000070: 095c 22e1 16de e7f5 8125 cdec f1f5 ffb1
00000080: 37d6 09bd 2efe a227 0212 1dd8 11ff 02e4
00000090: 2cec f737 815e 2ce6 0db0 8727 e675 2777
000000a0: aa25 c4f4 eb39 d33d bddf 0bd3 0b46 db1f
000000b0: 66be b9be ce2e b42f 1825 b9dd 8123 c5ef
000000c0: 953d 5e95 37e8 344e 08ca e5a9 2a55 1167
000000d0: 90e6 9bfe f961 db10 2b5b c5e2 117f 3fb7
000000e0: ddea 19f1 17e4 2acf c724 4018 0318 f7eb
000000f0: 1c7f f400 090e d4f7 f816 e707 59e7 cad5
30 -84 4 -121 78 -44 -67 -83
23 41 -118 -6 51 -45 58 -16
18 28 22 -23 -27 67 28 67
-80 -14 113 4 52 127 -37 82
77 -35 56 70 52 -26 -15 -28
-90 17 23 -79 58 83 -63 -36
-33 87 -123 -37 -40 101 -15 -20
-95 1 7 -127 -12 49 -26 -74
-44 48 50 6 -50 -3 11 -19
-15 -18 -74 -70 22 28 20 76
-13 -19 5 28 -127 42 91 -81
6 40 -115 -3 -11 18 62 53
6 -6 -33 -14 -16 -5 59 -67
-25 -51 48 -70 -60 -11 -27 -103
9 92 34 -31 22 -34 -25 -11
-127 37 -51 -20 -15 -11 -1 -79
55 -42 9 -67 46 -2 -94 39
2 18 29 -40 17 -1 2 -28
44 -20 -9 55 -127 94 44 -26
13 -80 -121 39 -26 117 39 119
-86 37 -60 -12 -21 57 -45 61
-67 -33 11 -45 11 70 -37 31
102 -66 -71 -66 -50 46 -76 47
24 37 -71 -35 -127 35 -59 -17
-107 61 94 -107 55 -24 52 78
8 -54 -27 -87 42 85 17 103
-112 -26 -101 -2 -7 97 -37 16
43 91 -59 -30 17 127 63 -73
-35 -22 25 -15 23 -28 42 -49
-57 36 64 24 3 24 -9 -21
28 127 -12 0 9 14 -44 -9
-8 22 -25 7 89 -25 -54 -43

tfl.pseudo_qconst21 i1 [1, 5, 1, 32]
00000000: 8c16 8105 cd97 5a81 d7ef 5a30 8189 bb16
00000010: 405c 467f 7f1b 2fdf 30ec cc50 7f45 3111
00000020: 997f b79d f55b f9a3 f2e4 220a 120a aa09
00000030: 7f79 7f1d 13b8 2530 b86f b85e b85d fa04
00000040: 1def ce7f a47f 1f92 4d44 81c5 a6ef fed6
00000050: c27f 526b b781 7f81 5dc8 3981 b768 8b18
00000060: 7596 e338 81af 46c6 5e63 b481 54ed 7fbd
00000070: db76 c73f 06be 55f7 2581 7f00 b17f 81c0
00000080: 7f41 0ead c69e 7faf 7f7f c6bc 6b7f 2d81
00000090: 012c c52c 6a73 0956 7f87 fc24 f157 9b81
-116 22 -127 5 -51 -105 90 -127
-41 -17 90 48 -127 -119 -69 22
64 92 70 127 127 27 47 -33
48 -20 -52 80 127 69 49 17
-103 127 -73 -99 -11 91 -7 -93
-14 -28 34 10 18 10 -86 9
127 121 127 29 19 -72 37 48
-72 111 -72 94 -72 93 -6 4
29 -17 -50 127 -92 127 31 -110
77 68 -127 -59 -90 -17 -2 -42
-62 127 82 107 -73 -127 127 -127
93 -56 57 -127 -73 104 -117 24
117 -106 -29 56 -127 -81 70 -58
94 99 -76 -127 84 -19 127 -67
-37 118 -57 63 6 -66 85 -9
37 -127 127 0 -79 127 -127 -64
127 65 14 -83 -58 -98 127 -81
127 127 -58 -68 107 127 45 -127
1 44 -59 44 106 115 9 86
127 -121 -4 36 -15 87 -101 -127

tfl.pseudo_qconst23 i1 [32, 5, 1, 40]
00000000: 3dec e6d0 3711 202f 3e22 ee23 07f9 18fa
00000010: e7f6 0917 0e3e 2101 44f0 fff2 e8f8 e3da
00000020: fbe8 e3ff e4b3 0bca 15f7 f7cb 1d02 2322
00000030: 1e02 0030 f0fa 27f5 e3f1 1112 1227 5551
00000040: 49d2 10f4 10eb dbe8 1fb3 d3d3 f698 f0bd
00000050: 21cf ede9 3736 3324 170e d31e 0616 0400
00000060: 0e01 0107 3e34 727f 5a03 1ff4 daf5 e6c7
00000070: ee9d cbc3 f8aa fbc2 33e4 cfba 5418 1df6
00000080: 1f29 0d0c 1420 08f1 2914 12fc 192c 4976
00000090: 4748 3f13 052a f1dc d8bc b8fe 1eb6 eec4
000000a0: 24cd 20bb 1e12 1d07 1035 f0e1 fa33 1720
000000b0: 1e1e 0efd 086a 564b 2f49 291b ed38 1bf1
000000c0: d5c8 ca1d e7f7 f902 642c 0918 1138 3328
000000d0: 1316 1a2b 4231 0d02 ec05 fdec 00f7 0800
000000e0: 13e2 ede9 fb02 0e0b 1a2b 0517 110c 1c25
000000f0: 681e 2b25 1b17 1e27 eb0b 111f 0c1d 37f6
61 -20 -26 -48 55 17 32 47
62 34 -18 35 7 -7 24 -6
-25 -10 9 23 14 62 33 1
68 -16 -1 -14 -24 -8 -29 -38
-5 -24 -29 -1 -28 -77 11 -54
21 -9 -9 -53 29 2 35 34
30 2 0 48 -16 -6 39 -11
-29 -15 17 18 18 39 85 81
73 -46 16 -12 16 -21 -37 -24
31 -77 -45 -45 -10 -104 -16 -67
33 -49 -19 -23 55 54 51 36
23 14 -45 30 6 22 4 0
14 1 1 7 62 52 114 127
90 3 31 -12 -38 -11 -26 -57
-18 -99 -53 -61 -8 -86 -5 -62
51 -28 -49 -70 84 24 29 -10
31 41 13 12 20 32 8 -15
41 20 18 -4 25 44 73 118
71 72 63 19 5 42 -15 -36
-40 -68 -72 -2 30 -74 -18 -60
36 -51 32 -69 30 18 29 7
16 53 -16 -31 -6 51 23 32
30 30 14 -3 8 106 86 75
47 73 41 27 -19 56 27 -15
-43 -56 -54 29 -25 -9 -7 2
100 44 9 24 17 56 51 40
19 22 26 43 66 49 13 2
-20 5 -3 -20 0 -9 8 0
19 -30 -19 -23 -5 2 14 11
26 43 5 23 17 12 28 37
104 30 43 37 27 23 30 39
-21 11 17 31 12 29 55 -10

tfl.pseudo_qconst24 i1 [1, 22, 1, 64] scale=0.033597387 zero_point=-128
00000000: 8080 8080 8080 8080 8080 8080 8080 8080
00000010: 8080 8080 8080 8080 8080 8080 8080 8080
00000020: 8080 8080 8080 8080 8080 8080 8080 8080
00000030: 8080 8080 8080 8080 8080 8080 8080 8080
00000040: 8080 8080 8080 8080 8080 8080 8080 8080
00000050: 8080 8080 8080 8080 8080 8080 8080 8080
00000060: 8080 8080 8080 8080 8080 8080 8080 8080
00000070: 8080 8080 8080 8080 8080 8080 8080 8080
00000080: 8080 8080 8080 8080 8080 8080 8080 8080
00000090: 8080 8080 8080 8080 8080 8080 8080 8080
000000a0: 8080 8080 8080 8080 8080 8080 8080 8080
000000b0: 8080 8080 8080 8080 8080 8080 8080 8080
000000c0: 8080 8080 8080 8080 8080 8080 8080 8080
000000d0: 8080 8080 8080 8080 8080 8080 8080 8080
000000e0: 8080 8080 8080 8080 8080 8080 8080 8080
000000f0: 8080 8080 8080 8080 8080 8080 8080 8080
0.0 0.0 0.0 0.0 0.0 0.0 0.0 0.0
0.0 0.0 0.0 0.0 0.0 0.0 0.0 0.0
0.0 0.0 0.0 0.0 0.0 0.0 0.0 0.0
0.0 0.0 0.0 0.0 0.0 0.0 0.0 0.0
0.0 0.0 0.0 0.0 0.0 0.0 0.0 0.0
0.0 0.0 0.0 0.0 0.0 0.0 0.0 0.0
0.0 0.0 0.0 0.0 0.0 0.0 0.0 0.0
0.0 0.0 0.0 0.0 0.0 0.0 0.0 0.0
0.0 0.0 0.0 0.0 0.0 0.0 0.0 0.0
0.0 0.0 0.0 0.0 0.0 0.0 0.0 0.0
0.0 0.0 0.0 0.0 0.0 0.0 0.0 0.0
0.0 0.0 0.0 0.0 0.0 0.0 0.0 0.0
0.0 0.0 0.0 0.0 0.0 0.0 0.0 0.0
0.0 0.0 0.0 0.0 0.0 0.0 0.0 0.0
0.0 0.0 0.0 0.0 0.0 0.0 0.0 0.0
0.0 0.0 0.0 0.0 0.0 0.0 0.0 0.0
0.0 0.0 0.0 0.0 0.0 0.0 0.0 0.0
0.0 0.0 0.0 0.0 0.0 0.0 0.0 0.0
0.0 0.0 0.0 0.0 0.0 0.0 0.0 0.0
0.0 0.0 0.0 0.0 0.0 0.0 0.0 0.0
0.0 0.0 0.0 0.0 0.0 0.0 0.0 0.0
0.0 0.0 0.0 0.0 0.0 0.0 0.0 0.0
0.0 0.0 0.0 0.0 0.0 0.0 0.0 0.0
0.0 0.0 0.0 0.0 0.0 0.0 0.0 0.0
0.0 0.0 0.0 0.0 0.0 0.0 0.0 0.0
0.0 0.0 0.0 0.0 0.0 0.0 0.0 0.0
0.0 0.0 0.0 0.0 0.0 0.0 0.0 0.0
0.0 0.0 0.0 0.0 0.0 0.0 0.0 0.0
0.0 0.0 0.0 0.0 0.0 0.0 0.0 0.0
0.0 0.0 0.0 0.0 0.0 0.0 0.0 0.0
0.0 0.0 0.0 0.0 0.0 0.0 0.0 0.0
0.0 0.0 0.0 0.0 0.0 0.0 0.0 0.0

tfl.pseudo_qconst25 i1 [1, 16, 1, 64] scale=0.023087176 zero_point=-128
00000000: 8080 8080 8080 8080 8080 8080 8080 8080
00000010: 8080 8080 8080 8080 8080 8080 8080 8080
00000020: 8080 8080 8080 8080 8080 8080 8080 8080
00000030: 8080 8080 8080 8080 8080 8080 8080 8080
00000040: 8080 8080 8080 8080 8080 8080 8080 8080
00000050: 8080 8080 8080 8080 8080 8080 8080 8080
00000060: 8080 8080 8080 8080 8080 8080 8080 8080
00000070: 8080 8080 8080 8080 8080 8080 8080 8080
00000080: 8080 8080 8080 8080 8080 8080 8080 8080
00000090: 8080 8080 8080 8080 8080 8080 8080 8080
000000a0: 8080 8080 8080 8080 8080 8080 8080 8080
000000b0: 8080 8080 8080 8080 8080 8080 8080 8080
000000c0: 8080 8080 8080 8080 8080 8080 8080 8080
000000d0: 8080 8080 8080 8080 8080 8080 8080 8080
000000e0: 8080 8080 8080 8080 8080 8080 8080 8080
000000f0: 8080 8080 8080 8080 8080 8080 8080 8080
0.0 0.0 0.0 0.0 0.0 0.0 0.0 0.0
0.0 0.0 0.0 0.0 0.0 0.0 0.0 0.0
0.0 0.0 0.0 0.0 0.0 0.0 0.0 0.0
0.0 0.0 0.0 0.0 0.0 0.0 0.0 0.0
0.0 0.0 0.0 0.0 0.0 0.0 0.0 0.0
0.0 0.0 0.0 0.0 0.0 0.0 0.0 0.0
0.0 0.0 0.0 0.0 0.0 0.0 0.0 0.0
0.0 0.0 0.0 0.0 0.0 0.0 0.0 0.0
0.0 0.0 0.0 0.0 0.0 0.0 0.0 0.0
0.0 0.0 0.0 0.0 0.0 0.0 0.0 0.0
0.0 0.0 0.0 0.0 0.0 0.0 0.0 0.0
0.0 0.0 0.0 0.0 0.0 0.0 0.0 0.0
0.0 0.0 0.0 0.0 0.0 0.0 0.0 0.0
0.0 0.0 0.0 0.0 0.0 0.0 0.0 0.0
0.0 0.0 0.0 0.0 0.0 0.0 0.0 0.0
0.0 0.0 0.0 0.0 0.0 0.0 0.0 0.0
0.0 0.0 0.0 0.0 0.0 0.0 0.0 0.0
0.0 0.0 0.0 0.0 0.0 0.0 0.0 0.0
0.0 0.0 0.0 0.0 0.0 0.0 0.0 0.0
0.0 0.0 0.0 0.0 0.0 0.0 0.0 0.0
0.0 0.0 0.0 0.0 0.0 0.0 0.0 0.0
0.0 0.0 0.0 0.0 0.0 0.0 0.0 0.0
0.0 0.0 0.0 0.0 0.0 0.0 0.0 0.0
0.0 0.0 0.0 0.0 0.0 0.0 0.0 0.0
0.0 0.0 0.0 0.0 0.0 0.0 0.0 0.0
0.0 0.0 0.0 0.0 0.0 0.0 0.0 0.0
0.0 0.0 0.0 0.0 0.0 0.0 0.0 0.0
0.0 0.0 0.0 0.0 0.0 0.0 0.0 0.0
0.0 0.0 0.0 0.0 0.0 0.0 0.0 0.0
0.0 0.0 0.0 0.0 0.0 0.0 0.0 0.0
0.0 0.0 0.0 0.0 0.0 0.0 0.0 0.0
0.0 0.0 0.0 0.0 0.0 0.0 0.0 0.0

tfl.pseudo_qconst26 i1 [1, 2, 1, 40] scale=0.101960786 zero_point=-128
00000000: 8080 8080 8080 8080 8080 8080 8080 8080
00000010: 8080 8080 8080 8080 8080 8080 8080 8080
00000020: 8080 8080 8080 8080 8080 8080 8080 8080
00000030: 8080 8080 8080 8080 8080 8080 8080 8080
00000040: 8080 8080 8080 8080 8080 8080 8080 8080
0.0 0.0 0.0 0.0 0.0 0.0 0.0 0.0
0.0 0.0 0.0 0.0 0.0 0.0 0.0 0.0
0.0 0.0 0.0 0.0 0.0 0.0 0.0 0.0
0.0 0.0 0.0 0.0 0.0 0.0 0.0 0.0
0.0 0.0 0.0 0.0 0.0 0.0 0.0 0.0
0.0 0.0 0.0 0.0 0.0 0.0 0.0 0.0
0.0 0.0 0.0 0.0 0.0 0.0 0.0 0.0
0.0 0.0 0.0 0.0 0.0 0.0 0.0 0.0
0.0 0.0 0.0 0.0 0.0 0.0 0.0 0.0
0.0 0.0 0.0 0.0 0.0 0.0 0.0 0.0

tfl.pseudo_qconst27 i1 [1, 4, 1, 32] scale=1.33496 zero_point=-128
00000000: 8080 8080 8080 8080 8080 8080 8080 8080
00000010: 8080 8080 8080 8080 8080 8080 8080 8080
00000020: 8080 8080 8080 8080 8080 8080 8080 8080
00000030: 8080 8080 8080 8080 8080 8080 8080 8080
00000040: 8080 8080 8080 8080 8080 8080 8080 8080
00000050: 8080 8080 8080 8080 8080 8080 8080 8080
00000060: 8080 8080 8080 8080 8080 8080 8080 8080
00000070: 8080 8080 8080 8080 8080 8080 8080 8080
0.0 0.0 0.0 0.0 0.0 0.0 0.0 0.0
0.0 0.0 0.0 0.0 0.0 0.0 0.0 0.0
0.0 0.0 0.0 0.0 0.0 0.0 0.0 0.0
0.0 0.0 0.0 0.0 0.0 0.0 0.0 0.0
0.0 0.0 0.0 0.0 0.0 0.0 0.0 0.0
0.0 0.0 0.0 0.0 0.0 0.0 0.0 0.0
0.0 0.0 0.0 0.0 0.0 0.0 0.0 0.0
0.0 0.0 0.0 0.0 0.0 0.0 0.0 0.0
0.0 0.0 0.0 0.0 0.0 0.0 0.0 0.0
0.0 0.0 0.0 0.0 0.0 0.0 0.0 0.0
0.0 0.0 0.0 0.0 0.0 0.0 0.0 0.0
0.0 0.0 0.0 0.0 0.0 0.0 0.0 0.0
0.0 0.0 0.0 0.0 0.0 0.0 0.0 0.0
0.0 0.0 0.0 0.0 0.0 0.0 0.0 0.0
0.0 0.0 0.0 0.0 0.0 0.0 0.0 0.0
0.0 0.0 0.0 0.0 0.0 0.0 0.0 0.0

tfl.pseudo_qconst28 i1 [1, 10, 1, 64] scale=0.041372392 zero_point=-128
00000000: 8080 8080 8080 8080 8080 8080 8080 8080
00000010: 8080 8080 8080 8080 8080 8080 8080 8080
00000020: 8080 8080 8080 8080 8080 8080 8080 8080
00000030: 8080 8080 8080 8080 8080 8080 8080 8080
00000040: 8080 8080 8080 8080 8080 8080 8080 8080
00000050: 8080 8080 8080 8080 8080 8080 8080 8080
00000060: 8080 8080 8080 8080 8080 8080 8080 8080
00000070: 8080 8080 8080 8080 8080 8080 8080 8080
00000080: 8080 8080 8080 8080 8080 8080 8080 8080
00000090: 8080 8080 8080 8080 8080 8080 8080 8080
000000a0: 8080 8080 8080 8080 8080 8080 8080 8080
000000b0: 8080 8080 8080 8080 8080 8080 8080 8080
000000c0: 8080 8080 8080 8080 8080 8080 8080 8080
000000d0: 8080 8080 8080 8080 8080 8080 8080 8080
000000e0: 8080 8080 8080 8080 8080 8080 8080 8080
000000f0: 8080 8080 8080 8080 8080 8080 8080 8080
0.0 0.0 0.0 0.0 0.0 0.0 0.0 0.0
0.0 0.0 0.0 0.0 0.0 0.0 0.0 0.0
0.0 0.0 0.0 0.0 0.0 0.0 0.0 0.0
0.0 0.0 0.0 0.0 0.0 0.0 0.0 0.0
0.0 0.0 0.0 0.0 0.0 0.0 0.0 0.0
0.0 0.0 0.0 0.0 0.0 0.0 0.0 0.0
0.0 0.0 0.0 0.0 0.0 0.0 0.0 0.0
0.0 0.0 0.0 0.0 0.0 0.0 0.0 0.0
0.0 0.0 0.0 0.0 0.0 0.0 0.0 0.0
0.0 0.0 0.0 0.0 0.0 0.0 0.0 0.0
0.0 0.0 0.0 0.0 0.0 0.0 0.0 0.0
0.0 0.0 0.0 0.0 0.0 0.0 0.0 0.0
0.0 0.0 0.0 0.0 0.0 0.0 0.0 0.0
0.0 0.0 0.0 0.0 0.0 0.0 0.0 0.0
0.0 0.0 0.0 0.0 0.0 0.0 0.0 0.0
0.0 0.0 0.0 0.0 0.0 0.0 0.0 0.0
0.0 0.0 0.0 0.0 0.0 0.0 0.0 0.0
0.0 0.0 0.0 0.0 0.0 0.0 0.0 0.0
0.0 0.0 0.0 0.0 0.0 0.0 0.0 0.0
0.0 0.0 0.0 0.0 0.0 0.0 0.0 0.0
0.0 0.0 0.0 0.0 0.0 0.0 0.0 0.0
0.0 0.0 0.0 0.0 0.0 0.0 0.0 0.0
0.0 0.0 0.0 0.0 0.0 0.0 0.0 0.0
0.0 0.0 0.0 0.0 0.0 0.0 0.0 0.0
0.0 0.0 0.0 0.0 0.0 0.0 0.0 0.0
0.0 0.0 0.0 0.0 0.0 0.0 0.0 0.0
0.0 0.0 0.0 0.0 0.0 0.0 0.0 0.0
0.0 0.0 0.0 0.0 0.0 0.0 0.0 0.0
0.0 0.0 0.0 0.0 0.0 0.0 0.0 0.0
0.0 0.0 0.0 0.0 0.0 0.0 0.0 0.0
0.0 0.0 0.0 0.0 0.0 0.0 0.0 0.0
0.0 0.0 0.0 0.0 0.0 0.0 0.0 0.0

tfl.pseudo_qconst29 i1 [1, 14, 1, 64] scale=0.041417103 zero_point=-128
00000000: 8080 8080 8080 8080 8080 8080 8080 8080
00000010: 8080 8080 8080 8080 8080 8080 8080 8080
00000020: 8080 8080 8080 8080 8080 8080 8080 8080
00000030: 8080 8080 8080 8080 8080 8080 8080 8080
00000040: 8080 8080 8080 8080 8080 8080 8080 8080
00000050: 8080 8080 8080 8080 8080 8080 8080 8080
00000060: 8080 8080 8080 8080 8080 8080 8080 8080
00000070: 8080 8080 8080 8080 8080 8080 8080 8080
00000080: 8080 8080 8080 8080 8080 8080 8080 8080
00000090: 8080 8080 8080 8080 8080 8080 8080 8080
000000a0: 8080 8080 8080 8080 8080 8080 8080 8080
000000b0: 8080 8080 8080 8080 8080 8080 8080 8080
000000c0: 8080 8080 8080 8080 8080 8080 8080 8080
000000d0: 8080 8080 8080 8080 8080 8080 8080 8080
000000e0: 8080 8080 8080 8080 8080 8080 8080 8080
000000f0: 8080 8080 8080 8080 8080 8080 8080 8080
0.0 0.0 0.0 0.0 0.0 0.0 0.0 0.0
0.0 0.0 0.0 0.0 0.0 0.0 0.0 0.0
0.0 0.0 0.0 0.0 0.0 0.0 0.0 0.0
0.0 0.0 0.0 0.0 0.0 0.0 0.0 0.0
0.0 0.0 0.0 0.0 0.0 0.0 0.0 0.0
0.0 0.0 0.0 0.0 0.0 0.0 0.0 0.0
0.0 0.0 0.0 0.0 0.0 0.0 0.0 0.0
0.0 0.0 0.0 0.0 0.0 0.0 0.0 0.0
0.0 0.0 0.0 0.0 0.0 0.0 0.0 0.0
0.0 0.0 0.0 0.0 0.0 0.0 0.0 0.0
0.0 0.0 0.0 0.0 0.0 0.0 0.0 0.0
0.0 0.0 0.0 0.0 0.0 0.0 0.0 0.0
0.0 0.0 0.0 0.0 0.0 0.0 0.0 0.0
0.0 0.0 0.0 0.0 0.0 0.0 0.0 0.0
0.0 0.0 0.0 0.0 0.0 0.0 0.0 0.0
0.0 0.0 0.0 0.0 0.0 0.0 0.0 0.0
0.0 0.0 0.0 0.0 0.0 0.0 0.0 0.0
0.0 0.0 0.0 0.0 0.0 0.0 0.0 0.0
0.0 0.0 0.0 0.0 0.0 0.0 0.0 0.0
0.0 0.0 0.0 0.0 0.0 0.0 0.0 0.0
0.0 0.0 0.0 0.0 0.0 0.0 0.0 0.0
0.0 0.0 0.0 0.0 0.0 0.0 0.0 0.0
0.0 0.0 0.0 0.0 0.0 0.0 0.0 0.0
0.0 0.0 0.0 0.0 0.0 0.0 0.0 0.0
0.0 0.0 0.0 0.0 0.0 0.0 0.0 0.0
0.0 0.0 0.0 0.0 0.0 0.0 0.0 0.0
0.0 0.0 0.0 0.0 0.0 0.0 0.0 0.0
0.0 0.0 0.0 0.0 0.0 0.0 0.0 0.0
0.0 0.0 0.0 0.0 0.0 0.0 0.0 0.0
0.0 0.0 0.0 0.0 0.0 0.0 0.0 0.0
0.0 0.0 0.0 0.0 0.0 0.0 0.0 0.0
0.0 0.0 0.0 0.0 0.0 0.0 0.0 0.0
