dave.tflite (tflite, 75616 bytes, 18 tensors)

tfl.pseudo_qconst1 i1 [1, 1088] scale=0.0013815322 zero_point=0
0	0xf5	-0.015196854
1	0xb4	-0.10499644
2	0xf0	-0.022104515
3	0xc3	-0.084273465
4	0xf1	-0.020722983
5	0xc9	-0.07598427
6	0x09	0.01243379
7	0xdc	-0.04973516
8	0xe4	-0.0386829
9	0xd3	-0.06216895
10	0x0a	0.013815322
11	0xf1	-0.020722983
12	0xd5	-0.059405882
13	0x08	0.011052257
14	0xff	-0.0013815322
15	0x1e	0.041445967
16	0x14	0.027630644
17	0x1b	0.03730137
18	0xaa	-0.118811764
19	0xc9	-0.07598427
20	0xe2	-0.041445967
21	0xe2	-0.041445967
22	0xf9	-0.009670725
23	0xd6	-0.05802435
24	0xc4	-0.08289193
25	0xd6	-0.05802435
26	0xaf	-0.11190411
27	0xde	-0.046972092
28	0x23	0.048353627
29	0xb3	-0.106377974
30	0x2e	0.06355048
31	0x0d	0.017959919
32	0xfa	-0.008289193
33	0xbe	-0.09118112
34	0x0c	0.016578386
35	0x11	0.023486046
36	0x02	0.0027630643
37	0xe7	-0.034538303
38	0xd0	-0.06631354
39	0x34	0.071839675
40	0xe9	-0.03177524
41	0xc6	-0.08012886
42	0x17	0.03177524
43	0xb4	-0.10499644
44	0xe5	-0.03730137
45	0xce	-0.069076605
46	0xd7	-0.05664282
47	0xea	-0.030393708
48	0xd8	-0.055261288
49	0xf1	-0.020722983
50	0xa7	-0.122956365
51	0x1f	0.0428275
52	0xea	-0.030393708
53	0xfe	-0.0027630643
54	0x02	0.0027630643
55	0xe6	-0.035919838
56	0xd6	-0.05802435
57	0x0c	0.016578386
58	0xa6	-0.1243379
59	0x03	0.0041445964
60	0xcf	-0.067695074
61	0xed	-0.02624911
62	0x12	0.02486758
63	0xdd	-0.048353627
64	0xd9	-0.053879756
65	0xdb	-0.05111669
66	0xe4	-0.0386829
67	0xc1	-0.08703653
68	0xeb	-0.029012175
69	0xe7	-0.034538303
70	0x02	0.0027630643
71	0x17	0.03177524
72	0xd7	-0.05664282
73	0xcf	-0.067695074
74	0xfc	-0.0055261287
75	0xf9	-0.009670725
76	0xe8	-0.03315677
77	0xcb	-0.07322121
78	0xec	-0.027630644
79	0x2f	0.06493201
80	0x08	0.011052257
81	0xe4	-0.0386829
82	0xe9	-0.03177524
83	0xff	-0.0013815322
84	0xce	-0.069076605
85	0xcb	-0.07322121
86	0xc2	-0.085655
87	0x0a	0.013815322
88	0x08	0.011052257
89	0xc5	-0.081510395
90	0xad	-0.11466717
91	0xf1	-0.020722983
92	0xf1	-0.020722983
93	0xdb	-0.05111669
94	0xef	-0.023486046
95	0xf7	-0.01243379
96	0xe1	-0.0428275
97	0xf2	-0.01934145
98	0xcc	-0.071839675
99	0x14	0.027630644
100	0xdb	-0.05111669
101	0xb9	-0.098088786
102	0xc1	-0.08703653
103	0xef	-0.023486046
104	0xbe	-0.09118112
105	0xf3	-0.017959919
106	0xc1	-0.08703653
107	0xbd	-0.09256265
108	0xda	-0.05249822
109	0x0e	0.01934145
110	0xee	-0.02486758
111	0xf3	-0.017959919
112	0xb4	-0.10499644
113	0x11	0.023486046
114	0xf6	-0.013815322
115	0x01	0.0013815322
116	0xb9	-0.098088786
117	0xc4	-0.08289193
118	0x1f	0.0428275
119	0x01	0.0013815322
120	0xe4	-0.0386829
121	0xd4	-0.060787417
122	0xb8	-0.09947032
123	0x1c	0.0386829
124	0xe7	-0.034538303
125	0x1e	0.041445967
126	0x21	0.04559056
127	0xd9	-0.053879756
128	0x0c	0.016578386
129	0xf1	-0.020722983
130	0xc7	-0.07874733
131	0xb6	-0.10223338
132	0xed	-0.02624911
133	0xed	-0.02624911
134	0xe3	-0.04006443
135	0x0f	0.020722983
136	0xe4	-0.0386829
137	0xdb	-0.05111669
138	0x1f	0.0428275
139	0xf8	-0.011052257
140	0x1f	0.0428275
141	0x30	0.06631354
142	0xb4	-0.10499644
143	0x05	0.006907661
144	0xf5	-0.015196854
145	0x01	0.0013815322
146	0xe2	-0.041445967
147	0xab	-0.11743023
148	0xf7	-0.01243379
149	0xd3	-0.06216895
150	0xe7	-0.034538303
151	0xe4	-0.0386829
152	0xf4	-0.016578386
153	0x14	0.027630644
154	0xdb	-0.05111669
155	0xc0	-0.08841806
156	0xba	-0.096707255
157	0x0a	0.013815322
158	0xf0	-0.022104515
159	0xb9	-0.098088786
160	0x1d	0.04006443
161	0xf6	-0.013815322
162	0xd6	-0.05802435
163	0xd7	-0.05664282
164	0xda	-0.05249822
165	0xcc	-0.071839675
166	0xf9	-0.009670725
167	0xf4	-0.016578386
168	0xb2	-0.10775951
169	0x1c	0.0386829
170	0xd8	-0.055261288
171	0x15	0.029012175
172	0xfd	-0.0041445964
173	0xd1	-0.06493201
174	0xc1	-0.08703653
175	0xb7	-0.10085185
176	0xc5	-0.081510395
177	0xfb	-0.006907661
178	0xdb	-0.05111669
179	0xdd	-0.048353627
180	0xed	-0.02624911
181	0x2a	0.05802435
182	0x36	0.07460274
183	0xe8	-0.03315677
184	0x14	0.027630644
185	0x2f	0.06493201
186	0xf0	-0.022104515
187	0xdb	-0.05111669
188	0xcf	-0.067695074
189	0x28	0.055261288
190	0xfb	-0.006907661
191	0x1d	0.04006443
192	0xfd	-0.0041445964
193	0xed	-0.02624911
194	0xce	-0.069076605
195	0xc7	-0.07874733
196	0x0a	0.013815322
197	0xf6	-0.013815322
198	0xe4	-0.0386829
199	0xc8	-0.0773658
200	0x2c	0.060787417
201	0xf6	-0.013815322
202	0x30	0.06631354
203	0x1c	0.0386829
204	0xe4	-0.0386829
205	0xf8	-0.011052257
206	0xc7	-0.07874733
207	0xda	-0.05249822
208	0xc5	-0.081510395
209	0x08	0.011052257
210	0xba	-0.096707255
211	0xef	-0.023486046
212	0xfa	-0.008289193
213	0xf5	-0.015196854
214	0xef	-0.023486046
215	0xba	-0.096707255
216	0xf2	-0.01934145
217	0xfd	-0.0041445964
218	0xae	-0.11328564
219	0xf8	-0.011052257
220	0xd9	-0.053879756
221	0x03	0.0041445964
222	0x1b	0.03730137
223	0xcf	-0.067695074
224	0xc5	-0.081510395
225	0xb6	-0.10223338
226	0x0c	0.016578386
227	0xf1	-0.020722983
228	0xe6	-0.035919838
229	0xe0	-0.04420903
230	0xd5	-0.059405882
231	0x1f	0.0428275
232	0xd1	-0.06493201
233	0x18	0.03315677
234	0xce	-0.069076605
235	0xe3	-0.04006443
236	0xec	-0.027630644
237	0x08	0.011052257
238	0xbf	-0.08979959
239	0xed	-0.02624911
240	0xcf	-0.067695074
241	0x28	0.055261288
242	0xdf	-0.04559056
243	0xe2	-0.041445967
244	0xe3	-0.04006443
245	0x06	0.008289193
246	0xf7	-0.01243379
247	0xd0	-0.06631354
248	0x00	0.0
249	0x03	0.0041445964
250	0x13	0.02624911
251	0x11	0.023486046
252	0xb4	-0.10499644
253	0x20	0.04420903
254	0xf3	-0.017959919
255	0x06	0.008289193

tfl.pseudo_qconst3 i1 [64, 1, 1, 64]
0	0xb5	-75
1	0x3b	59
2	0xef	-17
3	0x0c	12
4	0xf4	-12
5	0x03	3
6	0xc7	-57
7	0x26	38
8	0xe4	-28
9	0x28	40
10	0x10	16
11	0x3b	59
12	0xc3	-61
13	0x72	114
14	0xb0	-80
15	0xd3	-45
16	0xee	-18
17	0x94	-108
18	0xca	-54
19	0xfc	-4
20	0xf9	-7
21	0x19	25
22	0xe0	-32
23	0xba	-70
24	0x96	-106
25	0xb7	-73
26	0x46	70
27	0x32	50
28	0x0e	14
29	0x34	52
30	0x3e	62
31	0xb6	-74
32	0xea	-22
33	0xda	-38
34	0xfd	-3
35	0x26	38
36	0x57	87
37	0xa0	-96
38	0x53	83
39	0xb2	-78
40	0xf6	-10
41	0xd0	-48
42	0xe6	-26
43	0xfa	-6
44	0x39	57
45	0xbe	-66
46	0x43	67
47	0xaa	-86
48	0xe3	-29
49	0x3f	63
50	0x9c	-100
51	0x7e	126
52	0x0b	11
53	0x38	56
54	0xa0	-96
55	0xf1	-15
56	0xdf	-33
57	0x7f	127
58	0x50	80
59	0x44	68
60	0xef	-17
61	0xec	-20
62	0x37	55
63	0x21	33
64	0xb7	-73
65	0x47	71
66	0xc9	-55
67	0x24	36
68	0xcb	-53
69	0xa7	-89
70	0x4f	79
71	0x65	101
72	0xe2	-30
73	0x2f	47
74	0xa9	-87
75	0x26	38
76	0xe3	-29
77	0xae	-82
78	0x04	4
79	0xf9	-7
80	0xde	-34
81	0x18	24
82	0x37	55
83	0x9e	-98
84	0xf2	-14
85	0x53	83
86	0xb2	-78
87	0xbc	-68
88	0xf8	-8
89	0xa0	-96
90	0xd7	-41
91	0xf4	-12
92	0x32	50
93	0xa7	-89
94	0x8f	-113
95	0xc3	-61
96	0xf1	-15
97	0x43	67
98	0x7f	127
99	0xb2	-78
100	0xc9	-55
101	0x66	102
102	0x46	70
103	0x1e	30
104	0xd7	-41
105	0xc6	-58
106	0xd7	-41
107	0x22	34
108	0x0e	14
109	0x39	57
110	0xe5	-27
111	0x0c	12
112	0x1e	30
113	0xb4	-76
114	0xb7	-73
115	0xca	-54
116	0x59	89
117	0xff	-1
118	0xe3	-29
119	0xc2	-62
120	0x55	85
121	0xdf	-33
122	0x0f	15
123	0x1c	28
124	0xdc	-36
125	0x19	25
126	0xf4	-12
127	0x3e	62
128	0xa4	-92
129	0x6f	111
130	0x54	84
131	0xc1	-63
132	0xda	-38
133	0x49	73
134	0x17	23
135	0xf9	-7
136	0xbf	-65
137	0xfc	-4
138	0xd0	-48
139	0x4b	75
140	0xe6	-26
141	0x15	21
142	0x81	-127
143	0xb3	-77
144	0xcd	-51
145	0xb6	-74
146	0xb9	-71
147	0x0f	15
148	0x11	17
149	0x4d	77
150	0x18	24
151	0xc0	-64
152	0xcc	-52
153	0xed	-19
154	0x1c	28
155	0xc4	-60
156	0x4b	75
157	0xf4	-12
158	0xf5	-11
159	0xf6	-10
160	0x52	82
161	0xc2	-62
162	0x2d	45
163	0xef	-17
164	0x27	39
165	0x3b	59
166	0x0a	10
167	0x00	0
168	0x0a	10
169	0xd6	-42
170	0x20	32
171	0xd5	-43
172	0xea	-22
173	0x0d	13
174	0xad	-83
175	0x19	25
176	0xf1	-15
177	0xf5	-11
178	0x2c	44
179	0x3a	58
180	0xcf	-49
181	0xc4	-60
182	0xf3	-13
183	0x49	73
184	0x5c	92
185	0xf7	-9
186	0xfb	-5
187	0x3d	61
188	0x2c	44
189	0x42	66
190	0x46	70
191	0x0b	11
192	0xdd	-35
193	0x0a	10
194	0x35	53
195	0x47	71
196	0x56	86
197	0xa8	-88
198	0xed	-19
199	0x9f	-97
200	0xb6	-74
201	0x30	48
202	0x43	67
203	0x09	9
204	0xee	-18
205	0x96	-106
206	0x17	23
207	0xc4	-60
208	0x47	71
209	0xb9	-71
210	0xc9	-55
211	0x02	2
212	0x98	-104
213	0x08	8
214	0x3a	58
215	0xe3	-29
216	0x1a	26
217	0x9b	-101
218	0x11	17
219	0x03	3
220	0x9a	-102
221	0xd1	-47
222	0x44	68
223	0x4b	75
224	0xb4	-76
225	0x3f	63
226	0xbe	-66
227	0x1a	26
228	0xf5	-11
229	0x2e	46
230	0x9f	-97
231	0xc5	-59
232	0x9f	-97
233	0x04	4
234	0x1a	26
235	0x9b	-101
236	0xf7	-9
237	0x29	41
238	0xd9	-39
239	0xce	-50
240	0x99	-103
241	0xd1	-47
242	0xb1	-79
243	0x01	1
244	0x32	50
245	0xdd	-35
246	0x7f	127
247	0x2b	43
248	0x04	4
249	0xff	-1
250	0xe2	-30
251	0xd2	-46
252	0xe8	-24
253	0xe1	-31
254	0xf1	-15
255	0x36	54

tfl.pseudo_qconst5 i1 [1, 23, 1, 64]
0	0x44	68
1	0x5c	92
2	0x7f	127
3	0x41	65
4	0x5d	93
5	0xf8	-8
6	0x76	118
7	0xb1	-79
8	0x81	-127
9	0xf0	-16
10	0x1c	28
11	0x27	39
12	0xe8	-24
13	0x2f	47
14	0x81	-127
15	0xb1	-79
16	0xe4	-28
17	0x10	16
18	0x50	80
19	0x20	32
20	0x8c	-116
21	0x81	-127
22	0x43	67
23	0x36	54
24	0xc5	-59
25	0xac	-84
26	0x21	33
27	0x24	36
28	0xc7	-57
29	0x64	100
30	0x27	39
31	0x17	23
32	0xe3	-29
33	0xfd	-3
34	0x1c	28
35	0x38	56
36	0x6e	110
37	0xf7	-9
38	0x41	65
39	0x4f	79
40	0xdf	-33
41	0xf4	-12
42	0xba	-70
43	0x16	22
44	0x0f	15
45	0xe5	-27
46	0x6d	109
47	0xd8	-40
48	0xb5	-75
49	0xfb	-5
50	0x81	-127
51	0x4a	74
52	0xa3	-93
53	0x06	6
54	0x26	38
55	0xd6	-42
56	0x7f	127
57	0xc0	-64
58	0xea	-22
59	0x4c	76
60	0x8d	-115
61	0xcb	-53
62	0xb9	-71
63	0x31	49
64	0x70	112
65	0x55	85
66	0x03	3
67	0x5c	92
68	0x0a	10
69	0x0a	10
70	0x6c	108
71	0xd8	-40
72	0xa1	-95
73	0x13	19
74	0xf5	-11
75	0xe5	-27
76	0x4a	74
77	0x5c	92
78	0x91	-111
79	0xb9	-71
80	0xca	-54
81	0xb6	-74
82	0x17	23
83	0x6a	106
84	0x83	-125
85	0x8f	-113
86	0xb5	-75
87	0xf5	-11
88	0xcd	-51
89	0x81	-127
90	0x4f	79
91	0xc3	-61
92	0x00	0
93	0xcf	-49
94	0xf0	-16
95	0x15	21
96	0xd6	-42
97	0xe6	-26
98	0x2f	47
99	0x58	88
100	0x5b	91
101	0xef	-17
102	0x3c	60
103	0xaf	-81
104	0xe0	-32
105	0xdc	-36
106	0xb6	-74
107	0x0f	15
108	0xdb	-37
109	0xe3	-29
110	0x50	80
111	0x81	-127
112	0xbf	-65
113	0xcc	-52
114	0xc0	-64
115	0x26	38
116	0x81	-127
117	0x4b	75
118	0xea	-22
119	0x81	-127
120	0xfc	-4
121	0x81	-127
122	0xac	-84
123	0xb2	-78
124	0xd5	-43
125	0xb8	-72
126	0xc6	-58
127	0x5a	90
128	0x7f	127
129	0x58	88
130	0xe3	-29
131	0x17	23
132	0x7f	127
133	0xed	-19
134	0x7f	127
135	0xc1	-63
136	0x0b	11
137	0xf7	-9
138	0x17	23
139	0x0a	10
140	0x44	68
141	0x08	8
142	0x90	-112
143	0xef	-17
144	0xb6	-74
145	0x14	20
146	0x51	81
147	0x2c	44
148	0xba	-70
149	0xa6	-90
150	0x39	57
151	0x6e	110
152	0xda	-38
153	0xee	-18
154	0x7c	124
155	0x4a	74
156	0x11	17
157	0xa3	-93
158	0xde	-34
159	0x6e	110
160	0xd8	-40
161	0xf8	-8
162	0x54	84
163	0x25	37
164	0x41	65
165	0xcf	-49
166	0x6b	107
167	0x54	84
168	0xd2	-46
169	0xd3	-45
170	0x9c	-100
171	0x0d	13
172	0x3f	63
173	0xd7	-41
174	0x7c	124
175	0xbb	-69
176	0xcf	-49
177	0xb1	-79
178	0xbc	-68
179	0x4a	74
180	0x13	19
181	0x2d	45
182	0x30	48
183	0xb6	-74
184	0x4f	79
185	0x09	9
186	0x81	-127
187	0xb3	-77
188	0xe2	-30
189	0xcf	-49
190	0x02	2
191	0x5a	90
192	0x64	100
193	0x7f	127
194	0x2f	47
195	0x5f	95
196	0x1d	29
197	0xef	-17
198	0x78	120
199	0xe9	-23
200	0xf7	-9
201	0x1f	31
202	0xa0	-96
203	0x0a	10
204	0x21	33
205	0x4d	77
206	0xa7	-89
207	0xd0	-48
208	0xcb	-53
209	0xf2	-14
210	0x5a	90
211	0xe9	-23
212	0x81	-127
213	0xb1	-79
214	0xed	-19
215	0x45	69
216	0x7f	127
217	0x24	36
218	0x03	3
219	0x56	86
220	0xac	-84
221	0xb5	-75
222	0xf0	-16
223	0x03	3
224	0x47	71
225	0x0b	11
226	0x4d	77
227	0x53	83
228	0x57	87
229	0x90	-112
230	0x6e	110
231	0xbc	-68
232	0x06	6
233	0xdb	-37
234	0x18	24
235	0x19	25
236	0xf6	-10
237	0xbc	-68
238	0x4a	74
239	0xa2	-94
240	0xe0	-32
241	0x90	-112
242	0xc6	-58
243	0x7f	127
244	0xd6	-42
245	0x30	48
246	0xf0	-16
247	0x8a	-118
248	0x12	18
249	0xeb	-21
250	0x98	-104
251	0xba	-70
252	0x8a	-118
253	0xfb	-5
254	0xe4	-28
255	0x32	50

tfl.pseudo_qconst7 i1 [64, 1, 1, 64]
0	0x3f	63
1	0x62	98
2	0x28	40
3	0xfa	-6
4	0x1d	29
5	0x23	35
6	0xd2	-46
7	0x3e	62
8	0xd4	-44
9	0x11	17
10	0xbd	-67
11	0xbb	-69
12	0x1d	29
13	0x9d	-99
14	0xef	-17
15	0xd4	-44
16	0x0a	10
17	0xef	-17
18	0xff	-1
19	0xdc	-36
20	0x20	32
21	0x0b	11
22	0xf9	-7
23	0x0f	15
24	0x1c	28
25	0x44	68
26	0x1d	29
27	0xfe	-2
28	0x1a	26
29	0x00	0
30	0x34	52
31	0x41	65
32	0xf0	-16
33	0xce	-50
34	0xcc	-52
35	0x64	100
36	0x8c	-116
37	0x42	66
38	0xb5	-75
39	0xb8	-72
40	0x14	20
41	0xc8	-56
42	0xa0	-96
43	0x33	51
44	0xfd	-3
45	0xd9	-39
46	0x7f	127
47	0xdf	-33
48	0xfe	-2
49	0xdd	-35
50	0x55	85
51	0xfe	-2
52	0x27	39
53	0x25	37
54	0x56	86
55	0x1c	28
56	0x2b	43
57	0xd5	-43
58	0x9e	-98
59	0x06	6
60	0xca	-54
61	0xe7	-25
62	0x74	116
63	0x01	1
64	0xfa	-6
65	0xb6	-74
66	0x36	54
67	0x48	72
68	0xb8	-72
69	0xcd	-51
70	0x5f	95
71	0xfe	-2
72	0xbe	-66
73	0xb6	-74
74	0xf2	-14
75	0x3b	59
76	0x9e	-98
77	0xef	-17
78	0x46	70
79	0x81	-127
80	0x7c	124
81	0x46	70
82	0xef	-17
83	0x07	7
84	0x17	23
85	0xaa	-86
86	0xfe	-2
87	0x55	85
88	0x1c	28
89	0xd2	-46
90	0x0e	14
91	0x3c	60
92	0xbf	-65
93	0xfe	-2
94	0x07	7
95	0x0f	15
96	0x31	49
97	0x04	4
98	0x12	18
99	0x0d	13
100	0x6f	111
101	0xdd	-35
102	0x1c	28
103	0x53	83
104	0x6c	108
105	0x19	25
106	0xf7	-9
107	0xb1	-79
108	0x3f	63
109	0x48	72
110	0x29	41
111	0x53	83
112	0x07	7
113	0xfc	-4
114	0xce	-50
115	0x75	117
116	0x1a	26
117	0xd7	-41
118	0x8f	-113
119	0x12	18
120	0xdb	-37
121	0x4d	77
122	0x40	64
123	0xc9	-55
124	0xed	-19
125	0x1f	31
126	0x06	6
127	0x44	68
128	0x42	66
129	0x7a	122
130	0xb5	-75
131	0x2c	44
132	0xc8	-56
133	0x62	98
134	0x13	19
135	0x84	-124
136	0x4f	79
137	0x52	82
138	0x52	82
139	0x09	9
140	0x43	67
141	0x33	51
142	0xaa	-86
143	0xdf	-33
144	0x1a	26
145	0x34	52
146	0x99	-103
147	0x01	1
148	0xab	-85
149	0x86	-122
150	0x99	-103
151	0xa9	-87
152	0xca	-54
153	0xd9	-39
154	0x83	-125
155	0x82	-126
156	0x94	-108
157	0x5f	95
158	0x2d	45
159	0xcc	-52
160	0xc4	-60
161	0x11	17
162	0xb7	-73
163	0xef	-17
164	0x1e	30
165	0x88	-120
166	0xe1	-31
167	0xab	-85
168	0xae	-82
169	0x11	17
170	0x6d	109
171	0xc1	-63
172	0x48	72
173	0x57	87
174	0x01	1
175	0xb9	-71
176	0x9a	-102
177	0xc4	-60
178	0x23	35
179	0x1c	28
180	0xa5	-91
181	0xf5	-11
182	0xa8	-88
183	0xd0	-48
184	0xcb	-53
185	0x81	-127
186	0x00	0
187	0x41	65
188	0xe8	-24
189	0x04	4
190	0x09	9
191	0x1a	26
192	0x33	51
193	0xc3	-61
194	0x48	72
195	0x14	20
196	0xe4	-28
197	0xd1	-47
198	0xbf	-65
199	0x44	68
200	0x15	21
201	0xe2	-30
202	0xd9	-39
203	0x40	64
204	0x32	50
205	0x59	89
206	0x09	9
207	0xf3	-13
208	0xe1	-31
209	0x64	100
210	0xfd	-3
211	0x23	35
212	0xb3	-77
213	0xf5	-11
214	0xa7	-89
215	0xad	-83
216	0xca	-54
217	0xdb	-37
218	0x07	7
219	0x05	5
220	0x1f	31
221	0xd5	-43
222	0xc3	-61
223	0x3c	60
224	0xf5	-11
225	0x09	9
226	0x4c	76
227	0x0f	15
228	0xb5	-75
229	0x0d	13
230	0xa4	-92
231	0xc7	-57
232	0xf0	-16
233	0x2a	42
234	0x0d	13
235	0x2c	44
236	0xa4	-92
237	0xe1	-31
238	0x7f	127
239	0xd3	-45
240	0xc7	-57
241	0xc1	-63
242	0x2e	46
243	0xca	-54
244	0x1d	29
245	0xe9	-23
246	0xf1	-15
247	0xcc	-52
248	0x16	22
249	0x10	16
250	0xc8	-56
251	0xc2	-62
252	0x41	65
253	0x47	71
254	0x21	33
255	0x45	69

tfl.pseudo_qconst9 i1 [1, 15, 1, 32]
0	0x2b	43
1	0x29	41
2	0x81	-127
3	0x81	-127
4	0xdc	-36
5	0x51	81
6	0x82	-126
7	0x0d	13
8	0x24	36
9	0x27	39
10	0x45	69
11	0xba	-70
12	0xd8	-40
13	0x4d	77
14	0x7f	127
15	0x49	73
16	0x0e	14
17	0x81	-127
18	0x0e	14
19	0xe1	-31
20	0x19	25
21	0xae	-82
22	0x88	-120
23	0x81	-127
24	0x81	-127
25	0xe6	-26
26	0x81	-127
27	0x81	-127
28	0xed	-19
29	0xcd	-51
30	0x1f	31
31	0x0e	14
32	0x03	3
33	0x32	50
34	0x43	67
35	0xe7	-25
36	0xa9	-87
37	0x14	20
38	0xaf	-81
39	0xdc	-36
40	0xc6	-58
41	0xcb	-53
42	0x7f	127
43	0xc9	-55
44	0xe9	-23
45	0xbd	-67
46	0x64	100
47	0xaf	-81
48	0x04	4
49	0x11	17
50	0x70	112
51	0x00	0
52	0xde	-34
53	0xc4	-60
54	0x81	-127
55	0x8b	-117
56	0xa7	-89
57	0x2f	47
58	0x1c	28
59	0xd9	-39
60	0x17	23
61	0x81	-127
62	0xfe	-2
63	0xb8	-72
64	0x71	113
65	0x14	20
66	0xe1	-31
67	0xcc	-52
68	0xc9	-55
69	0x1c	28
70	0xe1	-31
71	0x27	39
72	0x5d	93
73	0xfc	-4
74	0x6f	111
75	0xc9	-55
76	0x4c	76
77	0x5c	92
78	0x28	40
79	0x48	72
80	0xf4	-12
81	0x39	57
82	0xaa	-86
83	0xd4	-44
84	0xed	-19
85	0x1b	27
86	0x17	23
87	0x03	3
88	0xbd	-67
89	0x33	51
90	0xdf	-33
91	0x4a	74
92	0xff	-1
93	0x90	-112
94	0x99	-103
95	0xbf	-65
96	0xf1	-15
97	0x05	5
98	0x28	40
99	0xfe	-2
100	0x95	-107
101	0x69	105
102	0xba	-70
103	0x81	-127
104	0xe3	-29
105	0x22	34
106	0xe5	-27
107	0x26	38
108	0x3e	62
109	0x41	65
110	0x07	7
111	0x6e	110
112	0xfc	-4
113	0x88	-120
114	0x51	81
115	0x18	24
116	0x51	81
117	0xe7	-25
118	0xf3	-13
119	0x25	37
120	0xf1	-15
121	0xf2	-14
122	0x36	54
123	0x50	80
124	0xe5	-27
125	0x81	-127
126	0x20	32
127	0x8f	-113
128	0x58	88
129	0xd1	-47
130	0xa8	-88
131	0xd1	-47
132	0xca	-54
133	0x81	-127
134	0x21	33
135	0x81	-127
136	0x6f	111
137	0x3a	58
138	0x07	7
139	0x81	-127
140	0xeb	-21
141	0x2a	42
142	0x12	18
143	0x27	39
144	0x9e	-98
145	0xad	-83
146	0x4a	74
147	0xaf	-81
148	0x3d	61
149	0x1c	28
150	0x45	69
151	0xde	-34
152	0xd4	-44
153	0xd0	-48
154	0xeb	-21
155	0x03	3
156	0x2f	47
157	0x11	17
158	0x90	-112
159	0xbb	-69
160	0x49	73
161	0x08	8
162	0xcc	-52
163	0xe9	-23
164	0xe9	-23
165	0x36	54
166	0x47	71
167	0xa8	-88
168	0x04	4
169	0x8d	-115
170	0x0c	12
171	0xf6	-10
172	0xe1	-31
173	0xf7	-9
174	0x19	25
175	0xed	-19
176	0xb7	-73
177	0xf4	-12
178	0x34	52
179	0xdf	-33
180	0xce	-50
181	0xca	-54
182	0xdc	-36
183	0x09	9
184	0xc5	-59
185	0x19	25
186	0xe6	-26
187	0xc0	-64
188	0x22	34
189	0xe6	-26
190	0xcd	-51
191	0xfb	-5
192	0x1e	30
193	0xd7	-41
194	0x59	89
195	0x82	-126
196	0xb8	-72
197	0xa7	-89
198	0x44	68
199	0x9e	-98
200	0x54	84
201	0x29	41
202	0x2e	46
203	0xd8	-40
204	0xac	-84
205	0x2c	44
206	0xe9	-23
207	0x2c	44
208	0x33	51
209	0xd9	-39
210	0x04	4
211	0x21	33
212	0xdb	-37
213	0x2a	42
214	0x13	19
215	0x11	17
216	0x15	21
217	0xe1	-31
218	0x6d	109
219	0xf2	-14
220	0xd2	-46
221	0x3d	61
222	0xe9	-23
223	0x96	-106
224	0xf4	-12
225	0xd9	-39
226	0xc9	-55
227	0xdb	-37
228	0xd4	-44
229	0xc6	-58
230	0xfb	-5
231	0xc6	-58
232	0xbf	-65
233	0xf2	-14
234	0xee	-18
235	0x03	3
236	0x47	71
237	0xe5	-27
238	0xb1	-79
239	0x81	-127
240	0x4e	78
241	0xa4	-92
242	0xbf	-65
243	0x1c	28
244	0x2d	45
245	0x92	-110
246	0xf2	-14
247	0x39	57
248	0xde	-34
249	0xf5	-11
250	0xc9	-55
251	0xb9	-71
252	0xfa	-6
253	0x55	85
254	0x82	-126
255	0x23	35

tfl.pseudo_qconst11 i1 [1, 9, 1, 32]
0	0x1c	28
1	0x14	20
2	0x7f	127
3	0x7f	127
4	0x81	-127
5	0xeb	-21
6	0xbb	-69
7	0x3c	60
8	0x42	66
9	0x7a	122
10	0x81	-127
11	0xce	-50
12	0x3e	62
13	0xa8	-88
14	0xcb	-53
15	0xe5	-27
16	0x93	-109
17	0x84	-124
18	0x33	51
19	0xc3	-61
20	0xc6	-58
21	0x81	-127
22	0xaa	-86
23	0x17	23
24	0x1a	26
25	0x75	117
26	0xe3	-29
27	0x68	104
28	0xe0	-32
29	0x23	35
30	0x1c	28
31	0xb9	-71
32	0xd4	-44
33	0x81	-127
34	0xde	-34
35	0x94	-108
36	0x04	4
37	0xb1	-79
38	0x57	87
39	0x03	3
40	0xc3	-61
41	0xec	-20
42	0xee	-18
43	0xd0	-48
44	0xe8	-24
45	0x08	8
46	0x46	70
47	0xe5	-27
48	0x81	-127
49	0x81	-127
50	0x00	0
51	0x81	-127
52	0x6f	111
53	0xcc	-52
54	0xc7	-57
55	0x9d	-99
56	0xbc	-68
57	0x7f	127
58	0x98	-104
59	0x7e	126
60	0x5b	91
61	0x2d	45
62	0x08	8
63	0x45	69
64	0x3e	62
65	0xf6	-10
66	0x93	-109
67	0xaa	-86
68	0xf6	-10
69	0xd9	-39
70	0xc4	-60
71	0x55	85
72	0x0c	12
73	0x81	-127
74	0xc0	-64
75	0x23	35
76	0x49	73
77	0x21	33
78	0x7e	126
79	0x8b	-117
80	0xe8	-24
81	0xde	-34
82	0x58	88
83	0xaa	-86
84	0x7f	127
85	0xf8	-8
86	0xf8	-8
87	0x3b	59
88	0x19	25
89	0x25	37
90	0x39	57
91	0xba	-70
92	0xa5	-91
93	0x50	80
94	0x0c	12
95	0xee	-18
96	0xcc	-52
97	0x83	-125
98	0xb8	-72
99	0x47	71
100	0xce	-50
101	0x18	24
102	0x1c	28
103	0xdd	-35
104	0xba	-70
105	0x7a	122
106	0xec	-20
107	0x51	81
108	0x81	-127
109	0x2a	42
110	0xf6	-10
111	0x20	32
112	0xe3	-29
113	0x41	65
114	0x0e	14
115	0xbf	-65
116	0xd9	-39
117	0x90	-112
118	0x9e	-98
119	0xd3	-45
120	0xc9	-55
121	0xff	-1
122	0xcd	-51
123	0x2c	44
124	0x9d	-99
125	0x89	-119
126	0x22	34
127	0xfb	-5
128	0x57	87
129	0xae	-82
130	0xdf	-33
131	0x61	97
132	0xe0	-32
133	0xeb	-21
134	0x8c	-116
135	0x81	-127
136	0x1f	31
137	0x6e	110
138	0xac	-84
139	0xe6	-26
140	0xbe	-66
141	0xf0	-16
142	0x06	6
143	0xf0	-16
144	0x24	36
145	0x61	97
146	0x9d	-99
147	0xef	-17
148	0xbf	-65
149	0x97	-105
150	0x37	55
151	0xb2	-78
152	0x92	-110
153	0xfa	-6
154	0x7f	127
155	0x92	-110
156	0x63	99
157	0xb6	-74
158	0x28	40
159	0xbd	-67
160	0x2a	42
161	0xa2	-94
162	0x5b	91
163	0x1d	29
164	0x32	50
165	0x42	66
166	0x7e	126
167	0x0b	11
168	0xc1	-63
169	0x99	-103
170	0x4b	75
171	0x41	65
172	0xba	-70
173	0x2c	44
174	0xa6	-90
175	0xdf	-33
176	0x8d	-115
177	0x9c	-100
178	0xf8	-8
179	0xce	-50
180	0x8b	-117
181	0xdb	-37
182	0x36	54
183	0x52	82
184	0x16	22
185	0x64	100
186	0x64	100
187	0x70	112
188	0xf1	-15
189	0x24	36
190	0xc1	-63
191	0xab	-85
192	0x7f	127
193	0x96	-106
194	0xf5	-11
195	0x7c	124
196	0x1d	29
197	0x7f	127
198	0xcb	-53
199	0xce	-50
200	0x02	2
201	0xfb	-5
202	0xcc	-52
203	0x04	4
204	0xbf	-65
205	0x01	1
206	0x66	102
207	0x3b	59
208	0xaf	-81
209	0xfd	-3
210	0x81	-127
211	0xfd	-3
212	0x07	7
213	0xd2	-46
214	0xd9	-39
215	0xba	-70
216	0x86	-122
217	0xbd	-67
218	0x0c	12
219	0x7f	127
220	0x0f	15
221	0x2c	44
222	0xf7	-9
223	0x81	-127
224	0x5a	90
225	0xe0	-32
226	0xc9	-55
227	0x5a	90
228	0xf0	-16
229	0xe7	-25
230	0x1e	30
231	0x24	36
232	0x65	101
233	0xdb	-37
234	0x02	2
235	0x81	-127
236	0x84	-124
237	0x16	22
238	0xc5	-59
239	0x58	88
240	0x2f	47
241	0xaa	-86
242	0xe1	-31
243	0x40	64
244	0x6c	108
245	0x55	85
246	0x81	-127
247	0xf9	-7
248	0x81	-127
249	0x3a	58
250	0x78	120
251	0x17	23
252	0x81	-127
253	0x52	82
254	0x08	8
255	0xf8	-8

tfl.pseudo_qconst13 i1 [64, 1, 1, 64]
0	0xb9	-71
1	0x16	22
2	0x32	50
3	0xdf	-33
4	0x16	22
5	0x0c	12
6	0x23	35
7	0x2a	42
8	0x5e	94
9	0x3e	62
10	0xd0	-48
11	0x47	71
12	0x58	88
13	0x09	9
14	0x07	7
15	0x30	48
16	0xfd	-3
17	0xf5	-11
18	0x55	85
19	0xbf	-65
20	0xd4	-44
21	0x7f	127
22	0xb2	-78
23	0x0a	10
24	0x0f	15
25	0x0b	11
26	0xbb	-69
27	0xf3	-13
28	0xf9	-7
29	0xb3	-77
30	0x3b	59
31	0xf9	-7
32	0x19	25
33	0x04	4
34	0xb1	-79
35	0xd5	-43
36	0xe4	-28
37	0x69	105
38	0xcf	-49
39	0xf8	-8
40	0xc9	-55
41	0xb3	-77
42	0x4f	79
43	0x07	7
44	0xf5	-11
45	0x47	71
46	0x42	66
47	0xfa	-6
48	0x1c	28
49	0x31	49
50	0xc5	-59
51	0x48	72
52	0x0c	12
53	0x37	55
54	0xe0	-32
55	0x21	33
56	0x39	57
57	0x15	21
58	0x9f	-97
59	0xc1	-63
60	0xcb	-53
61	0x1d	29
62	0x56	86
63	0x06	6
64	0xbb	-69
65	0x4a	74
66	0xbd	-67
67	0x45	69
68	0x14	20
69	0xcd	-51
70	0x9c	-100
71	0x81	-127
72	0x4d	77
73	0xaf	-81
74	0x28	40
75	0xf2	-14
76	0xc9	-55
77	0xe1	-31
78	0xd5	-43
79	0x47	71
80	0x44	68
81	0x19	25
82	0x20	32
83	0x06	6
84	0x31	49
85	0xeb	-21
86	0x01	1
87	0x07	7
88	0x40	64
89	0x54	84
90	0x09	9
91	0x65	101
92	0x92	-110
93	0xca	-54
94	0x01	1
95	0x50	80
96	0x38	56
97	0xfa	-6
98	0x5d	93
99	0x7c	124
100	0xbe	-66
101	0xf0	-16
102	0xa9	-87
103	0x49	73
104	0xe0	-32
105	0x20	32
106	0x33	51
107	0x0e	14
108	0x28	40
109	0xbc	-68
110	0x0f	15
111	0x13	19
112	0x0a	10
113	0xeb	-21
114	0xb6	-74
115	0xc6	-58
116	0x63	99
117	0x35	53
118	0x14	20
119	0x49	73
120	0xd7	-41
121	0x15	21
122	0x2b	43
123	0x5f	95
124	0xd5	-43
125	0x38	56
126	0xb1	-79
127	0xfd	-3
128	0x45	69
129	0x94	-108
130	0xf3	-13
131	0x7b	123
132	0x8a	-118
133	0xb5	-75
134	0xaf	-81
135	0x9e	-98
136	0xc8	-56
137	0x1e	30
138	0xd1	-47
139	0x23	35
140	0x9d	-99
141	0xe8	-24
142	0x1d	29
143	0xa3	-93
144	0x78	120
145	0xac	-84
146	0xb0	-80
147	0x5e	94
148	0x31	49
149	0x6d	109
150	0x4c	76
151	0x1c	28
152	0x32	50
153	0xf1	-15
154	0x13	19
155	0x92	-110
156	0x81	-127
157	0xf2	-14
158	0x02	2
159	0x19	25
160	0x38	56
161	0x57	87
162	0xf0	-16
163	0x40	64
164	0x0d	13
165	0x25	37
166	0xbb	-69
167	0x32	50
168	0x5b	91
169	0x5a	90
170	0x8b	-117
171	0x29	41
172	0x22	34
173	0x6c	108
174	0xbe	-66
175	0x89	-119
176	0x24	36
177	0x00	0
178	0x3c	60
179	0x6f	111
180	0x3d	61
181	0x1b	27
182	0xf5	-11
183	0xcd	-51
184	0xde	-34
185	0xe0	-32
186	0xc5	-59
187	0x1d	29
188	0xfd	-3
189	0x26	38
190	0xaa	-86
191	0x64	100
192	0xf8	-8
193	0x85	-123
194	0xc6	-58
195	0xa8	-88
196	0x72	114
197	0x24	36
198	0x87	-121
199	0x3d	61
200	0xd4	-44
201	0x67	103
202	0x0c	12
203	0x42	66
204	0x4a	74
205	0x4f	79
206	0x02	2
207	0xf3	-13
208	0xa2	-94
209	0xa1	-95
210	0x5c	92
211	0x4d	77
212	0xf1	-15
213	0x5b	91
214	0xd6	-42
215	0x29	41
216	0xb3	-77
217	0x59	89
218	0x4e	78
219	0x08	8
220	0xef	-17
221	0x99	-103
222	0xf0	-16
223	0x33	51
224	0xc3	-61
225	0x4c	76
226	0xe0	-32
227	0xbe	-66
228	0x84	-124
229	0x29	41
230	0xde	-34
231	0x4c	76
232	0x46	70
233	0x11	17
234	0xbc	-68
235	0xc1	-63
236	0x70	112
237	0x57	87
238	0xeb	-21
239	0x78	120
240	0x4c	76
241	0xc8	-56
242	0xff	-1
243	0xed	-19
244	0xea	-22
245	0x38	56
246	0x70	112
247	0x07	7
248	0xef	-17
249	0x95	-107
250	0x83	-125
251	0x81	-127
252	0x52	82
253	0x61	97
254	0x38	56
255	0xe9	-23

tfl.pseudo_qconst15 i1 [1, 11, 1, 32]
0	0x81	-127
1	0xcf	-49
2	0x8c	-116
3	0x9a	-102
4	0xf0	-16
5	0xdb	-37
6	0x0e	14
7	0x52	82
8	0x3e	62
9	0x47	71
10	0x81	-127
11	0x20	32
12	0x2f	47
13	0xb6	-74
14	0x48	72
15	0xf3	-13
16	0xda	-38
17	0x34	52
18	0xb2	-78
19	0x90	-112
20	0xd2	-46
21	0xa8	-88
22	0x52	82
23	0x5e	94
24	0xb5	-75
25	0x7f	127
26	0x06	6
27	0x7f	127
28	0xef	-17
29	0x03	3
30	0xb8	-72
31	0xc9	-55
32	0x49	73
33	0x28	40
34	0x16	22
35	0x23	35
36	0x0a	10
37	0xcf	-49
38	0x4f	79
39	0x1e	30
40	0x7f	127
41	0xe7	-25
42	0xd8	-40
43	0x5e	94
44	0xe6	-26
45	0xb3	-77
46	0x8f	-113
47	0xcd	-51
48	0xc8	-56
49	0xd8	-40
50	0x17	23
51	0x29	41
52	0xa9	-87
53	0xf0	-16
54	0xbe	-66
55	0x50	80
56	0x70	112
57	0xca	-54
58	0xfa	-6
59	0x60	96
60	0xdd	-35
61	0xcd	-51
62	0x41	65
63	0xab	-85
64	0x21	33
65	0xff	-1
66	0x33	51
67	0xf4	-12
68	0xbf	-65
69	0x4c	76
70	0xac	-84
71	0x3a	58
72	0xc8	-56
73	0x49	73
74	0xd4	-44
75	0xc6	-58
76	0xca	-54
77	0x43	67
78	0x24	36
79	0xaf	-81
80	0xfa	-6
81	0x29	41
82	0x69	105
83	0x57	87
84	0x4b	75
85	0xe8	-24
86	0xef	-17
87	0xf8	-8
88	0x2a	42
89	0xfa	-6
90	0xd6	-42
91	0x1f	31
92	0x00	0
93	0x5f	95
94	0xe3	-29
95	0xaa	-86
96	0x3e	62
97	0x1d	29
98	0xa8	-88
99	0x20	32
100	0x7f	127
101	0x0c	12
102	0x25	37
103	0xec	-20
104	0x07	7
105	0x19	25
106	0xbc	-68
107	0x95	-107
108	0xf1	-15
109	0xdb	-37
110	0xa8	-88
111	0x18	24
112	0xe8	-24
113	0x41	65
114	0x7f	127
115	0xc8	-56
116	0x7f	127
117	0x56	86
118	0x7f	127
119	0x46	70
120	0x92	-110
121	0x34	52
122	0x26	38
123	0x2a	42
124	0x81	-127
125	0x50	80
126	0x9f	-97
127	0xaf	-81
128	0xcf	-49
129	0x02	2
130	0x43	67
131	0xe2	-30
132	0xef	-17
133	0x7f	127
134	0x85	-123
135	0xe9	-23
136	0x0a	10
137	0xd4	-44
138	0xc6	-58
139	0x7a	122
140	0xfa	-6
141	0x37	55
142	0xaa	-86
143	0xf2	-14
144	0xdb	-37
145	0x0d	13
146	0x0b	11
147	0x14	20
148	0x13	19
149	0x2c	44
150	0x6a	106
151	0xf3	-13
152	0xdf	-33
153	0x57	87
154	0xc6	-58
155	0xca	-54
156	0x95	-107
157	0x3b	59
158	0x81	-127
159	0xae	-82
160	0x12	18
161	0x81	-127
162	0x03	3
163	0x10	16
164	0xc9	-55
165	0xfd	-3
166	0x5a	90
167	0x01	1
168	0x39	57
169	0xc6	-58
170	0x41	65
171	0x30	48
172	0x28	40
173	0x70	112
174	0x81	-127
175	0x05	5
176	0x81	-127
177	0x4b	75
178	0x12	18
179	0xf4	-12
180	0x0f	15
181	0x14	20
182	0x0b	11
183	0x7f	127
184	0x7a	122
185	0xb5	-75
186	0x1a	26
187	0x27	39
188	0x8b	-117
189	0xe9	-23
190	0xbb	-69
191	0xf8	-8
192	0x44	68
193	0xd2	-46
194	0xed	-19
195	0xa7	-89
196	0x75	117
197	0xdc	-36
198	0x85	-123
199	0x89	-119
200	0xe4	-28
201	0x31	49
202	0x45	69
203	0x96	-106
204	0xcf	-49
205	0x4d	77
206	0xa7	-89
207	0xbf	-65
208	0xce	-50
209	0xf9	-7
210	0x13	19
211	0xe9	-23
212	0x13	19
213	0x08	8
214	0xbe	-66
215	0x02	2
216	0x4c	76
217	0xaa	-86
218	0xcd	-51
219	0x94	-108
220	0x14	20
221	0x3a	58
222	0x20	32
223	0x5f	95
224	0x18	24
225	0xc7	-57
226	0xe9	-23
227	0x81	-127
228	0x51	81
229	0xf7	-9
230	0xa8	-88
231	0xc1	-63
232	0x29	41
233	0x1b	27
234	0x5a	90
235	0x30	48
236	0x2a	42
237	0x51	81
238	0xc0	-64
239	0x1f	31
240	0xbe	-66
241	0x54	84
242	0xc4	-60
243	0xa7	-89
244	0x45	69
245	0x59	89
246	0xca	-54
247	0x72	114
248	0x5f	95
249	0x2b	43
250	0x07	7
251	0x07	7
252	0x6d	109
253	0x9e	-98
254	0x4d	77
255	0x49	73

tfl.pseudo_qconst17 i1 [1, 7, 1, 32]
0	0x07	7
1	0x3b	59
2	0xf7	-9
3	0xb1	-79
4	0x34	52
5	0xe6	-26
6	0x23	35
7	0xfb	-5
8	0x07	7
9	0xad	-83
10	0x7f	127
11	0x81	-127
12	0x76	118
13	0x40	64
14	0x81	-127
15	0xa9	-87
16	0x7f	127
17	0x0c	12
18	0x30	48
19	0x2b	43
20	0x1a	26
21	0x81	-127
22	0x4f	79
23	0x79	121
24	0xe0	-32
25	0x86	-122
26	0x81	-127
27	0x38	56
28	0x5f	95
29	0x72	114
30	0x3c	60
31	0x7f	127
32	0x3c	60
33	0x81	-127
34	0xbf	-65
35	0x06	6
36	0x46	70
37	0x70	112
38	0x4b	75
39	0x31	49
40	0x2f	47
41	0x9c	-100
42	0x51	81
43	0x95	-107
44	0x21	33
45	0x56	86
46	0x55	85
47	0xe5	-27
48	0xc1	-63
49	0xa2	-94
50	0xc4	-60
51	0x21	33
52	0xf3	-13
53	0x0d	13
54	0x23	35
55	0xfd	-3
56	0xa1	-95
57	0x67	103
58	0xdc	-36
59	0x19	25
60	0x4c	76
61	0x1d	29
62	0x99	-103
63	0x6c	108
64	0xf9	-7
65	0xee	-18
66	0x3a	58
67	0x8a	-118
68	0x7f	127
69	0x9b	-101
70	0x11	17
71	0x0c	12
72	0x0a	10
73	0x7f	127
74	0xb3	-77
75	0x11	17
76	0xa2	-94
77	0x7f	127
78	0x06	6
79	0x69	105
80	0x17	23
81	0x81	-127
82	0xad	-83
83	0x37	55
84	0xd0	-48
85	0xb4	-76
86	0xd8	-40
87	0x9c	-100
88	0x7a	122
89	0x31	49
90	0xf4	-12
91	0x38	56
92	0xdf	-33
93	0x7f	127
94	0x92	-110
95	0x6f	111
96	0x30	48
97	0xc7	-57
98	0x09	9
99	0x1c	28
100	0x74	116
101	0x8d	-115
102	0xfa	-6
103	0x81	-127
104	0x47	71
105	0x0b	11
106	0x76	118
107	0x26	38
108	0xc7	-57
109	0x2f	47
110	0x11	17
111	0x9d	-99
112	0x92	-110
113	0x11	17
114	0xe3	-29
115	0xe8	-24
116	0xb8	-72
117	0x2a	42
118	0xe9	-23
119	0x99	-103
120	0x0d	13
121	0xb2	-78
122	0xe0	-32
123	0x1f	31
124	0x7f	127
125	0x64	100
126	0x81	-127
127	0x4d	77
128	0x7f	127
129	0x23	35
130	0xe9	-23
131	0xc3	-61
132	0x8e	-114
133	0xd7	-41
134	0xad	-83
135	0xd8	-40
136	0xa2	-94
137	0xc6	-58
138	0xe4	-28
139	0xe5	-27
140	0x16	22
141	0xfa	-6
142	0x22	34
143	0x4e	78
144	0x43	67
145	0xe5	-27
146	0x89	-119
147	0x1e	30
148	0x81	-127
149	0x74	116
150	0x32	50
151	0x7f	127
152	0x5f	95
153	0xe3	-29
154	0xbd	-67
155	0xa5	-91
156	0xf5	-11
157	0xf4	-12
158	0xfa	-6
159	0x9f	-97
160	0xfe	-2
161	0xb8	-72
162	0x81	-127
163	0x81	-127
164	0x32	50
165	0x6b	107
166	0x4f	79
167	0xc1	-63
168	0x27	39
169	0xb7	-73
170	0x24	36
171	0x22	34
172	0x40	64
173	0x5f	95
174	0xa7	-89
175	0x46	70
176	0xf4	-12
177	0xe7	-25
178	0x54	84
179	0xb6	-74
180	0xac	-84
181	0x1a	26
182	0x28	40
183	0x1e	30
184	0xc6	-58
185	0xdf	-33
186	0xc1	-63
187	0xda	-38
188	0xe9	-23
189	0xc8	-56
190	0x2e	46
191	0xc6	-58
192	0x4f	79
193	0xde	-34
194	0x79	121
195	0xc3	-61
196	0xa9	-87
197	0x7f	127
198	0x81	-127
199	0x0b	11
200	0x81	-127
201	0x9b	-101
202	0x9a	-102
203	0xde	-34
204	0x7f	127
205	0x01	1
206	0x3c	60
207	0x7f	127
208	0x95	-107
209	0x63	99
210	0x81	-127
211	0x81	-127
212	0x1a	26
213	0x8f	-113
214	0x7f	127
215	0x95	-107
216	0x81	-127
217	0x81	-127
218	0x1f	31
219	0x81	-127
220	0xf1	-15
221	0x23	35
222	0x86	-122
223	0xee	-18

tfl.pseudo_qconst19 i1 [64, 1, 1, 32]
0	0x06	6
1	0x6d	109
2	0x6d	109
3	0x6a	106
4	0x63	99
5	0xdc	-36
6	0xc7	-57
7	0x3c	60
8	0xf7	-9
9	0xe2	-30
10	0xd0	-48
11	0x81	-127
12	0x13	19
13	0xb1	-79
14	0x12	18
15	0xcd	-51
16	0x92	-110
17	0xec	-20
18	0xae	-82
19	0x72	114
20	0xe9	-23
21	0xea	-22
22	0xd9	-39
23	0x98	-104
24	0x93	-109
25	0x18	24
26	0x79	121
27	0xfd	-3
28	0xf3	-13
29	0xb9	-71
30	0xc9	-55
31	0x57	87
32	0x58	88
33	0x5b	91
34	0xa7	-89
35	0xda	-38
36	0x61	97
37	0xfd	-3
38	0x31	49
39	0xc2	-62
40	0xbf	-65
41	0xe9	-23
42	0x19	25
43	0xa3	-93
44	0xe5	-27
45	0x68	104
46	0x49	73
47	0xfd	-3
48	0x44	68
49	0x36	54
50	0x4f	79
51	0x5c	92
52	0xc7	-57
53	0x3d	61
54	0x43	67
55	0x50	80
56	0xdc	-36
57	0x1d	29
58	0xda	-38
59	0x1b	27
60	0x7f	127
61	0xec	-20
62	0x0a	10
63	0x3f	63
64	0x1b	27
65	0x52	82
66	0xe8	-24
67	0xd1	-47
68	0xeb	-21
69	0x5b	91
70	0xdd	-35
71	0xe3	-29
72	0x9e	-98
73	0xa7	-89
74	0x9e	-98
75	0xbe	-66
76	0x44	68
77	0xf7	-9
78	0x51	81
79	0xcb	-53
80	0x48	72
81	0x06	6
82	0x59	89
83	0x8c	-116
84	0x8f	-113
85	0x7f	127
86	0x91	-111
87	0x50	80
88	0x70	112
89	0x03	3
90	0xaf	-81
91	0xee	-18
92	0xbf	-65
93	0x0d	13
94	0x50	80
95	0x8e	-114
96	0x71	113
97	0x0f	15
98	0x2c	44
99	0xe5	-27
100	0xc9	-55
101	0xb1	-79
102	0x03	3
103	0xe4	-28
104	0xb3	-77
105	0xce	-50
106	0xdb	-37
107	0xdb	-37
108	0x22	34
109	0x7c	124
110	0xd8	-40
111	0xd8	-40
112	0x58	88
113	0xa2	-94
114	0x94	-108
115	0x4d	77
116	0xc0	-64
117	0x2d	45
118	0xf9	-7
119	0x5e	94
120	0x49	73
121	0x07	7
122	0xea	-22
123	0x8c	-116
124	0x31	49
125	0x81	-127
126	0x5f	95
127	0xc7	-57
128	0x13	19
129	0xf1	-15
130	0xd3	-45
131	0x10	16
132	0xd1	-47
133	0x8a	-118
134	0xbf	-65
135	0xc3	-61
136	0x13	19
137	0x67	103
138	0x63	99
139	0x22	34
140	0x9e	-98
141	0xfc	-4
142	0x81	-127
143	0x02	2
144	0xdd	-35
145	0x63	99
146	0x6d	109
147	0x99	-103
148	0x93	-109
149	0xb1	-79
150	0x69	105
151	0xc9	-55
152	0xe6	-26
153	0x61	97
154	0xbb	-69
155	0xd3	-45
156	0x5a	90
157	0x33	51
158	0xe2	-30
159	0x74	116
160	0xae	-82
161	0xee	-18
162	0x04	4
163	0x4d	77
164	0x39	57
165	0xf4	-12
166	0x25	37
167	0xcb	-53
168	0xd0	-48
169	0x1e	30
170	0x58	88
171	0xaf	-81
172	0x79	121
173	0xc0	-64
174	0xdb	-37
175	0x0c	12
176	0x75	117
177	0xf9	-7
178	0x37	55
179	0x5a	90
180	0x11	17
181	0xb2	-78
182	0x17	23
183	0xba	-70
184	0x7f	127
185	0x28	40
186	0x02	2
187	0x1a	26
188	0x55	85
189	0xb4	-76
190	0x3f	63
191	0x9a	-102
192	0xcb	-53
193	0x10	16
194	0xa2	-94
195	0xd0	-48
196	0x1e	30
197	0x51	81
198	0xb4	-76
199	0xd3	-45
200	0x3c	60
201	0xf5	-11
202	0xc6	-58
203	0xf0	-16
204	0xbe	-66
205	0xd0	-48
206	0xfd	-3
207	0x0b	11
208	0x81	-127
209	0xef	-17
210	0x17	23
211	0x45	69
212	0x40	64
213	0xe3	-29
214	0xe5	-27
215	0x21	33
216	0x15	21
217	0x32	50
218	0x10	16
219	0xdd	-35
220	0x46	70
221	0xf8	-8
222	0x08	8
223	0x1a	26
224	0x7f	127
225	0x38	56
226	0x4a	74
227	0x4d	77
228	0xbe	-66
229	0x32	50
230	0x09	9
231	0x46	70
232	0xb0	-80
233	0x15	21
234	0x2a	42
235	0xc5	-59
236	0x17	23
237	0x5f	95
238	0xf5	-11
239	0x02	2
240	0xc1	-63
241	0x18	24
242	0xe6	-26
243	0x67	103
244	0x3d	61
245	0x0d	13
246	0x4a	74
247	0xc2	-62
248	0x01	1
249	0x26	38
250	0xe7	-25
251	0x01	1
252	0x21	33
253	0x1a	26
254	0x0d	13
255	0x14	20

tfl.pseudo_qconst21 i1 [1, 5, 1, 32]
0	0x4a	74
1	0xf4	-12
2	0x81	-127
3	0x92	-110
4	0xce	-50
5	0x38	56
6	0xa9	-87
7	0xe7	-25
8	0x62	98
9	0x5c	92
10	0x21	33
11	0xc0	-64
12	0xfd	-3
13	0x5f	95
14	0x3a	58
15	0xec	-20
16	0x98	-104
17	0x99	-103
18	0x5d	93
19	0x66	102
20	0xa3	-93
21	0xbf	-65
22	0x92	-110
23	0xb2	-78
24	0x46	70
25	0xc9	-55
26	0x64	100
27	0xd6	-42
28	0xe4	-28
29	0x6b	107
30	0x17	23
31	0x7f	127
32	0x04	4
33	0xb9	-71
34	0xce	-50
35	0xbc	-68
36	0x75	117
37	0x71	113
38	0x37	55
39	0x40	64
40	0x13	19
41	0x5c	92
42	0x06	6
43	0xa8	-88
44	0x50	80
45	0x7f	127
46	0x81	-127
47	0x22	34
48	0xaf	-81
49	0xe0	-32
50	0x86	-122
51	0x3d	61
52	0x81	-127
53	0x35	53
54	0x42	66
55	0x04	4
56	0xa8	-88
57	0x7f	127
58	0xf5	-11
59	0x81	-127
60	0xc9	-55
61	0xae	-82
62	0xc9	-55
63	0x22	34
64	0x7f	127
65	0x81	-127
66	0x59	89
67	0xbd	-67
68	0xc3	-61
69	0x7f	127
70	0x73	115
71	0x44	68
72	0x81	-127
73	0x63	99
74	0xbd	-67
75	0x81	-127
76	0x8b	-117
77	0xc1	-63
78	0xcb	-53
79	0x7f	127
80	0x81	-127
81	0xe5	-27
82	0xc0	-64
83	0xf3	-13
84	0xe7	-25
85	0x84	-124
86	0xa9	-87
87	0x7f	127
88	0x7f	127
89	0x38	56
90	0x73	115
91	0x92	-110
92	0x39	57
93	0xc5	-59
94	0x7f	127
95	0x57	87
96	0x22	34
97	0xb6	-74
98	0x87	-121
99	0x09	9
100	0x6e	110
101	0x5c	92
102	0x7f	127
103	0xad	-83
104	0x0b	11
105	0x7f	127
106	0xeb	-21
107	0x95	-107
108	0x9b	-101
109	0x16	22
110	0x84	-124
111	0x9f	-97
112	0xd2	-46
113	0x2f	47
114	0x4c	76
115	0x7f	127
116	0xf8	-8
117	0x7f	127
118	0x7f	127
119	0x84	-124
120	0x79	121
121	0xe3	-29
122	0xa6	-90
123	0x47	71
124	0x7f	127
125	0x81	-127
126	0x0a	10
127	0xcb	-53
128	0x6f	111
129	0xbf	-65
130	0x3e	62
131	0x7f	127
132	0x7f	127
133	0x1d	29
134	0x57	87
135	0x81	-127
136	0xce	-50
137	0x68	104
138	0x81	-127
139	0x16	22
140	0x7f	127
141	0x54	84
142	0xbe	-66
143	0xa8	-88
144	0x47	71
145	0x7f	127
146	0x7f	127
147	0x40	64
148	0xb9	-71
149	0x24	36
150	0xd0	-48
151	0x31	49
152	0x0b	11
153	0x3e	62
154	0x7f	127
155	0x61	97
156	0xf0	-16
157	0xd7	-41
158	0x8c	-116
159	0xad	-83

tfl.pseudo_qconst23 i1 [32, 5, 1, 40]
0	0x18	24
1	0xea	-22
2	0xa5	-91
3	0x25	37
4	0xfa	-6
5	0xc6	-58
6	0x2b	43
7	0xe8	-24
8	0xc5	-59
9	0xa7	-89
10	0xec	-20
11	0xbf	-65
12	0xde	-34
13	0x0a	10
14	0xa2	-94
15	0xb8	-72
16	0x4c	76
17	0x01	1
18	0xe6	-26
19	0x51	81
20	0xc3	-61
21	0xc4	-60
22	0xfb	-5
23	0x00	0
24	0x0f	15
25	0xe7	-25
26	0x21	33
27	0x2b	43
28	0xe7	-25
29	0xf8	-8
30	0x2d	45
31	0xe4	-28
32	0xe0	-32
33	0x6f	111
34	0xc7	-57
35	0xec	-20
36	0x8f	-113
37	0x17	23
38	0x06	6
39	0x9a	-102
40	0x8b	-117
41	0x1b	27
42	0xf9	-7
43	0x7c	124
44	0x05	5
45	0x34	52
46	0xe7	-25
47	0x0b	11
48	0xa7	-89
49	0x39	57
50	0xb8	-72
51	0x18	24
52	0xfd	-3
53	0xc8	-56
54	0x1e	30
55	0xcf	-49
56	0xd9	-39
57	0x49	73
58	0x19	25
59	0x4d	77
60	0x1f	31
61	0xe4	-28
62	0xc3	-61
63	0xaf	-81
64	0xe9	-23
65	0x7a	122
66	0xe9	-23
67	0xee	-18
68	0x2c	44
69	0x05	5
70	0x0a	10
71	0x2e	46
72	0xfc	-4
73	0x30	48
74	0xe2	-30
75	0xc1	-63
76	0x20	32
77	0xe7	-25
78	0xb5	-75
79	0xeb	-21
80	0xb4	-76
81	0x1c	28
82	0x19	25
83	0x0e	14
84	0x84	-124
85	0xbd	-67
86	0xf4	-12
87	0xe4	-28
88	0x0f	15
89	0x18	24
90	0x32	50
91	0x9b	-101
92	0x00	0
93	0xdf	-33
94	0x43	67
95	0xcf	-49
96	0x2f	47
97	0xd0	-48
98	0xc3	-61
99	0xc2	-62
100	0xb9	-71
101	0x5f	95
102	0xb5	-75
103	0x77	119
104	0x16	22
105	0x28	40
106	0xcf	-49
107	0x38	56
108	0xf8	-8
109	0x0e	14
110	0x14	20
111	0x32	50
112	0x1b	27
113	0xf6	-10
114	0x10	16
115	0x1e	30
116	0xba	-70
117	0xe9	-23
118	0x11	17
119	0xce	-50
120	0x3f	63
121	0x2f	47
122	0xce	-50
123	0x68	104
124	0xf7	-9
125	0xaf	-81
126	0xfb	-5
127	0xb2	-78
128	0xf8	-8
129	0xeb	-21
130	0xba	-70
131	0x5b	91
132	0x03	3
133	0x7f	127
134	0xdb	-37
135	0xb2	-78
136	0xbc	-68
137	0x10	16
138	0xf1	-15
139	0x2f	47
140	0xac	-84
141	0xcd	-51
142	0x00	0
143	0xe5	-27
144	0x23	35
145	0x6d	109
146	0x3c	60
147	0xcd	-51
148	0xe9	-23
149	0x43	67
150	0xce	-50
151	0x67	103
152	0xd7	-41
153	0x5b	91
154	0x00	0
155	0xca	-54
156	0xe9	-23
157	0xf8	-8
158	0xd8	-40
159	0x1c	28
160	0x54	84
161	0x02	2
162	0xb7	-73
163	0xed	-19
164	0xd4	-44
165	0x65	101
166	0xe2	-30
167	0xb1	-79
168	0x18	24
169	0x9c	-100
170	0x10	16
171	0x21	33
172	0xbc	-68
173	0xc5	-59
174	0xc1	-63
175	0x53	83
176	0x94	-108
177	0xd2	-46
178	0x18	24
179	0xed	-19
180	0xce	-50
181	0x5d	93
182	0xff	-1
183	0x20	32
184	0x17	23
185	0xe5	-27
186	0xf4	-12
187	0xb5	-75
188	0xb8	-72
189	0x60	96
190	0x94	-108
191	0x11	17
192	0xb6	-74
193	0xc1	-63
194	0xbe	-66
195	0x1d	29
196	0xd7	-41
197	0x01	1
198	0x43	67
199	0x0c	12
200	0x1f	31
201	0xf9	-7
202	0x3e	62
203	0xf8	-8
204	0x33	51
205	0x0c	12
206	0x40	64
207	0x22	34
208	0x31	49
209	0xf6	-10
210	0xde	-34
211	0xbd	-67
212	0x10	16
213	0xf3	-13
214	0xcd	-51
215	0xe3	-29
216	0xf2	-14
217	0x31	49
218	0xfe	-2
219	0xa9	-87
220	0x46	70
221	0xdb	-37
222	0xfa	-6
223	0xca	-54
224	0x35	53
225	0x35	53
226	0xda	-38
227	0xe2	-30
228	0xf6	-10
229	0xda	-38
230	0x0b	11
231	0x2e	46
232	0x1e	30
233	0xf1	-15
234	0x45	69
235	0xe1	-31
236	0x2b	43
237	0xee	-18
238	0xd6	-42
239	0xf8	-8
240	0x54	84
241	0x04	4
242	0xff	-1
243	0x02	2
244	0x33	51
245	0xbc	-68
246	0x45	69
247	0xe5	-27
248	0xe1	-31
249	0xfc	-4
250	0x09	9
251	0xf4	-12
252	0xcf	-49
253	0xc4	-60
254	0xd8	-40
255	0xe9	-23

arith.constant19 f4 [1, 14, 1, 64]
0	0x00000000	0.0
1	0x00000000	0.0
2	0x00000000	0.0
3	0x00000000	0.0
4	0x00000000	0.0
5	0x00000000	0.0
6	0x00000000	0.0
7	0x00000000	0.0
8	0x00000000	0.0
9	0x00000000	0.0
10	0x00000000	0.0
11	0x00000000	0.0
12	0x00000000	0.0
13	0x00000000	0.0
14	0x00000000	0.0
15	0x00000000	0.0
16	0x00000000	0.0
17	0x00000000	0.0
18	0x00000000	0.0
19	0x00000000	0.0
20	0x00000000	0.0
21	0x00000000	0.0
22	0x00000000	0.0
23	0x00000000	0.0
24	0x00000000	0.0
25	0x00000000	0.0
26	0x00000000	0.0
27	0x00000000	0.0
28	0x00000000	0.0
29	0x00000000	0.0
30	0x00000000	0.0
31	0x00000000	0.0
32	0x00000000	0.0
33	0x00000000	0.0
34	0x00000000	0.0
35	0x00000000	0.0
36	0x00000000	0.0
37	0x00000000	0.0
38	0x00000000	0.0
39	0x00000000	0.0
40	0x00000000	0.0
41	0x00000000	0.0
42	0x00000000	0.0
43	0x00000000	0.0
44	0x00000000	0.0
45	0x00000000	0.0
46	0x00000000	0.0
47	0x00000000	0.0
48	0x00000000	0.0
49	0x00000000	0.0
50	0x00000000	0.0
51	0x00000000	0.0
52	0x00000000	0.0
53	0x00000000	0.0
54	0x00000000	0.0
55	0x00000000	0.0
56	0x00000000	0.0
57	0x00000000	0.0
58	0x00000000	0.0
59	0x00000000	0.0
60	0x00000000	0.0
61	0x00000000	0.0
62	0x00000000	0.0
63	0x00000000	0.0
64	0x00000000	0.0
65	0x00000000	0.0
66	0x00000000	0.0
67	0x00000000	0.0
68	0x00000000	0.0
69	0x00000000	0.0
70	0x00000000	0.0
71	0x00000000	0.0
72	0x00000000	0.0
73	0x00000000	0.0
74	0x00000000	0.0
75	0x00000000	0.0
76	0x00000000	0.0
77	0x00000000	0.0
78	0x00000000	0.0
79	0x00000000	0.0
80	0x00000000	0.0
81	0x00000000	0.0
82	0x00000000	0.0
83	0x00000000	0.0
84	0x00000000	0.0
85	0x00000000	0.0
86	0x00000000	0.0
87	0x00000000	0.0
88	0x00000000	0.0
89	0x00000000	0.0
90	0x00000000	0.0
91	0x00000000	0.0
92	0x00000000	0.0
93	0x00000000	0.0
94	0x00000000	0.0
95	0x00000000	0.0
96	0x00000000	0.0
97	0x00000000	0.0
98	0x00000000	0.0
99	0x00000000	0.0
100	0x00000000	0.0
101	0x00000000	0.0
102	0x00000000	0.0
103	0x00000000	0.0
104	0x00000000	0.0
105	0x00000000	0.0
106	0x00000000	0.0
107	0x00000000	0.0
108	0x00000000	0.0
109	0x00000000	0.0
110	0x00000000	0.0
111	0x00000000	0.0
112	0x00000000	0.0
113	0x00000000	0.0
114	0x00000000	0.0
115	0x00000000	0.0
116	0x00000000	0.0
117	0x00000000	0.0
118	0x00000000	0.0
119	0x00000000	0.0
120	0x00000000	0.0
121	0x00000000	0.0
122	0x00000000	0.0
123	0x00000000	0.0
124	0x00000000	0.0
125	0x00000000	0.0
126	0x00000000	0.0
127	0x00000000	0.0
128	0x00000000	0.0
129	0x00000000	0.0
130	0x00000000	0.0
131	0x00000000	0.0
132	0x00000000	0.0
133	0x00000000	0.0
134	0x00000000	0.0
135	0x00000000	0.0
136	0x00000000	0.0
137	0x00000000	0.0
138	0x00000000	0.0
139	0x00000000	0.0
140	0x00000000	0.0
141	0x00000000	0.0
142	0x00000000	0.0
143	0x00000000	0.0
144	0x00000000	0.0
145	0x00000000	0.0
146	0x00000000	0.0
147	0x00000000	0.0
148	0x00000000	0.0
149	0x00000000	0.0
150	0x00000000	0.0
151	0x00000000	0.0
152	0x00000000	0.0
153	0x00000000	0.0
154	0x00000000	0.0
155	0x00000000	0.0
156	0x00000000	0.0
157	0x00000000	0.0
158	0x00000000	0.0
159	0x00000000	0.0
160	0x00000000	0.0
161	0x00000000	0.0
162	0x00000000	0.0
163	0x00000000	0.0
164	0x00000000	0.0
165	0x00000000	0.0
166	0x00000000	0.0
167	0x00000000	0.0
168	0x00000000	0.0
169	0x00000000	0.0
170	0x00000000	0.0
171	0x00000000	0.0
172	0x00000000	0.0
173	0x00000000	0.0
174	0x00000000	0.0
175	0x00000000	0.0
176	0x00000000	0.0
177	0x00000000	0.0
178	0x00000000	0.0
179	0x00000000	0.0
180	0x00000000	0.0
181	0x00000000	0.0
182	0x00000000	0.0
183	0x00000000	0.0
184	0x00000000	0.0
185	0x00000000	0.0
186	0x00000000	0.0
187	0x00000000	0.0
188	0x00000000	0.0
189	0x00000000	0.0
190	0x00000000	0.0
191	0x00000000	0.0
192	0x00000000	0.0
193	0x00000000	0.0
194	0x00000000	0.0
195	0x00000000	0.0
196	0x00000000	0.0
197	0x00000000	0.0
198	0x00000000	0.0
199	0x00000000	0.0
200	0x00000000	0.0
201	0x00000000	0.0
202	0x00000000	0.0
203	0x00000000	0.0
204	0x00000000	0.0
205	0x00000000	0.0
206	0x00000000	0.0
207	0x00000000	0.0
208	0x00000000	0.0
209	0x00000000	0.0
210	0x00000000	0.0
211	0x00000000	0.0
212	0x00000000	0.0
213	0x00000000	0.0
214	0x00000000	0.0
215	0x00000000	0.0
216	0x00000000	0.0
217	0x00000000	0.0
218	0x00000000	0.0
219	0x00000000	0.0
220	0x00000000	0.0
221	0x00000000	0.0
222	0x00000000	0.0
223	0x00000000	0.0
224	0x00000000	0.0
225	0x00000000	0.0
226	0x00000000	0.0
227	0x00000000	0.0
228	0x00000000	0.0
229	0x00000000	0.0
230	0x00000000	0.0
231	0x00000000	0.0
232	0x00000000	0.0
233	0x00000000	0.0
234	0x00000000	0.0
235	0x00000000	0.0
236	0x00000000	0.0
237	0x00000000	0.0
238	0x00000000	0.0
239	0x00000000	0.0
240	0x00000000	0.0
241	0x00000000	0.0
242	0x00000000	0.0
243	0x00000000	0.0
244	0x00000000	0.0
245	0x00000000	0.0
246	0x00000000	0.0
247	0x00000000	0.0
248	0x00000000	0.0
249	0x00000000	0.0
250	0x00000000	0.0
251	0x00000000	0.0
252	0x00000000	0.0
253	0x00000000	0.0
254	0x00000000	0.0
255	0x00000000	0.0

arith.constant20 f4 [1, 10, 1, 64]
0	0x00000000	0.0
1	0x00000000	0.0
2	0x00000000	0.0
3	0x00000000	0.0
4	0x00000000	0.0
5	0x00000000	0.0
6	0x00000000	0.0
7	0x00000000	0.0
8	0x00000000	0.0
9	0x00000000	0.0
10	0x00000000	0.0
11	0x00000000	0.0
12	0x00000000	0.0
13	0x00000000	0.0
14	0x00000000	0.0
15	0x00000000	0.0
16	0x00000000	0.0
17	0x00000000	0.0
18	0x00000000	0.0
19	0x00000000	0.0
20	0x00000000	0.0
21	0x00000000	0.0
22	0x00000000	0.0
23	0x00000000	0.0
24	0x00000000	0.0
25	0x00000000	0.0
26	0x00000000	0.0
27	0x00000000	0.0
28	0x00000000	0.0
29	0x00000000	0.0
30	0x00000000	0.0
31	0x00000000	0.0
32	0x00000000	0.0
33	0x00000000	0.0
34	0x00000000	0.0
35	0x00000000	0.0
36	0x00000000	0.0
37	0x00000000	0.0
38	0x00000000	0.0
39	0x00000000	0.0
40	0x00000000	0.0
41	0x00000000	0.0
42	0x00000000	0.0
43	0x00000000	0.0
44	0x00000000	0.0
45	0x00000000	0.0
46	0x00000000	0.0
47	0x00000000	0.0
48	0x00000000	0.0
49	0x00000000	0.0
50	0x00000000	0.0
51	0x00000000	0.0
52	0x00000000	0.0
53	0x00000000	0.0
54	0x00000000	0.0
55	0x00000000	0.0
56	0x00000000	0.0
57	0x00000000	0.0
58	0x00000000	0.0
59	0x00000000	0.0
60	0x00000000	0.0
61	0x00000000	0.0
62	0x00000000	0.0
63	0x00000000	0.0
64	0x00000000	0.0
65	0x00000000	0.0
66	0x00000000	0.0
67	0x00000000	0.0
68	0x00000000	0.0
69	0x00000000	0.0
70	0x00000000	0.0
71	0x00000000	0.0
72	0x00000000	0.0
73	0x00000000	0.0
74	0x00000000	0.0
75	0x00000000	0.0
76	0x00000000	0.0
77	0x00000000	0.0
78	0x00000000	0.0
79	0x00000000	0.0
80	0x00000000	0.0
81	0x00000000	0.0
82	0x00000000	0.0
83	0x00000000	0.0
84	0x00000000	0.0
85	0x00000000	0.0
86	0x00000000	0.0
87	0x00000000	0.0
88	0x00000000	0.0
89	0x00000000	0.0
90	0x00000000	0.0
91	0x00000000	0.0
92	0x00000000	0.0
93	0x00000000	0.0
94	0x00000000	0.0
95	0x00000000	0.0
96	0x00000000	0.0
97	0x00000000	0.0
98	0x00000000	0.0
99	0x00000000	0.0
100	0x00000000	0.0
101	0x00000000	0.0
102	0x00000000	0.0
103	0x00000000	0.0
104	0x00000000	0.0
105	0x00000000	0.0
106	0x00000000	0.0
107	0x00000000	0.0
108	0x00000000	0.0
109	0x00000000	0.0
110	0x00000000	0.0
111	0x00000000	0.0
112	0x00000000	0.0
113	0x00000000	0.0
114	0x00000000	0.0
115	0x00000000	0.0
116	0x00000000	0.0
117	0x00000000	0.0
118	0x00000000	0.0
119	0x00000000	0.0
120	0x00000000	0.0
121	0x00000000	0.0
122	0x00000000	0.0
123	0x00000000	0.0
124	0x00000000	0.0
125	0x00000000	0.0
126	0x00000000	0.0
127	0x00000000	0.0
128	0x00000000	0.0
129	0x00000000	0.0
130	0x00000000	0.0
131	0x00000000	0.0
132	0x00000000	0.0
133	0x00000000	0.0
134	0x00000000	0.0
135	0x00000000	0.0
136	0x00000000	0.0
137	0x00000000	0.0
138	0x00000000	0.0
139	0x00000000	0.0
140	0x00000000	0.0
141	0x00000000	0.0
142	0x00000000	0.0
143	0x00000000	0.0
144	0x00000000	0.0
145	0x00000000	0.0
146	0x00000000	0.0
147	0x00000000	0.0
148	0x00000000	0.0
149	0x00000000	0.0
150	0x00000000	0.0
151	0x00000000	0.0
152	0x00000000	0.0
153	0x00000000	0.0
154	0x00000000	0.0
155	0x00000000	0.0
156	0x00000000	0.0
157	0x00000000	0.0
158	0x00000000	0.0
159	0x00000000	0.0
160	0x00000000	0.0
161	0x00000000	0.0
162	0x00000000	0.0
163	0x00000000	0.0
164	0x00000000	0.0
165	0x00000000	0.0
166	0x00000000	0.0
167	0x00000000	0.0
168	0x00000000	0.0
169	0x00000000	0.0
170	0x00000000	0.0
171	0x00000000	0.0
172	0x00000000	0.0
173	0x00000000	0.0
174	0x00000000	0.0
175	0x00000000	0.0
176	0x00000000	0.0
177	0x00000000	0.0
178	0x00000000	0.0
179	0x00000000	0.0
180	0x00000000	0.0
181	0x00000000	0.0
182	0x00000000	0.0
183	0x00000000	0.0
184	0x00000000	0.0
185	0x00000000	0.0
186	0x00000000	0.0
187	0x00000000	0.0
188	0x00000000	0.0
189	0x00000000	0.0
190	0x00000000	0.0
191	0x00000000	0.0
192	0x00000000	0.0
193	0x00000000	0.0
194	0x00000000	0.0
195	0x00000000	0.0
196	0x00000000	0.0
197	0x00000000	0.0
198	0x00000000	0.0
199	0x00000000	0.0
200	0x00000000	0.0
201	0x00000000	0.0
202	0x00000000	0.0
203	0x00000000	0.0
204	0x00000000	0.0
205	0x00000000	0.0
206	0x00000000	0.0
207	0x00000000	0.0
208	0x00000000	0.0
209	0x00000000	0.0
210	0x00000000	0.0
211	0x00000000	0.0
212	0x00000000	0.0
213	0x00000000	0.0
214	0x00000000	0.0
215	0x00000000	0.0
216	0x00000000	0.0
217	0x00000000	0.0
218	0x00000000	0.0
219	0x00000000	0.0
220	0x00000000	0.0
221	0x00000000	0.0
222	0x00000000	0.0
223	0x00000000	0.0
224	0x00000000	0.0
225	0x00000000	0.0
226	0x00000000	0.0
227	0x00000000	0.0
228	0x00000000	0.0
229	0x00000000	0.0
230	0x00000000	0.0
231	0x00000000	0.0
232	0x00000000	0.0
233	0x00000000	0.0
234	0x00000000	0.0
235	0x00000000	0.0
236	0x00000000	0.0
237	0x00000000	0.0
238	0x00000000	0.0
239	0x00000000	0.0
240	0x00000000	0.0
241	0x00000000	0.0
242	0x00000000	0.0
243	0x00000000	0.0
244	0x00000000	0.0
245	0x00000000	0.0
246	0x00000000	0.0
247	0x00000000	0.0
248	0x00000000	0.0
249	0x00000000	0.0
250	0x00000000	0.0
251	0x00000000	0.0
252	0x00000000	0.0
253	0x00000000	0.0
254	0x00000000	0.0
255	0x00000000	0.0

arith.constant21 f4 [1, 4, 1, 32]
0	0x00000000	0.0
1	0x00000000	0.0
2	0x00000000	0.0
3	0x00000000	0.0
4	0x00000000	0.0
5	0x00000000	0.0
6	0x00000000	0.0
7	0x00000000	0.0
8	0x00000000	0.0
9	0x00000000	0.0
10	0x00000000	0.0
11	0x00000000	0.0
12	0x00000000	0.0
13	0x00000000	0.0
14	0x00000000	0.0
15	0x00000000	0.0
16	0x00000000	0.0
17	0x00000000	0.0
18	0x00000000	0.0
19	0x00000000	0.0
20	0x00000000	0.0
21	0x00000000	0.0
22	0x00000000	0.0
23	0x00000000	0.0
24	0x00000000	0.0
25	0x00000000	0.0
26	0x00000000	0.0
27	0x00000000	0.0
28	0x00000000	0.0
29	0x00000000	0.0
30	0x00000000	0.0
31	0x00000000	0.0
32	0x00000000	0.0
33	0x00000000	0.0
34	0x00000000	0.0
35	0x00000000	0.0
36	0x00000000	0.0
37	0x00000000	0.0
38	0x00000000	0.0
39	0x00000000	0.0
40	0x00000000	0.0
41	0x00000000	0.0
42	0x00000000	0.0
43	0x00000000	0.0
44	0x00000000	0.0
45	0x00000000	0.0
46	0x00000000	0.0
47	0x00000000	0.0
48	0x00000000	0.0
49	0x00000000	0.0
50	0x00000000	0.0
51	0x00000000	0.0
52	0x00000000	0.0
53	0x00000000	0.0
54	0x00000000	0.0
55	0x00000000	0.0
56	0x00000000	0.0
57	0x00000000	0.0
58	0x00000000	0.0
59	0x00000000	0.0
60	0x00000000	0.0
61	0x00000000	0.0
62	0x00000000	0.0
63	0x00000000	0.0
64	0x00000000	0.0
65	0x00000000	0.0
66	0x00000000	0.0
67	0x00000000	0.0
68	0x00000000	0.0
69	0x00000000	0.0
70	0x00000000	0.0
71	0x00000000	0.0
72	0x00000000	0.0
73	0x00000000	0.0
74	0x00000000	0.0
75	0x00000000	0.0
76	0x00000000	0.0
77	0x00000000	0.0
78	0x00000000	0.0
79	0x00000000	0.0
80	0x00000000	0.0
81	0x00000000	0.0
82	0x00000000	0.0
83	0x00000000	0.0
84	0x00000000	0.0
85	0x00000000	0.0
86	0x00000000	0.0
87	0x00000000	0.0
88	0x00000000	0.0
89	0x00000000	0.0
90	0x00000000	0.0
91	0x00000000	0.0
92	0x00000000	0.0
93	0x00000000	0.0
94	0x00000000	0.0
95	0x00000000	0.0
96	0x00000000	0.0
97	0x00000000	0.0
98	0x00000000	0.0
99	0x00000000	0.0
100	0x00000000	0.0
101	0x00000000	0.0
102	0x00000000	0.0
103	0x00000000	0.0
104	0x00000000	0.0
105	0x00000000	0.0
106	0x00000000	0.0
107	0x00000000	0.0
108	0x00000000	0.0
109	0x00000000	0.0
110	0x00000000	0.0
111	0x00000000	0.0
112	0x00000000	0.0
113	0x00000000	0.0
114	0x00000000	0.0
115	0x00000000	0.0
116	0x00000000	0.0
117	0x00000000	0.0
118	0x00000000	0.0
119	0x00000000	0.0
120	0x00000000	0.0
121	0x00000000	0.0
122	0x00000000	0.0
123	0x00000000	0.0
124	0x00000000	0.0
125	0x00000000	0.0
126	0x00000000	0.0
127	0x00000000	0.0
