dave.tflite (tflite, 63544 bytes, 18 tensors)

tfl.pseudo_qconst1 i1 [1, 2368] scale=0.0054232264 zero_point=0
0	0x02	0.010846453
1	0xd4	-0.23862197
2	0xde	-0.1843897
3	0x13	0.1030413
4	0xe7	-0.13558066
5	0xdd	-0.18981293
6	0x31	0.2657381
7	0xe2	-0.1626968
8	0xf7	-0.048809037
9	0xd3	-0.24404518
10	0xe5	-0.14642711
11	0xea	-0.11931098
12	0xf8	-0.04338581
13	0xc2	-0.33624002
14	0x2f	0.25489163
15	0xf3	-0.070501946
16	0xdb	-0.20065938
17	0xd6	-0.22777551
18	0xe1	-0.16812001
19	0x4b	0.40674198
20	0xeb	-0.11388776
21	0xf2	-0.07592517
22	0xca	-0.29285422
23	0x0b	0.05965549
24	0xdf	-0.17896648
25	0xf7	-0.048809037
26	0xef	-0.09219485
27	0xe0	-0.17354324
28	0xc0	-0.3470865
29	0xee	-0.09761807
30	0xe8	-0.13015744
31	0xb7	-0.39589554
32	0x13	0.1030413
33	0xd2	-0.24946842
34	0xee	-0.09761807
35	0xda	-0.2060826
36	0xe8	-0.13015744
37	0xe2	-0.1626968
38	0xe8	-0.13015744
39	0xe2	-0.1626968
40	0xb3	-0.41758844
41	0x42	0.35793296
42	0xee	-0.09761807
43	0xf3	-0.070501946
44	0xd1	-0.25489163
45	0xfb	-0.027116131
46	0xe3	-0.15727356
47	0xf1	-0.0813484
48	0xf1	-0.0813484
49	0xb4	-0.4121652
50	0xc7	-0.3091239
51	0x01	0.0054232264
52	0xd1	-0.25489163
53	0x13	0.1030413
54	0xfa	-0.03253936
55	0xf4	-0.06507872
56	0x08	0.04338581
57	0xe0	-0.17354324
58	0xf5	-0.05965549
59	0x4c	0.4121652
60	0xf5	-0.05965549
61	0xcd	-0.27658454
62	0x05	0.027116131
63	0xd4	-0.23862197
64	0x01	0.0054232264
65	0xe6	-0.14100389
66	0xf9	-0.037962586
67	0x02	0.010846453
68	0x0b	0.05965549
69	0xe0	-0.17354324
70	0x1d	0.15727356
71	0xef	-0.09219485
72	0xf9	-0.037962586
73	0xee	-0.09761807
74	0x05	0.027116131
75	0xe8	-0.13015744
76	0xf9	-0.037962586
77	0xe0	-0.17354324
78	0x1a	0.14100389
79	0xfc	-0.021692906
80	0xf1	-0.0813484
81	0xf8	-0.04338581
82	0xf1	-0.0813484
83	0x42	0.35793296
84	0xe9	-0.12473421
85	0xfa	-0.03253936
86	0xf4	-0.06507872
87	0x04	0.021692906
88	0xf2	-0.07592517
89	0xfa	-0.03253936
90	0x03	0.01626968
91	0xec	-0.108464524
92	0xd7	-0.22235228
93	0xff	-0.0054232264
94	0xf2	-0.07592517
95	0xd4	-0.23862197
96	0x1e	0.1626968
97	0xed	-0.1030413
98	0xed	-0.1030413
99	0x01	0.0054232264
100	0x04	0.021692906
101	0xf2	-0.07592517
102	0xeb	-0.11388776
103	0xe8	-0.13015744
104	0xdc	-0.19523615
105	0x2f	0.25489163
106	0xf5	-0.05965549
107	0x03	0.01626968
108	0xf0	-0.08677162
109	0xfa	-0.03253936
110	0xf1	-0.0813484
111	0xfc	-0.021692906
112	0xec	-0.108464524
113	0xe9	-0.12473421
114	0xe5	-0.14642711
115	0x0a	0.054232262
116	0xe2	-0.1626968
117	0x1b	0.14642711
118	0xff	-0.0054232264
119	0x06	0.03253936
120	0xfa	-0.03253936
121	0xf6	-0.054232262
122	0xea	-0.11931098
123	0x24	0.19523615
124	0xf2	-0.07592517
125	0xeb	-0.11388776
126	0xf4	-0.06507872
127	0xfe	-0.010846453
128	0xff	-0.0054232264
129	0xe6	-0.14100389
130	0xf9	-0.037962586
131	0x00	0.0
132	0x13	0.1030413
133	0xea	-0.11931098
134	0x13	0.1030413
135	0x08	0.04338581
136	0x09	0.048809037
137	0xee	-0.09761807
138	0x03	0.01626968
139	0xdd	-0.18981293
140	0xf3	-0.070501946
141	0xe9	-0.12473421
142	0x10	0.08677162
143	0xff	-0.0054232264
144	0xf7	-0.048809037
145	0xf9	-0.037962586
146	0xf6	-0.054232262
147	0x30	0.26031488
148	0xf1	-0.0813484
149	0x01	0.0054232264
150	0x0f	0.0813484
151	0x01	0.0054232264
152	0xf5	-0.05965549
153	0xff	-0.0054232264
154	0x16	0.11931098
155	0x09	0.048809037
156	0xde	-0.1843897
157	0x00	0.0
158	0xef	-0.09219485
159	0xf5	-0.05965549
160	0x22	0.1843897
161	0xfd	-0.01626968
162	0xf7	-0.048809037
163	0x07	0.037962586
164	0x06	0.03253936
165	0xf7	-0.048809037
166	0xf2	-0.07592517
167	0xf3	-0.070501946
168	0xe0	-0.17354324
169	0x32	0.27116132
170	0xf8	-0.04338581
171	0x02	0.010846453
172	0x08	0.04338581
173	0xef	-0.09219485
174	0xff	-0.0054232264
175	0xfa	-0.03253936
176	0xfa	-0.03253936
177	0xed	-0.1030413
178	0xf9	-0.037962586
179	0x04	0.021692906
180	0xfd	-0.01626968
181	0x0a	0.054232262
182	0x00	0.0
183	0xf9	-0.037962586
184	0xf5	-0.05965549
185	0x08	0.04338581
186	0xf1	-0.0813484
187	0x18	0.13015744
188	0xf4	-0.06507872
189	0xf9	-0.037962586
190	0xf1	-0.0813484
191	0x0d	0.070501946
192	0xfa	-0.03253936
193	0xf6	-0.054232262
194	0x0e	0.07592517
195	0x0c	0.06507872
196	0x09	0.048809037
197	0xf0	-0.08677162
198	0x03	0.01626968
199	0x16	0.11931098
200	0xfd	-0.01626968
201	0xe7	-0.13558066
202	0xf5	-0.05965549
203	0xe0	-0.17354324
204	0xf4	-0.06507872
205	0xe3	-0.15727356
206	0x0f	0.0813484
207	0xff	-0.0054232264
208	0xf8	-0.04338581
209	0x00	0.0
210	0x02	0.010846453
211	0x36	0.29285422
212	0xdd	-0.18981293
213	0xf7	-0.048809037
214	0x0c	0.06507872
215	0xfc	-0.021692906
216	0xf7	-0.048809037
217	0xf5	-0.05965549
218	0x1b	0.14642711
219	0x0b	0.05965549
220	0xf1	-0.0813484
221	0xf1	-0.0813484
222	0x08	0.04338581
223	0xfb	-0.027116131
224	0x13	0.1030413
225	0xe6	-0.14100389
226	0xeb	-0.11388776
227	0x02	0.010846453
228	0xfc	-0.021692906
229	0xfb	-0.027116131
230	0x0e	0.07592517
231	0xf4	-0.06507872
232	0xe6	-0.14100389
233	0x1e	0.1626968
234	0xe6	-0.14100389
235	0x11	0.09219485
236	0x02	0.010846453
237	0xfb	-0.027116131
238	0x0c	0.06507872
239	0x03	0.01626968
240	0xff	-0.0054232264
241	0xf9	-0.037962586
242	0xf5	-0.05965549
243	0xf2	-0.07592517
244	0xf7	-0.048809037
245	0x0a	0.054232262
246	0x0d	0.070501946
247	0xf7	-0.048809037
248	0xf9	-0.037962586
249	0xff	-0.0054232264
250	0xf6	-0.054232262
251	0x02	0.010846453
252	0xf4	-0.06507872
253	0x04	0.021692906
254	0xeb	-0.11388776
255	0x11	0.09219485

tfl.pseudo_qconst3 i1 [64, 1, 1, 64]
0	0x3c	60
1	0x38	56
2	0x1c	28
3	0x8f	-113
4	0x42	66
5	0xcc	-52
6	0x09	9
7	0x8f	-113
8	0xeb	-21
9	0x12	18
10	0xcb	-53
11	0x71	113
12	0xc6	-58
13	0xdd	-35
14	0x21	33
15	0x39	57
16	0x0f	15
17	0xe9	-23
18	0xc6	-58
19	0x18	24
20	0xe0	-32
21	0xc3	-61
22	0xf0	-16
23	0x65	101
24	0xda	-38
25	0x5b	91
26	0x98	-104
27	0xff	-1
28	0x51	81
29	0x42	66
30	0x46	70
31	0x23	35
32	0xfb	-5
33	0xcb	-53
34	0x23	35
35	0x4f	79
36	0x90	-112
37	0x01	1
38	0x23	35
39	0xc7	-57
40	0x48	72
41	0x14	20
42	0x11	17
43	0x1c	28
44	0x63	99
45	0xc3	-61
46	0xd1	-47
47	0x0a	10
48	0x0f	15
49	0x13	19
50	0xd8	-40
51	0x02	2
52	0xea	-22
53	0xd5	-43
54	0xc7	-57
55	0xff	-1
56	0x43	67
57	0x44	68
58	0x06	6
59	0xf7	-9
60	0x03	3
61	0x81	-127
62	0xf6	-10
63	0xa2	-94
64	0x32	50
65	0xd2	-46
66	0xd4	-44
67	0x0a	10
68	0x81	-127
69	0xda	-38
70	0xe6	-26
71	0x2c	44
72	0x18	24
73	0xa4	-92
74	0xab	-85
75	0x46	70
76	0xfe	-2
77	0x0f	15
78	0x17	23
79	0xdc	-36
80	0xde	-34
81	0x1c	28
82	0x1e	30
83	0xf5	-11
84	0xbe	-66
85	0xf1	-15
86	0x09	9
87	0xec	-20
88	0x00	0
89	0x12	18
90	0xb3	-77
91	0xa6	-90
92	0x1b	27
93	0x1f	31
94	0xc9	-55
95	0xf7	-9
96	0x33	51
97	0xf9	-7
98	0xf1	-15
99	0x2f	47
100	0xe7	-25
101	0xd9	-39
102	0x22	34
103	0xe6	-26
104	0x5c	92
105	0xd8	-40
106	0x03	3
107	0x10	16
108	0x13	19
109	0xc8	-56
110	0xe9	-23
111	0xb3	-77
112	0xdd	-35
113	0xd3	-45
114	0x6d	109
115	0xa8	-88
116	0x01	1
117	0x01	1
118	0xd1	-47
119	0xda	-38
120	0xfd	-3
121	0xea	-22
122	0x23	35
123	0xf7	-9
124	0xf3	-13
125	0xf2	-14
126	0xfd	-3
127	0xfb	-5
128	0x2c	44
129	0xfc	-4
130	0xfe	-2
131	0x10	16
132	0x0e	14
133	0xf2	-14
134	0x3b	59
135	0xe9	-23
136	0x11	17
137	0x00	0
138	0xfd	-3
139	0x0b	11
140	0xdb	-37
141	0x45	69
142	0xfe	-2
143	0xdb	-37
144	0xf1	-15
145	0xe8	-24
146	0xde	-34
147	0x6a	106
148	0x16	22
149	0xfa	-6
150	0xfc	-4
151	0x09	9
152	0x4d	77
153	0xd4	-44
154	0x0c	12
155	0xfd	-3
156	0x17	23
157	0xd7	-41
158	0xc8	-56
159	0x06	6
160	0x1a	26
161	0x13	19
162	0xe5	-27
163	0xe4	-28
164	0xe7	-25
165	0xea	-22
166	0xed	-19
167	0xdd	-35
168	0xeb	-21
169	0xc0	-64
170	0xe1	-31
171	0xfa	-6
172	0xe0	-32
173	0xd8	-40
174	0xc9	-55
175	0x0f	15
176	0xfc	-4
177	0x0f	15
178	0x03	3
179	0x26	38
180	0x81	-127
181	0xfa	-6
182	0xe7	-25
183	0x64	100
184	0x20	32
185	0x0c	12
186	0x1c	28
187	0x17	23
188	0xef	-17
189	0xd2	-46
190	0xf5	-11
191	0x03	3
192	0xdf	-33
193	0x00	0
194	0xdd	-35
195	0xd5	-43
196	0x00	0
197	0x0a	10
198	0xe0	-32
199	0xc4	-60
200	0xeb	-21
201	0xf5	-11
202	0x2e	46
203	0xe9	-23
204	0xd5	-43
205	0xf0	-16
206	0xd1	-47
207	0x15	21
208	0x15	21
209	0x15	21
210	0xe2	-30
211	0xcc	-52
212	0xe1	-31
213	0xce	-50
214	0x00	0
215	0xfe	-2
216	0xd6	-42
217	0xd3	-45
218	0xc8	-56
219	0x25	37
220	0xc4	-60
221	0xd7	-41
222	0x08	8
223	0xfd	-3
224	0x22	34
225	0x39	57
226	0x11	17
227	0xae	-82
228	0x0b	11
229	0xbc	-68
230	0x2d	45
231	0x1f	31
232	0xc1	-63
233	0x1b	27
234	0x5a	90
235	0x1f	31
236	0xde	-34
237	0x14	20
238	0x12	18
239	0x4f	79
240	0xd8	-40
241	0x48	72
242	0x31	49
243	0x20	32
244	0xdf	-33
245	0x36	54
246	0x20	32
247	0xea	-22
248	0x7f	127
249	0x25	37
250	0x1e	30
251	0xf1	-15
252	0xcb	-53
253	0x34	52
254	0xf9	-7
255	0xd2	-46

tfl.pseudo_qconst5 i1 [1, 23, 1, 64]
0	0xe0	-32
1	0x7f	127
2	0xfe	-2
3	0x2c	44
4	0xf6	-10
5	0x54	84
6	0x7f	127
7	0x9e	-98
8	0x5e	94
9	0x1a	26
10	0x7f	127
11	0xda	-38
12	0x66	102
13	0xf6	-10
14	0x81	-127
15	0x30	48
16	0xd8	-40
17	0x23	35
18	0x81	-127
19	0xdd	-35
20	0xce	-50
21	0x81	-127
22	0xfd	-3
23	0xae	-82
24	0xdc	-36
25	0x33	51
26	0x30	48
27	0x33	51
28	0x01	1
29	0x81	-127
30	0x3d	61
31	0xb4	-76
32	0x7f	127
33	0x4b	75
34	0xf6	-10
35	0xc7	-57
36	0x7f	127
37	0x81	-127
38	0x55	85
39	0x7f	127
40	0xd3	-45
41	0x19	25
42	0x7f	127
43	0x65	101
44	0x26	38
45	0x5c	92
46	0xe1	-31
47	0x7f	127
48	0x7f	127
49	0x7f	127
50	0xac	-84
51	0xd8	-40
52	0x9d	-99
53	0x06	6
54	0x4c	76
55	0xda	-38
56	0x14	20
57	0xf7	-9
58	0x7f	127
59	0x8c	-116
60	0x03	3
61	0x4b	75
62	0x81	-127
63	0x7f	127
64	0xb3	-77
65	0x5f	95
66	0x13	19
67	0x06	6
68	0xfd	-3
69	0x56	86
70	0x4f	79
71	0x09	9
72	0x7f	127
73	0x0c	12
74	0x78	120
75	0xe9	-23
76	0x55	85
77	0xfc	-4
78	0xb2	-78
79	0x28	40
80	0x40	64
81	0x1f	31
82	0x94	-108
83	0xd6	-42
84	0x2c	44
85	0xc1	-63
86	0xf6	-10
87	0xb9	-71
88	0xe9	-23
89	0x2d	45
90	0x48	72
91	0x56	86
92	0xfd	-3
93	0xb2	-78
94	0x32	50
95	0xab	-85
96	0x57	87
97	0x51	81
98	0xb9	-71
99	0xac	-84
100	0x51	81
101	0xb9	-71
102	0x5a	90
103	0x67	103
104	0xd5	-43
105	0x02	2
106	0x69	105
107	0x77	119
108	0x4b	75
109	0x53	83
110	0xcd	-51
111	0x25	37
112	0x6d	109
113	0x55	85
114	0xd3	-45
115	0xdd	-35
116	0xb5	-75
117	0x0a	10
118	0x3c	60
119	0xe4	-28
120	0x25	37
121	0xff	-1
122	0x67	103
123	0x8d	-115
124	0xef	-17
125	0x39	57
126	0xa8	-88
127	0x78	120
128	0xa9	-87
129	0x5a	90
130	0x09	9
131	0xfc	-4
132	0x2c	44
133	0x32	50
134	0x63	99
135	0x08	8
136	0x71	113
137	0x09	9
138	0x62	98
139	0xe4	-28
140	0x43	67
141	0x01	1
142	0xbe	-66
143	0x33	51
144	0x26	38
145	0x1f	31
146	0xbe	-66
147	0xcb	-53
148	0xff	-1
149	0xb5	-75
150	0x81	-127
151	0xcd	-51
152	0xde	-34
153	0x04	4
154	0x7f	127
155	0x63	99
156	0xe7	-25
157	0x0a	10
158	0x38	56
159	0xb4	-76
160	0x09	9
161	0x45	69
162	0xc8	-56
163	0x8c	-116
164	0x6e	110
165	0xc2	-62
166	0x4b	75
167	0x4c	76
168	0xe7	-25
169	0x14	20
170	0x4b	75
171	0x75	117
172	0x18	24
173	0x51	81
174	0xe8	-24
175	0x27	39
176	0x74	116
177	0x56	86
178	0xce	-50
179	0x9f	-97
180	0xb9	-71
181	0xf5	-11
182	0x6e	110
183	0xec	-20
184	0x0e	14
185	0x25	37
186	0x57	87
187	0x86	-122
188	0xe0	-32
189	0x32	50
190	0xbc	-68
191	0x50	80
192	0xb7	-73
193	0x3e	62
194	0x01	1
195	0xf0	-16
196	0x4c	76
197	0x40	64
198	0x3b	59
199	0x0a	10
200	0x71	113
201	0xd8	-40
202	0x4a	74
203	0x1b	27
204	0x2d	45
205	0x1b	27
206	0xd6	-42
207	0x42	66
208	0x3b	59
209	0x1b	27
210	0xc2	-62
211	0xcc	-52
212	0x34	52
213	0xbb	-69
214	0xec	-20
215	0xd3	-45
216	0xe7	-25
217	0xe2	-30
218	0x6d	109
219	0x65	101
220	0xd4	-44
221	0x07	7
222	0x57	87
223	0xb8	-72
224	0xf1	-15
225	0x2a	42
226	0xb1	-79
227	0xaf	-81
228	0x58	88
229	0xd7	-41
230	0x57	87
231	0x2d	45
232	0xe9	-23
233	0xfe	-2
234	0x36	54
235	0x60	96
236	0x31	49
237	0x1a	26
238	0xda	-38
239	0xf2	-14
240	0x63	99
241	0x3c	60
242	0xec	-20
243	0xb9	-71
244	0xc5	-59
245	0xff	-1
246	0x45	69
247	0xe0	-32
248	0x25	37
249	0xf5	-11
250	0x43	67
251	0xc4	-60
252	0xd3	-45
253	0x1f	31
254	0xd7	-41
255	0x3e	62

tfl.pseudo_qconst7 i1 [64, 1, 1, 64]
0	0xe9	-23
1	0x18	24
2	0x30	48
3	0xc9	-55
4	0xfb	-5
5	0x05	5
6	0xc2	-62
7	0xea	-22
8	0x5d	93
9	0xf2	-14
10	0x40	64
11	0x31	49
12	0x1d	29
13	0xed	-19
14	0x03	3
15	0xd7	-41
16	0x15	21
17	0x7f	127
18	0xb2	-78
19	0x0e	14
20	0x5e	94
21	0xc6	-58
22	0x38	56
23	0x39	57
24	0x0d	13
25	0xc9	-55
26	0xe6	-26
27	0xec	-20
28	0x74	116
29	0x0f	15
30	0x55	85
31	0x1d	29
32	0xf2	-14
33	0x08	8
34	0x13	19
35	0x26	38
36	0x04	4
37	0xde	-34
38	0x27	39
39	0x9c	-100
40	0xfc	-4
41	0xde	-34
42	0x20	32
43	0x0c	12
44	0x1e	30
45	0x5b	91
46	0x0e	14
47	0xf7	-9
48	0x0d	13
49	0xe9	-23
50	0x49	73
51	0x33	51
52	0xac	-84
53	0xfe	-2
54	0x10	16
55	0x22	34
56	0x37	55
57	0xee	-18
58	0xe6	-26
59	0x32	50
60	0x9f	-97
61	0xc6	-58
62	0xa1	-95
63	0x1e	30
64	0x03	3
65	0xea	-22
66	0x1b	27
67	0xe6	-26
68	0x18	24
69	0xa2	-94
70	0x11	17
71	0x01	1
72	0xef	-17
73	0xc5	-59
74	0x07	7
75	0x04	4
76	0x14	20
77	0xda	-38
78	0xfa	-6
79	0xe1	-31
80	0x2d	45
81	0x03	3
82	0x20	32
83	0xf5	-11
84	0xfa	-6
85	0x2c	44
86	0xf9	-7
87	0x98	-104
88	0x1e	30
89	0x0b	11
90	0x01	1
91	0xe9	-23
92	0xf2	-14
93	0xf7	-9
94	0xcf	-49
95	0x7f	127
96	0xe7	-25
97	0x09	9
98	0xf1	-15
99	0xf8	-8
100	0x43	67
101	0xfd	-3
102	0xe3	-29
103	0xe0	-32
104	0x0e	14
105	0xd7	-41
106	0xf5	-11
107	0xdf	-33
108	0x27	39
109	0xcf	-49
110	0x38	56
111	0x24	36
112	0xbc	-68
113	0x09	9
114	0x46	70
115	0xa6	-90
116	0xfc	-4
117	0xf3	-13
118	0xe1	-31
119	0x00	0
120	0xd0	-48
121	0x16	22
122	0xfd	-3
123	0xe7	-25
124	0x1d	29
125	0xf1	-15
126	0xc8	-56
127	0x16	22
128	0x34	52
129	0xf1	-15
130	0x29	41
131	0xfa	-6
132	0xf6	-10
133	0x1b	27
134	0x47	71
135	0xe4	-28
136	0x00	0
137	0x2b	43
138	0x24	36
139	0x11	17
140	0x12	18
141	0x24	36
142	0xf3	-13
143	0xe2	-30
144	0xbf	-65
145	0x1c	28
146	0xf1	-15
147	0xaf	-81
148	0x94	-108
149	0x0e	14
150	0xf9	-7
151	0x01	1
152	0x2c	44
153	0xcb	-53
154	0xea	-22
155	0x30	48
156	0x12	18
157	0x14	20
158	0xbe	-66
159	0x04	4
160	0x1d	29
161	0x0f	15
162	0xe4	-28
163	0x20	32
164	0x04	4
165	0xec	-20
166	0xbc	-68
167	0x2f	47
168	0x81	-127
169	0xef	-17
170	0x0f	15
171	0xbf	-65
172	0xce	-50
173	0xea	-22
174	0xd2	-46
175	0x12	18
176	0x0e	14
177	0xee	-18
178	0xf5	-11
179	0x07	7
180	0x06	6
181	0xd2	-46
182	0x0a	10
183	0xef	-17
184	0x4d	77
185	0x05	5
186	0xfa	-6
187	0xf5	-11
188	0x70	112
189	0x5d	93
190	0x3a	58
191	0xf4	-12
192	0xec	-20
193	0x3f	63
194	0x04	4
195	0xcf	-49
196	0x49	73
197	0xc1	-63
198	0x47	71
199	0x1e	30
200	0x1e	30
201	0xe3	-29
202	0x74	116
203	0xc9	-55
204	0x09	9
205	0x35	53
206	0x35	53
207	0xb3	-77
208	0xb0	-80
209	0xe7	-25
210	0x10	16
211	0xac	-84
212	0xdf	-33
213	0xce	-50
214	0xb0	-80
215	0xe7	-25
216	0x2a	42
217	0xe8	-24
218	0x1a	26
219	0x04	4
220	0x9f	-97
221	0xc7	-57
222	0xe4	-28
223	0x49	73
224	0x5e	94
225	0xfd	-3
226	0x04	4
227	0xd7	-41
228	0x42	66
229	0xbf	-65
230	0xf3	-13
231	0xe6	-26
232	0xe3	-29
233	0xb8	-72
234	0x1f	31
235	0xa4	-92
236	0x29	41
237	0xd8	-40
238	0x68	104
239	0xbf	-65
240	0xd3	-45
241	0x56	86
242	0x4c	76
243	0xc0	-64
244	0x81	-127
245	0x04	4
246	0x4e	78
247	0x01	1
248	0xac	-84
249	0xcd	-51
250	0x87	-121
251	0x03	3
252	0xea	-22
253	0xfa	-6
254	0x01	1
255	0xc7	-57

tfl.pseudo_qconst9 i1 [1, 15, 1, 32]
0	0x16	22
1	0x56	86
2	0x4b	75
3	0x67	103
4	0x81	-127
5	0x81	-127
6	0x7f	127
7	0x81	-127
8	0x6c	108
9	0x81	-127
10	0x3e	62
11	0xf9	-7
12	0x46	70
13	0x81	-127
14	0x81	-127
15	0x34	52
16	0x81	-127
17	0xc2	-62
18	0x22	34
19	0x21	33
20	0x7f	127
21	0x08	8
22	0x7f	127
23	0xfd	-3
24	0x7f	127
25	0x81	-127
26	0x7f	127
27	0x92	-110
28	0x4c	76
29	0x2e	46
30	0x81	-127
31	0x7c	124
32	0x06	6
33	0xf4	-12
34	0x3f	63
35	0x54	84
36	0x99	-103
37	0x9d	-99
38	0x31	49
39	0xa3	-93
40	0x3c	60
41	0xa0	-96
42	0x51	81
43	0x22	34
44	0x7f	127
45	0x88	-120
46	0xa9	-87
47	0xd0	-48
48	0xbd	-67
49	0xfc	-4
50	0x6b	107
51	0x63	99
52	0x76	118
53	0x1f	31
54	0x39	57
55	0xfe	-2
56	0x7b	123
57	0x9a	-102
58	0x63	99
59	0xa4	-92
60	0x2d	45
61	0x1e	30
62	0xcb	-53
63	0x7f	127
64	0x33	51
65	0xd2	-46
66	0x17	23
67	0x58	88
68	0x9c	-100
69	0xa6	-90
70	0x22	34
71	0xb2	-78
72	0x5e	94
73	0xcb	-53
74	0x7f	127
75	0x10	16
76	0x4c	76
77	0xbe	-66
78	0xb4	-76
79	0x81	-127
80	0xb9	-71
81	0xd3	-45
82	0xe5	-27
83	0x53	83
84	0x5b	91
85	0x08	8
86	0x3b	59
87	0x09	9
88	0x30	48
89	0xb0	-80
90	0x44	68
91	0xe4	-28
92	0x3e	62
93	0xe1	-31
94	0x2c	44
95	0x79	121
96	0x06	6
97	0x23	35
98	0x19	25
99	0xe2	-30
100	0xb9	-71
101	0xbe	-66
102	0x63	99
103	0xbd	-67
104	0x45	69
105	0xef	-17
106	0x4b	75
107	0xf9	-7
108	0xee	-18
109	0xc6	-58
110	0xa3	-93
111	0x96	-106
112	0xd1	-47
113	0xdc	-36
114	0x06	6
115	0x7b	123
116	0x49	73
117	0x0d	13
118	0x45	69
119	0xd7	-41
120	0x0b	11
121	0xea	-22
122	0x16	22
123	0xa0	-96
124	0x29	41
125	0x0b	11
126	0x45	69
127	0x37	55
128	0x12	18
129	0x0a	10
130	0x0a	10
131	0xdb	-37
132	0xd9	-39
133	0x1a	26
134	0x53	83
135	0xda	-38
136	0xd5	-43
137	0xfd	-3
138	0x5f	95
139	0x18	24
140	0x1c	28
141	0xbf	-65
142	0xc5	-59
143	0x83	-125
144	0xfb	-5
145	0xf7	-9
146	0xfa	-6
147	0x58	88
148	0x06	6
149	0x11	17
150	0x2f	47
151	0x0a	10
152	0x20	32
153	0xd2	-46
154	0x56	86
155	0x81	-127
156	0x3d	61
157	0xf8	-8
158	0x1b	27
159	0x2c	44
160	0xe6	-26
161	0x1d	29
162	0x42	66
163	0xa1	-95
164	0x05	5
165	0xfe	-2
166	0x4f	79
167	0x08	8
168	0xed	-19
169	0x0a	10
170	0x40	64
171	0x09	9
172	0xfb	-5
173	0xe9	-23
174	0xc8	-56
175	0x84	-124
176	0xe7	-25
177	0xfb	-5
178	0xfa	-6
179	0x7f	127
180	0x12	18
181	0x01	1
182	0x1c	28
183	0x0c	12
184	0x44	68
185	0x09	9
186	0x2a	42
187	0xcf	-49
188	0x18	24
189	0x3e	62
190	0x69	105
191	0x36	54
192	0xc1	-63
193	0x0e	14
194	0x22	34
195	0xd0	-48
196	0x3d	61
197	0xf2	-14
198	0x7a	122
199	0x1c	28
200	0x31	49
201	0xfa	-6
202	0x70	112
203	0x36	54
204	0xbd	-67
205	0xe2	-30
206	0x0a	10
207	0x3c	60
208	0xfc	-4
209	0x05	5
210	0x23	35
211	0x60	96
212	0x51	81
213	0xff	-1
214	0x64	100
215	0x0c	12
216	0x08	8
217	0xeb	-21
218	0x15	21
219	0xb1	-79
220	0x1c	28
221	0x2b	43
222	0x13	19
223	0x02	2
224	0xbe	-66
225	0xce	-50
226	0xfe	-2
227	0x2a	42
228	0x36	54
229	0x09	9
230	0x54	84
231	0x3c	60
232	0x02	2
233	0x0d	13
234	0x50	80
235	0x35	53
236	0x0c	12
237	0xd2	-46
238	0xf1	-15
239	0x64	100
240	0xff	-1
241	0xab	-85
242	0x17	23
243	0x15	21
244	0x6d	109
245	0xfc	-4
246	0x43	67
247	0xef	-17
248	0xc8	-56
249	0xff	-1
250	0x1c	28
251	0x8b	-117
252	0x09	9
253	0x37	55
254	0x18	24
255	0x2b	43

tfl.pseudo_qconst11 i1 [1, 9, 1, 32]
0	0x7f	127
1	0x8d	-115
2	0xbc	-68
3	0x24	36
4	0xf8	-8
5	0x03	3
6	0xdb	-37
7	0x19	25
8	0x42	66
9	0x34	52
10	0x4e	78
11	0x44	68
12	0xb6	-74
13	0xca	-54
14	0x14	20
15	0xf9	-7
16	0x55	85
17	0x1a	26
18	0x7f	127
19	0xb3	-77
20	0xcc	-52
21	0x89	-119
22	0x2b	43
23	0xe6	-26
24	0x81	-127
25	0xa8	-88
26	0x7f	127
27	0x05	5
28	0x00	0
29	0xa3	-93
30	0x50	80
31	0x12	18
32	0x17	23
33	0x92	-110
34	0xec	-20
35	0x16	22
36	0xf7	-9
37	0x22	34
38	0xfb	-5
39	0x29	41
40	0x5b	91
41	0x3a	58
42	0x17	23
43	0xe4	-28
44	0x81	-127
45	0xbd	-67
46	0xf4	-12
47	0x34	52
48	0xf9	-7
49	0x07	7
50	0x57	87
51	0x95	-107
52	0x35	53
53	0x9a	-102
54	0x39	57
55	0xb4	-76
56	0xc5	-59
57	0xf9	-7
58	0x7b	123
59	0x0a	10
60	0xe6	-26
61	0xcb	-53
62	0x13	19
63	0x41	65
64	0xd1	-47
65	0x81	-127
66	0xd3	-45
67	0x37	55
68	0x0f	15
69	0x3f	63
70	0x1e	30
71	0xf7	-9
72	0x47	71
73	0x5c	92
74	0x4c	76
75	0xfd	-3
76	0x81	-127
77	0x4e	78
78	0x7f	127
79	0x70	112
80	0xa3	-93
81	0xe8	-24
82	0x75	117
83	0x81	-127
84	0x58	88
85	0x8a	-118
86	0x0d	13
87	0x93	-109
88	0x90	-112
89	0x81	-127
90	0x4e	78
91	0x60	96
92	0xda	-38
93	0xa7	-89
94	0x0f	15
95	0x58	88
96	0x88	-120
97	0xa3	-93
98	0xfa	-6
99	0xbb	-69
100	0xe3	-29
101	0x23	35
102	0x28	40
103	0xf9	-7
104	0xc9	-55
105	0x62	98
106	0x28	40
107	0xda	-38
108	0xc5	-59
109	0x49	73
110	0x38	56
111	0x3e	62
112	0xdc	-36
113	0x15	21
114	0x70	112
115	0x94	-108
116	0x41	65
117	0x9d	-99
118	0x33	51
119	0xa3	-93
120	0xeb	-21
121	0x9a	-102
122	0x52	82
123	0x40	64
124	0x81	-127
125	0x81	-127
126	0x23	35
127	0x7f	127
128	0xe0	-32
129	0x90	-112
130	0x5a	90
131	0x81	-127
132	0xf2	-14
133	0x08	8
134	0xec	-20
135	0xe1	-31
136	0xda	-38
137	0x22	34
138	0xea	-22
139	0xad	-83
140	0x09	9
141	0x31	49
142	0x43	67
143	0x7f	127
144	0x22	34
145	0xef	-17
146	0x5d	93
147	0xb4	-76
148	0x62	98
149	0x81	-127
150	0xf2	-14
151	0xa4	-92
152	0x9b	-101
153	0xeb	-21
154	0x3e	62
155	0x7f	127
156	0x82	-126
157	0xcd	-51
158	0xc8	-56
159	0x49	73
160	0xed	-19
161	0xb6	-74
162	0x62	98
163	0xc4	-60
164	0xe8	-24
165	0x20	32
166	0xeb	-21
167	0xd6	-42
168	0xe5	-27
169	0x35	53
170	0xeb	-21
171	0x38	56
172	0xe4	-28
173	0xb4	-76
174	0x04	4
175	0xfe	-2
176	0x56	86
177	0x11	17
178	0x77	119
179	0xcc	-52
180	0x7f	127
181	0x8e	-114
182	0x7f	127
183	0xba	-70
184	0xd9	-39
185	0xe4	-28
186	0x0a	10
187	0x3d	61
188	0x8d	-115
189	0xb2	-78
190	0xdd	-35
191	0x5a	90
192	0xd5	-43
193	0xa4	-92
194	0x81	-127
195	0x27	39
196	0xc2	-62
197	0x34	52
198	0xf2	-14
199	0xcc	-52
200	0xcc	-52
201	0x7f	127
202	0xd9	-39
203	0x81	-127
204	0x2c	44
205	0xf8	-8
206	0xb0	-80
207	0xdb	-37
208	0xbb	-69
209	0xdf	-33
210	0xeb	-21
211	0xc4	-60
212	0x54	84
213	0xc1	-63
214	0x40	64
215	0x35	53
216	0xa7	-89
217	0x54	84
218	0xad	-83
219	0xec	-20
220	0xe1	-31
221	0xc0	-64
222	0xa8	-88
223	0x4a	74
224	0x4a	74
225	0xb1	-79
226	0xef	-17
227	0x46	70
228	0xb1	-79
229	0x56	86
230	0x47	71
231	0x93	-109
232	0x38	56
233	0x62	98
234	0xa3	-93
235	0x8c	-116
236	0x07	7
237	0x2e	46
238	0x50	80
239	0xfa	-6
240	0x7f	127
241	0x9a	-102
242	0xfe	-2
243	0x02	2
244	0x52	82
245	0xd8	-40
246	0xe5	-27
247	0x4f	79
248	0xad	-83
249	0x67	103
250	0x3b	59
251	0x2d	45
252	0x8e	-114
253	0xe5	-27
254	0xb7	-73
255	0x70	112

tfl.pseudo_qconst13 i1 [64, 1, 1, 64]
0	0xf0	-16
1	0x13	19
2	0x00	0
3	0xf7	-9
4	0xeb	-21
5	0x78	120
6	0x26	38
7	0xee	-18
8	0xf9	-7
9	0x05	5
10	0x3a	58
11	0x21	33
12	0x3b	59
13	0x96	-106
14	0x08	8
15	0xdb	-37
16	0x01	1
17	0xad	-83
18	0x4b	75
19	0xce	-50
20	0x3c	60
21	0x27	39
22	0x34	52
23	0x67	103
24	0xfe	-2
25	0x16	22
26	0x05	5
27	0xc4	-60
28	0x39	57
29	0xfe	-2
30	0xe5	-27
31	0x1a	26
32	0x61	97
33	0x1b	27
34	0xfa	-6
35	0xb9	-71
36	0x3b	59
37	0xeb	-21
38	0xfa	-6
39	0x28	40
40	0x23	35
41	0xbb	-69
42	0x0b	11
43	0x57	87
44	0xb0	-80
45	0x35	53
46	0xef	-17
47	0xc4	-60
48	0x38	56
49	0x05	5
50	0xd9	-39
51	0x39	57
52	0x15	21
53	0xce	-50
54	0xbb	-69
55	0x21	33
56	0xc3	-61
57	0x25	37
58	0xf5	-11
59	0x38	56
60	0x09	9
61	0x81	-127
62	0x26	38
63	0x21	33
64	0x19	25
65	0x13	19
66	0x99	-103
67	0xc9	-55
68	0xba	-70
69	0xa9	-87
70	0x01	1
71	0xa3	-93
72	0x2b	43
73	0x45	69
74	0xec	-20
75	0x8c	-116
76	0x77	119
77	0xd1	-47
78	0xba	-70
79	0x0d	13
80	0x21	33
81	0x4a	74
82	0x2e	46
83	0xfc	-4
84	0xd1	-47
85	0x3a	58
86	0xb3	-77
87	0x9b	-101
88	0xf8	-8
89	0xe7	-25
90	0xf3	-13
91	0x18	24
92	0x2b	43
93	0xa2	-94
94	0x13	19
95	0xe1	-31
96	0x9e	-98
97	0x25	37
98	0xfb	-5
99	0xef	-17
100	0x39	57
101	0x12	18
102	0x3e	62
103	0x3f	63
104	0x13	19
105	0x05	5
106	0x81	-127
107	0xd5	-43
108	0x2c	44
109	0x2c	44
110	0xe0	-32
111	0x77	119
112	0xf5	-11
113	0xdc	-36
114	0x08	8
115	0xb9	-71
116	0x83	-125
117	0x08	8
118	0xe2	-30
119	0x0a	10
120	0x38	56
121	0xff	-1
122	0xf5	-11
123	0xd5	-43
124	0x28	40
125	0xa7	-89
126	0x1b	27
127	0x19	25
128	0xc3	-61
129	0xd7	-41
130	0xda	-38
131	0xdb	-37
132	0x24	36
133	0x2a	42
134	0x10	16
135	0x06	6
136	0xce	-50
137	0xe5	-27
138	0x6b	107
139	0x12	18
140	0xf3	-13
141	0x76	118
142	0x21	33
143	0xd3	-45
144	0x18	24
145	0xe4	-28
146	0xff	-1
147	0x35	53
148	0x21	33
149	0x18	24
150	0x05	5
151	0xed	-19
152	0xb6	-74
153	0x59	89
154	0x9c	-100
155	0xc8	-56
156	0x64	100
157	0xba	-70
158	0xc9	-55
159	0xd3	-45
160	0xf5	-11
161	0x13	19
162	0xcb	-53
163	0x8e	-114
164	0x92	-110
165	0x48	72
166	0xe7	-25
167	0x4e	78
168	0xa9	-87
169	0x97	-105
170	0x78	120
171	0xfd	-3
172	0x0b	11
173	0xd6	-42
174	0x06	6
175	0x4e	78
176	0x7f	127
177	0xa2	-94
178	0xc4	-60
179	0x1a	26
180	0x19	25
181	0x3d	61
182	0xad	-83
183	0xff	-1
184	0x2e	46
185	0xfc	-4
186	0xe9	-23
187	0x1e	30
188	0xe9	-23
189	0xc1	-63
190	0xe4	-28
191	0x26	38
192	0xd5	-43
193	0xe4	-28
194	0x43	67
195	0x40	64
196	0x2e	46
197	0xdb	-37
198	0x15	21
199	0x11	17
200	0xcd	-51
201	0x47	71
202	0x12	18
203	0x0d	13
204	0xd2	-46
205	0xce	-50
206	0x1d	29
207	0x62	98
208	0xae	-82
209	0x14	20
210	0x07	7
211	0x3b	59
212	0x4e	78
213	0x9a	-102
214	0xed	-19
215	0x08	8
216	0x40	64
217	0x3a	58
218	0xf7	-9
219	0xea	-22
220	0xcf	-49
221	0xab	-85
222	0x1c	28
223	0x81	-127
224	0xfc	-4
225	0xd7	-41
226	0xe7	-25
227	0x1b	27
228	0x2f	47
229	0x0b	11
230	0x00	0
231	0xa1	-95
232	0x9b	-101
233	0x18	24
234	0x12	18
235	0xd3	-45
236	0xf8	-8
237	0xd7	-41
238	0xc8	-56
239	0x1f	31
240	0x40	64
241	0xda	-38
242	0x12	18
243	0x3d	61
244	0xc5	-59
245	0xbb	-69
246	0x22	34
247	0x56	86
248	0xfa	-6
249	0xf4	-12
250	0xfb	-5
251	0xb8	-72
252	0x36	54
253	0xf4	-12
254	0xfd	-3
255	0xb1	-79

tfl.pseudo_qconst15 i1 [1, 11, 1, 32]
0	0x64	100
1	0x81	-127
2	0x06	6
3	0x7f	127
4	0x7f	127
5	0x81	-127
6	0x7e	126
7	0x0f	15
8	0xe4	-28
9	0x56	86
10	0xd8	-40
11	0xe4	-28
12	0x64	100
13	0x59	89
14	0x7d	125
15	0x6d	109
16	0x5e	94
17	0x7f	127
18	0x7f	127
19	0x75	117
20	0x88	-120
21	0x81	-127
22	0x0b	11
23	0xe0	-32
24	0x7f	127
25	0x7f	127
26	0x0c	12
27	0xb8	-72
28	0xb6	-74
29	0xb5	-75
30	0x23	35
31	0x17	23
32	0x76	118
33	0xbd	-67
34	0xfd	-3
35	0x6f	111
36	0x5e	94
37	0x9c	-100
38	0x7f	127
39	0xea	-22
40	0xf5	-11
41	0x40	64
42	0xbf	-65
43	0xa9	-87
44	0x3e	62
45	0x7f	127
46	0x6e	110
47	0x2e	46
48	0x7f	127
49	0x40	64
50	0x42	66
51	0x56	86
52	0xe5	-27
53	0xbc	-68
54	0xe0	-32
55	0xd7	-41
56	0x5c	92
57	0x30	48
58	0x75	117
59	0x9e	-98
60	0xaf	-81
61	0xc5	-59
62	0x0b	11
63	0x0c	12
64	0x7f	127
65	0xd2	-46
66	0xc8	-56
67	0x25	37
68	0x2d	45
69	0xf4	-12
70	0x4d	77
71	0xee	-18
72	0xc9	-55
73	0x1a	26
74	0xdb	-37
75	0x35	53
76	0xfc	-4
77	0x67	103
78	0x32	50
79	0x02	2
80	0x60	96
81	0x10	16
82	0x21	33
83	0x5b	91
84	0xf9	-7
85	0x93	-109
86	0x9e	-98
87	0xf0	-16
88	0x42	66
89	0x07	7
90	0x47	71
91	0x89	-119
92	0xba	-70
93	0xd4	-44
94	0xf7	-9
95	0x03	3
96	0x3c	60
97	0xbf	-65
98	0x94	-108
99	0x1d	29
100	0xf1	-15
101	0x94	-108
102	0x2f	47
103	0xdd	-35
104	0xe0	-32
105	0x45	69
106	0x7f	127
107	0x4c	76
108	0xb2	-78
109	0x49	73
110	0x11	17
111	0x98	-104
112	0x2a	42
113	0xf7	-9
114	0xe0	-32
115	0x16	22
116	0x42	66
117	0xe0	-32
118	0xe4	-28
119	0x20	32
120	0x0c	12
121	0xd2	-46
122	0x76	118
123	0xd5	-43
124	0xe5	-27
125	0xde	-34
126	0x34	52
127	0xc1	-63
128	0x38	56
129	0xd5	-43
130	0xf9	-7
131	0xed	-19
132	0xd0	-48
133	0xea	-22
134	0x11	17
135	0xd5	-43
136	0xf7	-9
137	0x65	101
138	0x6d	109
139	0x3f	63
140	0xbe	-66
141	0x30	48
142	0x30	48
143	0x81	-127
144	0xf5	-11
145	0xfe	-2
146	0xf3	-13
147	0x5c	92
148	0x7f	127
149	0xc8	-56
150	0x4a	74
151	0x19	25
152	0x0c	12
153	0xb0	-80
154	0x77	119
155	0xa3	-93
156	0xf8	-8
157	0xef	-17
158	0x40	64
159	0x81	-127
160	0xe8	-24
161	0x37	55
162	0x03	3
163	0xab	-85
164	0xe1	-31
165	0x9f	-97
166	0xff	-1
167	0xf6	-10
168	0x39	57
169	0x67	103
170	0x13	19
171	0x3c	60
172	0x1e	30
173	0x09	9
174	0x0d	13
175	0xe1	-31
176	0xca	-54
177	0xf9	-7
178	0x54	84
179	0x7f	127
180	0x7f	127
181	0x07	7
182	0x7f	127
183	0x57	87
184	0x26	38
185	0xab	-85
186	0x5b	91
187	0xeb	-21
188	0xb8	-72
189	0x66	102
190	0x1e	30
191	0x8b	-117
192	0x2b	43
193	0x00	0
194	0x2f	47
195	0xf2	-14
196	0x1c	28
197	0xbb	-69
198	0xfd	-3
199	0x81	-127
200	0x51	81
201	0xf3	-13
202	0xb3	-77
203	0x3a	58
204	0x30	48
205	0x37	55
206	0x25	37
207	0x12	18
208	0x84	-124
209	0x39	57
210	0x34	52
211	0x09	9
212	0x73	115
213	0x04	4
214	0x41	65
215	0x7f	127
216	0x26	38
217	0xe0	-32
218	0x1c	28
219	0x3a	58
220	0x2e	46
221	0x7f	127
222	0x43	67
223	0x09	9
224	0xf1	-15
225	0x4d	77
226	0x7f	127
227	0xf5	-11
228	0x10	16
229	0x3c	60
230	0x9e	-98
231	0x86	-122
232	0x36	54
233	0xc2	-62
234	0x8d	-115
235	0xb4	-76
236	0x1c	28
237	0xf7	-9
238	0x35	53
239	0xe7	-25
240	0xcc	-52
241	0x51	81
242	0x0e	14
243	0xd7	-41
244	0x18	24
245	0x1b	27
246	0x63	99
247	0x79	121
248	0x25	37
249	0x23	35
250	0x20	32
251	0x6f	111
252	0x1f	31
253	0x4c	76
254	0xff	-1
255	0x48	72

tfl.pseudo_qconst17 i1 [1, 7, 1, 32]
0	0xde	-34
1	0xa5	-91
2	0x4b	75
3	0xdc	-36
4	0x7f	127
5	0x7f	127
6	0xde	-34
7	0x06	6
8	0xcc	-52
9	0x49	73
10	0x0b	11
11	0x79	121
12	0xac	-84
13	0x42	66
14	0x49	73
15	0xe1	-31
16	0x7f	127
17	0x90	-112
18	0x20	32
19	0x1e	30
20	0xbb	-69
21	0x21	33
22	0xf3	-13
23	0xa4	-92
24	0x7f	127
25	0x3b	59
26	0x22	34
27	0x20	32
28	0x09	9
29	0x3d	61
30	0xfc	-4
31	0x7f	127
32	0xf2	-14
33	0xe3	-29
34	0x40	64
35	0xf4	-12
36	0x69	105
37	0x26	38
38	0x8d	-115
39	0x50	80
40	0xcc	-52
41	0x76	118
42	0xeb	-21
43	0x5d	93
44	0x21	33
45	0xcd	-51
46	0x0e	14
47	0x29	41
48	0x69	105
49	0x81	-127
50	0xf5	-11
51	0x55	85
52	0x2c	44
53	0x01	1
54	0x32	50
55	0x33	51
56	0x43	67
57	0x19	25
58	0x00	0
59	0xf6	-10
60	0xa3	-93
61	0xf6	-10
62	0x81	-127
63	0x72	114
64	0xc8	-56
65	0xc5	-59
66	0x3d	61
67	0x0d	13
68	0x11	17
69	0xbe	-66
70	0x99	-103
71	0x75	117
72	0xda	-38
73	0x47	71
74	0x0e	14
75	0x16	22
76	0xff	-1
77	0xc9	-55
78	0xf0	-16
79	0xe1	-31
80	0x86	-122
81	0xfd	-3
82	0x2c	44
83	0x38	56
84	0xe1	-31
85	0x81	-127
86	0x77	119
87	0x7f	127
88	0x4c	76
89	0x46	70
90	0x00	0
91	0x34	52
92	0xb2	-78
93	0x19	25
94	0x29	41
95	0x32	50
96	0xa7	-89
97	0x13	19
98	0xea	-22
99	0x18	24
100	0xb1	-79
101	0xe7	-25
102	0xa2	-94
103	0x6d	109
104	0x39	57
105	0x5d	93
106	0x0e	14
107	0xdf	-33
108	0x12	18
109	0x81	-127
110	0xc6	-58
111	0xbc	-68
112	0x83	-125
113	0x2f	47
114	0x70	112
115	0x1f	31
116	0x8d	-115
117	0x92	-110
118	0x78	120
119	0x4e	78
120	0x7e	126
121	0xf5	-11
122	0x79	121
123	0x68	104
124	0x81	-127
125	0xec	-20
126	0x49	73
127	0x29	41
128	0xc3	-61
129	0x3f	63
130	0xf1	-15
131	0xea	-22
132	0xe3	-29
133	0xe6	-26
134	0xef	-17
135	0xc4	-60
136	0x4f	79
137	0x7f	127
138	0x5c	92
139	0xde	-34
140	0x27	39
141	0xbb	-69
142	0x81	-127
143	0xab	-85
144	0x79	121
145	0x18	24
146	0x5d	93
147	0x95	-107
148	0x83	-125
149	0x0a	10
150	0x7f	127
151	0x2a	42
152	0xb0	-80
153	0x0b	11
154	0x7f	127
155	0x1c	28
156	0x8c	-116
157	0xcc	-52
158	0x39	57
159	0x0f	15
160	0x2b	43
161	0x4f	79
162	0x81	-127
163	0xca	-54
164	0xdd	-35
165	0x0b	11
166	0xe5	-27
167	0xca	-54
168	0x64	100
169	0x31	49
170	0x5e	94
171	0xa5	-91
172	0x81	-127
173	0xdd	-35
174	0xa3	-93
175	0x8b	-117
176	0x56	86
177	0xfc	-4
178	0x7f	127
179	0x81	-127
180	0x81	-127
181	0x53	83
182	0xb1	-79
183	0x9c	-100
184	0x2e	46
185	0xe4	-28
186	0x46	70
187	0x48	72
188	0x1b	27
189	0xcb	-53
190	0x8c	-116
191	0x11	17
192	0x7f	127
193	0x7f	127
194	0x93	-109
195	0x81	-127
196	0xce	-50
197	0x9c	-100
198	0x81	-127
199	0x81	-127
200	0x7f	127
201	0xf6	-10
202	0x7f	127
203	0x81	-127
204	0x85	-123
205	0xbb	-69
206	0x31	49
207	0x81	-127
208	0x8c	-116
209	0xd7	-41
210	0x76	118
211	0x8c	-116
212	0x82	-126
213	0x3b	59
214	0x9a	-102
215	0x12	18
216	0xa4	-92
217	0x81	-127
218	0x7a	122
219	0x7f	127
220	0x1d	29
221	0x81	-127
222	0x14	20
223	0xff	-1

tfl.pseudo_qconst19 i1 [64, 1, 1, 32]
0	0x16	22
1	0x0e	14
2	0xd8	-40
3	0x0c	12
4	0x24	36
5	0x2b	43
6	0x05	5
7	0x11	17
8	0x28	40
9	0xf6	-10
10	0xbb	-69
11	0xf3	-13
12	0x39	57
13	0xf4	-12
14	0x06	6
15	0x25	37
16	0xf3	-13
17	0x9f	-97
18	0x1d	29
19	0x1b	27
20	0x81	-127
21	0x40	64
22	0x27	39
23	0xa1	-95
24	0xe1	-31
25	0xd8	-40
26	0xc6	-58
27	0xdd	-35
28	0x17	23
29	0xe4	-28
30	0x41	65
31	0xd4	-44
32	0x81	-127
33	0xfb	-5
34	0x25	37
35	0x19	25
36	0xee	-18
37	0xea	-22
38	0x49	73
39	0x06	6
40	0x39	57
41	0xe5	-27
42	0xbe	-66
43	0xd8	-40
44	0x1d	29
45	0x24	36
46	0x13	19
47	0xd6	-42
48	0xe5	-27
49	0x10	16
50	0xeb	-21
51	0x75	117
52	0xbc	-68
53	0x2d	45
54	0xe4	-28
55	0x21	33
56	0x0c	12
57	0x43	67
58	0xef	-17
59	0xb0	-80
60	0xff	-1
61	0xa1	-95
62	0x13	19
63	0x0b	11
64	0xfa	-6
65	0x1c	28
66	0x19	25
67	0x4c	76
68	0x2b	43
69	0xa9	-87
70	0x7f	127
71	0xdd	-35
72	0xd2	-46
73	0x35	53
74	0xab	-85
75	0xc6	-58
76	0x27	39
77	0x05	5
78	0x38	56
79	0xb5	-75
80	0xd8	-40
81	0xc3	-61
82	0xf0	-16
83	0xc9	-55
84	0xbc	-68
85	0xae	-82
86	0xf7	-9
87	0x19	25
88	0x06	6
89	0x4d	77
90	0xf8	-8
91	0xc8	-56
92	0x16	22
93	0xfe	-2
94	0xdb	-37
95	0xac	-84
96	0x14	20
97	0x7f	127
98	0xdd	-35
99	0xf2	-14
100	0x0f	15
101	0xc4	-60
102	0x07	7
103	0xbd	-67
104	0x75	117
105	0x6b	107
106	0xe4	-28
107	0x48	72
108	0x6e	110
109	0x74	116
110	0xe7	-25
111	0x0b	11
112	0xb3	-77
113	0xcb	-53
114	0x27	39
115	0xcf	-49
116	0xfc	-4
117	0xfe	-2
118	0x5f	95
119	0xc2	-62
120	0xe6	-26
121	0x01	1
122	0x0d	13
123	0x40	64
124	0x30	48
125	0x7c	124
126	0xfa	-6
127	0xd6	-42
128	0x0b	11
129	0x75	117
130	0x56	86
131	0xe1	-31
132	0x1e	30
133	0x64	100
134	0x2e	46
135	0xf7	-9
136	0xcd	-51
137	0x40	64
138	0x50	80
139	0xd7	-41
140	0x47	71
141	0x09	9
142	0xbf	-65
143	0x68	104
144	0xa2	-94
145	0xbc	-68
146	0x55	85
147	0x3d	61
148	0xdb	-37
149	0xf9	-7
150	0xae	-82
151	0xc7	-57
152	0x4c	76
153	0xe5	-27
154	0xae	-82
155	0x57	87
156	0x81	-127
157	0xe5	-27
158	0xad	-83
159	0x23	35
160	0x1c	28
161	0xdc	-36
162	0xcb	-53
163	0xbe	-66
164	0x5a	90
165	0x29	41
166	0xd6	-42
167	0xed	-19
168	0x79	121
169	0x31	49
170	0x75	117
171	0x00	0
172	0xcf	-49
173	0xf7	-9
174	0x27	39
175	0xc8	-56
176	0xfa	-6
177	0x7f	127
178	0x49	73
179	0xe9	-23
180	0xd9	-39
181	0xf4	-12
182	0x53	83
183	0xab	-85
184	0xd4	-44
185	0x43	67
186	0xec	-20
187	0x66	102
188	0x4e	78
189	0x4c	76
190	0x06	6
191	0x27	39
192	0x02	2
193	0x45	69
194	0xfe	-2
195	0xfc	-4
196	0xb0	-80
197	0xd5	-43
198	0xdb	-37
199	0xdf	-33
200	0x4c	76
201	0x35	53
202	0xe1	-31
203	0xcf	-49
204	0x12	18
205	0xf4	-12
206	0xad	-83
207	0xe8	-24
208	0xbb	-69
209	0xd5	-43
210	0xc4	-60
211	0x32	50
212	0x13	19
213	0x33	51
214	0xf4	-12
215	0x43	67
216	0xd2	-46
217	0x7a	122
218	0x31	49
219	0x2a	42
220	0x08	8
221	0x7f	127
222	0x29	41
223	0xc2	-62
224	0x10	16
225	0x3f	63
226	0x28	40
227	0x13	19
228	0x37	55
229	0xdc	-36
230	0xa6	-90
231	0xb9	-71
232	0x4a	74
233	0xb1	-79
234	0x11	17
235	0x4e	78
236	0xd8	-40
237	0x2b	43
238	0xbb	-69
239	0xf1	-15
240	0x23	35
241	0xde	-34
242	0xc1	-63
243	0x31	49
244	0x0b	11
245	0xd9	-39
246	0xfb	-5
247	0xe9	-23
248	0x1f	31
249	0x50	80
250	0xc4	-60
251	0xbb	-69
252	0x9c	-100
253	0xc9	-55
254	0x7f	127
255	0x3a	58

tfl.pseudo_qconst21 i1 [1, 5, 1, 32]
0	0xa5	-91
1	0x7f	127
2	0x81	-127
3	0x42	66
4	0x88	-120
5	0x81	-127
6	0xb4	-76
7	0xa6	-90
8	0xf2	-14
9	0x7f	127
10	0x81	-127
11	0xd2	-46
12	0xb3	-77
13	0x44	68
14	0x3d	61
15	0x7c	124
16	0xab	-85
17	0xd5	-43
18	0xe9	-23
19	0x7f	127
20	0xec	-20
21	0x70	112
22	0x9d	-99
23	0x00	0
24	0xab	-85
25	0x26	38
26	0xe7	-25
27	0x28	40
28	0x81	-127
29	0xc6	-58
30	0x81	-127
31	0xd2	-46
32	0x81	-127
33	0x11	17
34	0x78	120
35	0x57	87
36	0xb2	-78
37	0xe5	-27
38	0x63	99
39	0x81	-127
40	0xe7	-25
41	0x71	113
42	0xd9	-39
43	0xf9	-7
44	0xd7	-41
45	0x61	97
46	0x63	99
47	0x66	102
48	0x10	16
49	0xde	-34
50	0x05	5
51	0x7a	122
52	0x0a	10
53	0x21	33
54	0x11	17
55	0x74	116
56	0x17	23
57	0xdd	-35
58	0xa4	-92
59	0x6e	110
60	0xe0	-32
61	0xa9	-87
62	0xc9	-55
63	0xee	-18
64	0xef	-17
65	0x48	72
66	0x64	100
67	0x1f	31
68	0x81	-127
69	0x23	35
70	0x5a	90
71	0xa8	-88
72	0xa6	-90
73	0x69	105
74	0xd5	-43
75	0x92	-110
76	0xd2	-46
77	0x81	-127
78	0x50	80
79	0x75	117
80	0xc8	-56
81	0xa3	-93
82	0x93	-109
83	0x4a	74
84	0xea	-22
85	0xa9	-87
86	0xc2	-62
87	0xf7	-9
88	0x66	102
89	0xed	-19
90	0x62	98
91	0xc9	-55
92	0xd2	-46
93	0x81	-127
94	0xbc	-68
95	0xda	-38
96	0xe6	-26
97	0x58	88
98	0xdf	-33
99	0x81	-127
100	0xcb	-53
101	0x54	84
102	0xe1	-31
103	0xaa	-86
104	0x81	-127
105	0x57	87
106	0x26	38
107	0x81	-127
108	0xe2	-30
109	0x08	8
110	0x7f	127
111	0x52	82
112	0x5d	93
113	0x34	52
114	0x81	-127
115	0x15	21
116	0xbd	-67
117	0x99	-103
118	0x69	105
119	0x81	-127
120	0x06	6
121	0xb8	-72
122	0x7f	127
123	0x81	-127
124	0xef	-17
125	0x09	9
126	0x62	98
127	0x05	5
128	0x2d	45
129	0xb1	-79
130	0x8e	-114
131	0xda	-38
132	0xb0	-80
133	0x01	1
134	0x81	-127
135	0xcb	-53
136	0x96	-106
137	0x48	72
138	0x3c	60
139	0x16	22
140	0x81	-127
141	0xaf	-81
142	0x72	114
143	0x7f	127
144	0x7f	127
145	0x7f	127
146	0xda	-38
147	0xb8	-72
148	0x81	-127
149	0x7f	127
150	0x81	-127
151	0x24	36
152	0x81	-127
153	0x81	-127
154	0xca	-54
155	0x9d	-99
156	0xe4	-28
157	0x8a	-118
158	0x64	100
159	0x7f	127

tfl.pseudo_qconst23 i1 [32, 5, 1, 40]
0	0x03	3
1	0xde	-34
2	0xd2	-46
3	0xb2	-78
4	0x02	2
5	0xfd	-3
6	0x28	40
7	0x4c	76
8	0x48	72
9	0x77	119
10	0x7f	127
11	0x3d	61
12	0x27	39
13	0x2a	42
14	0x0e	14
15	0x40	64
16	0x38	56
17	0x76	118
18	0x23	35
19	0x1d	29
20	0x0a	10
21	0xca	-54
22	0xe3	-29
23	0xd5	-43
24	0x04	4
25	0xe2	-30
26	0xe9	-23
27	0xed	-19
28	0x48	72
29	0x26	38
30	0xfc	-4
31	0xe0	-32
32	0x0d	13
33	0xf4	-12
34	0xef	-17
35	0x19	25
36	0xf9	-7
37	0x1e	30
38	0xf1	-15
39	0xd0	-48
40	0xef	-17
41	0xe4	-28
42	0xed	-19
43	0xba	-70
44	0xf7	-9
45	0x15	21
46	0x21	33
47	0x52	82
48	0x61	97
49	0x71	113
50	0x74	116
51	0x3a	58
52	0x52	82
53	0x3a	58
54	0x29	41
55	0x4a	74
56	0x21	33
57	0x7b	123
58	0x36	54
59	0x1f	31
60	0x04	4
61	0xc6	-58
62	0xcb	-53
63	0xbc	-68
64	0xff	-1
65	0xc8	-56
66	0xe6	-26
67	0xdc	-36
68	0x0c	12
69	0x12	18
70	0x2f	47
71	0xeb	-21
72	0xf7	-9
73	0xd4	-44
74	0xf8	-8
75	0x00	0
76	0x0e	14
77	0x15	21
78	0xe0	-32
79	0xe2	-30
80	0xe4	-28
81	0x14	20
82	0x01	1
83	0xd7	-41
84	0xf7	-9
85	0xe7	-25
86	0x3d	61
87	0x77	119
88	0x4e	78
89	0x50	80
90	0x3f	63
91	0x21	33
92	0x3e	62
93	0x44	68
94	0x3b	59
95	0x60	96
96	0x39	57
97	0x6d	109
98	0x18	24
99	0xe9	-23
100	0xea	-22
101	0xe2	-30
102	0xc2	-62
103	0xbd	-67
104	0x14	20
105	0xd0	-48
106	0xe3	-29
107	0xdc	-36
108	0x05	5
109	0x09	9
110	0xe3	-29
111	0xfc	-4
112	0x06	6
113	0x16	22
114	0x17	23
115	0x11	17
116	0xe9	-23
117	0x29	41
118	0xd0	-48
119	0x05	5
120	0xf4	-12
121	0xf7	-9
122	0x06	6
123	0xd8	-40
124	0xe5	-27
125	0xb5	-75
126	0x09	9
127	0x3a	58
128	0x3a	58
129	0x41	65
130	0x34	52
131	0x09	9
132	0x45	69
133	0x12	18
134	0x08	8
135	0x3b	59
136	0x4b	75
137	0x69	105
138	0x37	55
139	0xdc	-36
140	0xfd	-3
141	0xf0	-16
142	0x01	1
143	0xdb	-37
144	0x16	22
145	0xaf	-81
146	0xf3	-13
147	0xbc	-68
148	0x02	2
149	0x0a	10
150	0x01	1
151	0xf2	-14
152	0xf1	-15
153	0xef	-17
154	0x02	2
155	0x11	17
156	0xf2	-14
157	0x30	48
158	0x01	1
159	0xdd	-35
160	0xb9	-71
161	0xbf	-65
162	0xdc	-36
163	0xc3	-61
164	0xb5	-75
165	0xbb	-69
166	0x20	32
167	0x1e	30
168	0x49	73
169	0xec	-20
170	0x2b	43
171	0x01	1
172	0x34	52
173	0x1b	27
174	0xfe	-2
175	0x1d	29
176	0x18	24
177	0x39	57
178	0x1c	28
179	0xd6	-42
180	0xdc	-36
181	0xcc	-52
182	0xe9	-23
183	0xb2	-78
184	0x0e	14
185	0xa9	-87
186	0xfa	-6
187	0xd4	-44
188	0x07	7
189	0xf8	-8
190	0xe6	-26
191	0xe3	-29
192	0xff	-1
193	0xd8	-40
194	0x1f	31
195	0x10	16
196	0x22	34
197	0x12	18
198	0xf5	-11
199	0xcf	-49
200	0x3e	62
201	0xf8	-8
202	0x14	20
203	0x0a	10
204	0x3b	59
205	0x29	41
206	0x31	49
207	0x07	7
208	0x34	52
209	0x25	37
210	0xfd	-3
211	0xf8	-8
212	0xfc	-4
213	0xc8	-56
214	0xef	-17
215	0x17	23
216	0x38	56
217	0xcb	-53
218	0x00	0
219	0xca	-54
220	0xd1	-47
221	0x07	7
222	0x0b	11
223	0xba	-70
224	0x02	2
225	0xe3	-29
226	0xab	-85
227	0x94	-108
228	0xa1	-95
229	0xbb	-69
230	0xae	-82
231	0xf2	-14
232	0x15	21
233	0xce	-50
234	0xd3	-45
235	0xdb	-37
236	0xdb	-37
237	0xf7	-9
238	0x1b	27
239	0x73	115
240	0x20	32
241	0xf4	-12
242	0x14	20
243	0x25	37
244	0x43	67
245	0x27	39
246	0x22	34
247	0xe0	-32
248	0x3b	59
249	0x21	33
250	0xfe	-2
251	0xf0	-16
252	0xf5	-11
253	0x9b	-101
254	0xe1	-31
255	0xeb	-21

tfl.pseudo_qconst24 i1 [1, 22, 1, 64] scale=0.03262361 zero_point=-128
0	0x80	0.0
1	0x80	0.0
2	0x80	0.0
3	0x80	0.0
4	0x80	0.0
5	0x80	0.0
6	0x80	0.0
7	0x80	0.0
8	0x80	0.0
9	0x80	0.0
10	0x80	0.0
11	0x80	0.0
12	0x80	0.0
13	0x80	0.0
14	0x80	0.0
15	0x80	0.0
16	0x80	0.0
17	0x80	0.0
18	0x80	0.0
19	0x80	0.0
20	0x80	0.0
21	0x80	0.0
22	0x80	0.0
23	0x80	0.0
24	0x80	0.0
25	0x80	0.0
26	0x80	0.0
27	0x80	0.0
28	0x80	0.0
29	0x80	0.0
30	0x80	0.0
31	0x80	0.0
32	0x80	0.0
33	0x80	0.0
34	0x80	0.0
35	0x80	0.0
36	0x80	0.0
37	0x80	0.0
38	0x80	0.0
39	0x80	0.0
40	0x80	0.0
41	0x80	0.0
42	0x80	0.0
43	0x80	0.0
44	0x80	0.0
45	0x80	0.0
46	0x80	0.0
47	0x80	0.0
48	0x80	0.0
49	0x80	0.0
50	0x80	0.0
51	0x80	0.0
52	0x80	0.0
53	0x80	0.0
54	0x80	0.0
55	0x80	0.0
56	0x80	0.0
57	0x80	0.0
58	0x80	0.0
59	0x80	0.0
60	0x80	0.0
61	0x80	0.0
62	0x80	0.0
63	0x80	0.0
64	0x80	0.0
65	0x80	0.0
66	0x80	0.0
67	0x80	0.0
68	0x80	0.0
69	0x80	0.0
70	0x80	0.0
71	0x80	0.0
72	0x80	0.0
73	0x80	0.0
74	0x80	0.0
75	0x80	0.0
76	0x80	0.0
77	0x80	0.0
78	0x80	0.0
79	0x80	0.0
80	0x80	0.0
81	0x80	0.0
82	0x80	0.0
83	0x80	0.0
84	0x80	0.0
85	0x80	0.0
86	0x80	0.0
87	0x80	0.0
88	0x80	0.0
89	0x80	0.0
90	0x80	0.0
91	0x80	0.0
92	0x80	0.0
93	0x80	0.0
94	0x80	0.0
95	0x80	0.0
96	0x80	0.0
97	0x80	0.0
98	0x80	0.0
99	0x80	0.0
100	0x80	0.0
101	0x80	0.0
102	0x80	0.0
103	0x80	0.0
104	0x80	0.0
105	0x80	0.0
106	0x80	0.0
107	0x80	0.0
108	0x80	0.0
109	0x80	0.0
110	0x80	0.0
111	0x80	0.0
112	0x80	0.0
113	0x80	0.0
114	0x80	0.0
115	0x80	0.0
116	0x80	0.0
117	0x80	0.0
118	0x80	0.0
119	0x80	0.0
120	0x80	0.0
121	0x80	0.0
122	0x80	0.0
123	0x80	0.0
124	0x80	0.0
125	0x80	0.0
126	0x80	0.0
127	0x80	0.0
128	0x80	0.0
129	0x80	0.0
130	0x80	0.0
131	0x80	0.0
132	0x80	0.0
133	0x80	0.0
134	0x80	0.0
135	0x80	0.0
136	0x80	0.0
137	0x80	0.0
138	0x80	0.0
139	0x80	0.0
140	0x80	0.0
141	0x80	0.0
142	0x80	0.0
143	0x80	0.0
144	0x80	0.0
145	0x80	0.0
146	0x80	0.0
147	0x80	0.0
148	0x80	0.0
149	0x80	0.0
150	0x80	0.0
151	0x80	0.0
152	0x80	0.0
153	0x80	0.0
154	0x80	0.0
155	0x80	0.0
156	0x80	0.0
157	0x80	0.0
158	0x80	0.0
159	0x80	0.0
160	0x80	0.0
161	0x80	0.0
162	0x80	0.0
163	0x80	0.0
164	0x80	0.0
165	0x80	0.0
166	0x80	0.0
167	0x80	0.0
168	0x80	0.0
169	0x80	0.0
170	0x80	0.0
171	0x80	0.0
172	0x80	0.0
173	0x80	0.0
174	0x80	0.0
175	0x80	0.0
176	0x80	0.0
177	0x80	0.0
178	0x80	0.0
179	0x80	0.0
180	0x80	0.0
181	0x80	0.0
182	0x80	0.0
183	0x80	0.0
184	0x80	0.0
185	0x80	0.0
186	0x80	0.0
187	0x80	0.0
188	0x80	0.0
189	0x80	0.0
190	0x80	0.0
191	0x80	0.0
192	0x80	0.0
193	0x80	0.0
194	0x80	0.0
195	0x80	0.0
196	0x80	0.0
197	0x80	0.0
198	0x80	0.0
199	0x80	0.0
200	0x80	0.0
201	0x80	0.0
202	0x80	0.0
203	0x80	0.0
204	0x80	0.0
205	0x80	0.0
206	0x80	0.0
207	0x80	0.0
208	0x80	0.0
209	0x80	0.0
210	0x80	0.0
211	0x80	0.0
212	0x80	0.0
213	0x80	0.0
214	0x80	0.0
215	0x80	0.0
216	0x80	0.0
217	0x80	0.0
218	0x80	0.0
219	0x80	0.0
220	0x80	0.0
221	0x80	0.0
222	0x80	0.0
223	0x80	0.0
224	0x80	0.0
225	0x80	0.0
226	0x80	0.0
227	0x80	0.0
228	0x80	0.0
229	0x80	0.0
230	0x80	0.0
231	0x80	0.0
232	0x80	0.0
233	0x80	0.0
234	0x80	0.0
235	0x80	0.0
236	0x80	0.0
237	0x80	0.0
238	0x80	0.0
239	0x80	0.0
240	0x80	0.0
241	0x80	0.0
242	0x80	0.0
243	0x80	0.0
244	0x80	0.0
245	0x80	0.0
246	0x80	0.0
247	0x80	0.0
248	0x80	0.0
249	0x80	0.0
250	0x80	0.0
251	0x80	0.0
252	0x80	0.0
253	0x80	0.0
254	0x80	0.0
255	0x80	0.0

tfl.pseudo_qconst25 i1 [1, 36, 1, 64] scale=0.021761201 zero_point=-128
0	0x80	0.0
1	0x80	0.0
2	0x80	0.0
3	0x80	0.0
4	0x80	0.0
5	0x80	0.0
6	0x80	0.0
7	0x80	0.0
8	0x80	0.0
9	0x80	0.0
10	0x80	0.0
11	0x80	0.0
12	0x80	0.0
13	0x80	0.0
14	0x80	0.0
15	0x80	0.0
16	0x80	0.0
17	0x80	0.0
18	0x80	0.0
19	0x80	0.0
20	0x80	0.0
21	0x80	0.0
22	0x80	0.0
23	0x80	0.0
24	0x80	0.0
25	0x80	0.0
26	0x80	0.0
27	0x80	0.0
28	0x80	0.0
29	0x80	0.0
30	0x80	0.0
31	0x80	0.0
32	0x80	0.0
33	0x80	0.0
34	0x80	0.0
35	0x80	0.0
36	0x80	0.0
37	0x80	0.0
38	0x80	0.0
39	0x80	0.0
40	0x80	0.0
41	0x80	0.0
42	0x80	0.0
43	0x80	0.0
44	0x80	0.0
45	0x80	0.0
46	0x80	0.0
47	0x80	0.0
48	0x80	0.0
49	0x80	0.0
50	0x80	0.0
51	0x80	0.0
52	0x80	0.0
53	0x80	0.0
54	0x80	0.0
55	0x80	0.0
56	0x80	0.0
57	0x80	0.0
58	0x80	0.0
59	0x80	0.0
60	0x80	0.0
61	0x80	0.0
62	0x80	0.0
63	0x80	0.0
64	0x80	0.0
65	0x80	0.0
66	0x80	0.0
67	0x80	0.0
68	0x80	0.0
69	0x80	0.0
70	0x80	0.0
71	0x80	0.0
72	0x80	0.0
73	0x80	0.0
74	0x80	0.0
75	0x80	0.0
76	0x80	0.0
77	0x80	0.0
78	0x80	0.0
79	0x80	0.0
80	0x80	0.0
81	0x80	0.0
82	0x80	0.0
83	0x80	0.0
84	0x80	0.0
85	0x80	0.0
86	0x80	0.0
87	0x80	0.0
88	0x80	0.0
89	0x80	0.0
90	0x80	0.0
91	0x80	0.0
92	0x80	0.0
93	0x80	0.0
94	0x80	0.0
95	0x80	0.0
96	0x80	0.0
97	0x80	0.0
98	0x80	0.0
99	0x80	0.0
100	0x80	0.0
101	0x80	0.0
102	0x80	0.0
103	0x80	0.0
104	0x80	0.0
105	0x80	0.0
106	0x80	0.0
107	0x80	0.0
108	0x80	0.0
109	0x80	0.0
110	0x80	0.0
111	0x80	0.0
112	0x80	0.0
113	0x80	0.0
114	0x80	0.0
115	0x80	0.0
116	0x80	0.0
117	0x80	0.0
118	0x80	0.0
119	0x80	0.0
120	0x80	0.0
121	0x80	0.0
122	0x80	0.0
123	0x80	0.0
124	0x80	0.0
125	0x80	0.0
126	0x80	0.0
127	0x80	0.0
128	0x80	0.0
129	0x80	0.0
130	0x80	0.0
131	0x80	0.0
132	0x80	0.0
133	0x80	0.0
134	0x80	0.0
135	0x80	0.0
136	0x80	0.0
137	0x80	0.0
138	0x80	0.0
139	0x80	0.0
140	0x80	0.0
141	0x80	0.0
142	0x80	0.0
143	0x80	0.0
144	0x80	0.0
145	0x80	0.0
146	0x80	0.0
147	0x80	0.0
148	0x80	0.0
149	0x80	0.0
150	0x80	0.0
151	0x80	0.0
152	0x80	0.0
153	0x80	0.0
154	0x80	0.0
155	0x80	0.0
156	0x80	0.0
157	0x80	0.0
158	0x80	0.0
159	0x80	0.0
160	0x80	0.0
161	0x80	0.0
162	0x80	0.0
163	0x80	0.0
164	0x80	0.0
165	0x80	0.0
166	0x80	0.0
167	0x80	0.0
168	0x80	0.0
169	0x80	0.0
170	0x80	0.0
171	0x80	0.0
172	0x80	0.0
173	0x80	0.0
174	0x80	0.0
175	0x80	0.0
176	0x80	0.0
177	0x80	0.0
178	0x80	0.0
179	0x80	0.0
180	0x80	0.0
181	0x80	0.0
182	0x80	0.0
183	0x80	0.0
184	0x80	0.0
185	0x80	0.0
186	0x80	0.0
187	0x80	0.0
188	0x80	0.0
189	0x80	0.0
190	0x80	0.0
191	0x80	0.0
192	0x80	0.0
193	0x80	0.0
194	0x80	0.0
195	0x80	0.0
196	0x80	0.0
197	0x80	0.0
198	0x80	0.0
199	0x80	0.0
200	0x80	0.0
201	0x80	0.0
202	0x80	0.0
203	0x80	0.0
204	0x80	0.0
205	0x80	0.0
206	0x80	0.0
207	0x80	0.0
208	0x80	0.0
209	0x80	0.0
210	0x80	0.0
211	0x80	0.0
212	0x80	0.0
213	0x80	0.0
214	0x80	0.0
215	0x80	0.0
216	0x80	0.0
217	0x80	0.0
218	0x80	0.0
219	0x80	0.0
220	0x80	0.0
221	0x80	0.0
222	0x80	0.0
223	0x80	0.0
224	0x80	0.0
225	0x80	0.0
226	0x80	0.0
227	0x80	0.0
228	0x80	0.0
229	0x80	0.0
230	0x80	0.0
231	0x80	0.0
232	0x80	0.0
233	0x80	0.0
234	0x80	0.0
235	0x80	0.0
236	0x80	0.0
237	0x80	0.0
238	0x80	0.0
239	0x80	0.0
240	0x80	0.0
241	0x80	0.0
242	0x80	0.0
243	0x80	0.0
244	0x80	0.0
245	0x80	0.0
246	0x80	0.0
247	0x80	0.0
248	0x80	0.0
249	0x80	0.0
250	0x80	0.0
251	0x80	0.0
252	0x80	0.0
253	0x80	0.0
254	0x80	0.0
255	0x80	0.0

tfl.pseudo_qconst26 i1 [1, 3, 1, 40] scale=0.101960786 zero_point=-128
0	0x80	0.0
1	0x80	0.0
2	0x80	0.0
3	0x80	0.0
4	0x80	0.0
5	0x80	0.0
6	0x80	0.0
7	0x80	0.0
8	0x80	0.0
9	0x80	0.0
10	0x80	0.0
11	0x80	0.0
12	0x80	0.0
13	0x80	0.0
14	0x80	0.0
15	0x80	0.0
16	0x80	0.0
17	0x80	0.0
18	0x80	0.0
19	0x80	0.0
20	0x80	0.0
21	0x80	0.0
22	0x80	0.0
23	0x80	0.0
24	0x80	0.0
25	0x80	0.0
26	0x80	0.0
27	0x80	0.0
28	0x80	0.0
29	0x80	0.0
30	0x80	0.0
31	0x80	0.0
32	0x80	0.0
33	0x80	0.0
34	0x80	0.0
35	0x80	0.0
36	0x80	0.0
37	0x80	0.0
38	0x80	0.0
39	0x80	0.0
40	0x80	0.0
41	0x80	0.0
42	0x80	0.0
43	0x80	0.0
44	0x80	0.0
45	0x80	0.0
46	0x80	0.0
47	0x80	0.0
48	0x80	0.0
49	0x80	0.0
50	0x80	0.0
51	0x80	0.0
52	0x80	0.0
53	0x80	0.0
54	0x80	0.0
55	0x80	0.0
56	0x80	0.0
57	0x80	0.0
58	0x80	0.0
59	0x80	0.0
60	0x80	0.0
61	0x80	0.0
62	0x80	0.0
63	0x80	0.0
64	0x80	0.0
65	0x80	0.0
66	0x80	0.0
67	0x80	0.0
68	0x80	0.0
69	0x80	0.0
70	0x80	0.0
71	0x80	0.0
72	0x80	0.0
73	0x80	0.0
74	0x80	0.0
75	0x80	0.0
76	0x80	0.0
77	0x80	0.0
78	0x80	0.0
79	0x80	0.0
80	0x80	0.0
81	0x80	0.0
82	0x80	0.0
83	0x80	0.0
84	0x80	0.0
85	0x80	0.0
86	0x80	0.0
87	0x80	0.0
88	0x80	0.0
89	0x80	0.0
90	0x80	0.0
91	0x80	0.0
92	0x80	0.0
93	0x80	0.0
94	0x80	0.0
95	0x80	0.0
96	0x80	0.0
97	0x80	0.0
98	0x80	0.0
99	0x80	0.0
100	0x80	0.0
101	0x80	0.0
102	0x80	0.0
103	0x80	0.0
104	0x80	0.0
105	0x80	0.0
106	0x80	0.0
107	0x80	0.0
108	0x80	0.0
109	0x80	0.0
110	0x80	0.0
111	0x80	0.0
112	0x80	0.0
113	0x80	0.0
114	0x80	0.0
115	0x80	0.0
116	0x80	0.0
117	0x80	0.0
118	0x80	0.0
119	0x80	0.0

tfl.pseudo_qconst27 i1 [1, 4, 1, 32] scale=1.9238935 zero_point=-128
0	0x80	0.0
1	0x80	0.0
2	0x80	0.0
3	0x80	0.0
4	0x80	0.0
5	0x80	0.0
6	0x80	0.0
7	0x80	0.0
8	0x80	0.0
9	0x80	0.0
10	0x80	0.0
11	0x80	0.0
12	0x80	0.0
13	0x80	0.0
14	0x80	0.0
15	0x80	0.0
16	0x80	0.0
17	0x80	0.0
18	0x80	0.0
19	0x80	0.0
20	0x80	0.0
21	0x80	0.0
22	0x80	0.0
23	0x80	0.0
24	0x80	0.0
25	0x80	0.0
26	0x80	0.0
27	0x80	0.0
28	0x80	0.0
29	0x80	0.0
30	0x80	0.0
31	0x80	0.0
32	0x80	0.0
33	0x80	0.0
34	0x80	0.0
35	0x80	0.0
36	0x80	0.0
37	0x80	0.0
38	0x80	0.0
39	0x80	0.0
40	0x80	0.0
41	0x80	0.0
42	0x80	0.0
43	0x80	0.0
44	0x80	0.0
45	0x80	0.0
46	0x80	0.0
47	0x80	0.0
48	0x80	0.0
49	0x80	0.0
50	0x80	0.0
51	0x80	0.0
52	0x80	0.0
53	0x80	0.0
54	0x80	0.0
55	0x80	0.0
56	0x80	0.0
57	0x80	0.0
58	0x80	0.0
59	0x80	0.0
60	0x80	0.0
61	0x80	0.0
62	0x80	0.0
63	0x80	0.0
64	0x80	0.0
65	0x80	0.0
66	0x80	0.0
67	0x80	0.0
68	0x80	0.0
69	0x80	0.0
70	0x80	0.0
71	0x80	0.0
72	0x80	0.0
73	0x80	0.0
74	0x80	0.0
75	0x80	0.0
76	0x80	0.0
77	0x80	0.0
78	0x80	0.0
79	0x80	0.0
80	0x80	0.0
81	0x80	0.0
82	0x80	0.0
83	0x80	0.0
84	0x80	0.0
85	0x80	0.0
86	0x80	0.0
87	0x80	0.0
88	0x80	0.0
89	0x80	0.0
90	0x80	0.0
91	0x80	0.0
92	0x80	0.0
93	0x80	0.0
94	0x80	0.0
95	0x80	0.0
96	0x80	0.0
97	0x80	0.0
98	0x80	0.0
99	0x80	0.0
100	0x80	0.0
101	0x80	0.0
102	0x80	0.0
103	0x80	0.0
104	0x80	0.0
105	0x80	0.0
106	0x80	0.0
107	0x80	0.0
108	0x80	0.0
109	0x80	0.0
110	0x80	0.0
111	0x80	0.0
112	0x80	0.0
113	0x80	0.0
114	0x80	0.0
115	0x80	0.0
116	0x80	0.0
117	0x80	0.0
118	0x80	0.0
119	0x80	0.0
120	0x80	0.0
121	0x80	0.0
122	0x80	0.0
123	0x80	0.0
124	0x80	0.0
125	0x80	0.0
126	0x80	0.0
127	0x80	0.0
