dave.tflite (tflite, 60944 bytes, 18 tensors)

tfl.pseudo_qconst1 i1 [1, 1088] scale=0.0021317813 zero_point=0
-0.115116194 -0.038372062 -0.014922469 -0.027713157 -0.1023255 0.055426314 0.01705425 -0.100193724
0.0042635626 -0.08313947 0.04903097 -0.070348784 -0.07461235 -0.059689876 -0.059689876 -0.14282934
-0.01705425 -0.019186031 -0.019186031 -0.121511534 -0.07461235 -0.055426314 -0.08740304 -0.0341085
0.0063953437 -0.0063953437 -0.04689919 -0.11724797 0.07248057 -0.07248057 0.025581375 -0.07887591
-0.053294532 -0.055426314 -0.1023255 -0.021317814 -0.08740304 -0.1492247 0.0063953437 -0.059689876
-0.038372062 -0.068217 -0.15775181 -0.03197672 -0.04689919 -0.11724797 -0.11937975 0.070348784
-0.057558097 -0.06395344 -0.0063953437 0.0063953437 -0.04689919 -0.1598836 -0.09379838 -0.027713157
-0.09806194 0.08740304 -0.11298441 0.03197672 0.042635627 -0.076744124 -0.091666594 -0.11085263
-0.059689876 -0.025581375 0.0042635626 -0.08953481 -0.044767406 0.0042635626 0.0021317813 -0.055426314
-0.07248057 -0.03197672 -0.0341085 -0.014922469 -0.100193724 -0.010658907 0.068217 -0.11724797
0.0021317813 -0.12790687 -0.068217 -0.10872085 -0.06395344 -0.09806194 -0.021317814 0.012790687
-0.053294532 -0.08100769 0.01705425 -0.029844938 0.06608522 0.0063953437 -0.042635627 -0.106589064
-0.0341085 -0.010658907 -0.09593016 0.008527125 -0.100193724 -0.059689876 -0.085271254 0.012790687
0.01705425 -0.010658907 0.01705425 -0.044767406 0.0042635626 -0.121511534 0.023449594 -0.059689876
-0.025581375 -0.021317814 -0.085271254 0.07461235 0.038372062 -0.121511534 -0.044767406 -0.038372062
-0.068217 -0.08313947 -0.11298441 -0.07248057 0.008527125 0.0341085 0.029844938 -0.04689919
-0.13856578 -0.07887591 -0.053294532 -0.010658907 -0.068217 -0.019186031 -0.04903097 -0.0063953437
-0.10445728 -0.076744124 -0.0063953437 -0.057558097 -0.057558097 -0.09593016 0.021317814 -0.070348784
-0.036240283 -0.06608522 -0.09806194 -0.038372062 -0.11937975 -0.014922469 -0.07248057 -0.068217
-0.019186031 -0.055426314 0.012790687 0.0063953437 -0.027713157 0.010658907 -0.03197672 -0.136434
0.027713157 -0.04689919 -0.09593016 0.008527125 -0.091666594 -0.07248057 -0.055426314 -0.042635627
0.04903097 -0.106589064 0.014922469 -0.09806194 -0.1023255 -0.11724797 -0.070348784 -0.07887591
-0.0042635626 -0.10872085 0.012790687 -0.03197672 -0.06182166 -0.13003866 0.023449594 -0.012790687
-0.04689919 -0.053294532 -0.1023255 -0.106589064 -0.012790687 -0.04903097 -0.01705425 -0.15775181
-0.11298441 -0.057558097 -0.038372062 -0.08313947 -0.019186031 -0.036240283 -0.0063953437 -0.06182166
-0.07887591 0.010658907 -0.0042635626 -0.053294532 -0.07887591 -0.08100769 0.070348784 -0.05116275
0.042635627 -0.029844938 -0.036240283 -0.027713157 -0.023449594 0.0021317813 -0.070348784 -0.07887591
-0.027713157 0.0 -0.06395344 0.05116275 0.012790687 -0.019186031 0.06182166 -0.06608522
-0.076744124 -0.070348784 -0.14282934 0.012790687 0.055426314 0.057558097 -0.012790687 -0.014922469
-0.059689876 0.038372062 -0.042635627 -0.070348784 -0.04903097 -0.08313947 -0.042635627 -0.14496113
-0.044767406 -0.09593016 -0.012790687 -0.09379838 0.08313947 0.014922469 -0.04689919 -0.09806194
-0.068217 -0.0063953437 0.019186031 -0.027713157 0.025581375 -0.0341085 0.023449594 -0.05116275
00000000: caee f9f3 d01a 08d1 02d9 17df dde4 e4bd
00000010: f8f7 f7c7 dde6 d7f0 03fd eac9 22de 0cdb
00000020: e7e6 d0f6 d7ba 03e4 eee0 b6f1 eac9 c821
00000030: e5e2 fd03 eab5 d4f3 d229 cb0f 14dc d5cc
00000040: e4f4 02d6 eb02 01e6 def1 f0f9 d1fb 20c9
00000050: 01c4 e0cd e2d2 f606 e7da 08f2 1f03 ecce
00000060: f0fb d304 d1e4 d806 08fb 08eb 02c7 0be4
00000070: f4f6 d823 12c7 ebee e0d9 cbde 0410 0eea
00000080: bfdb e7fb e0f7 e9fd cfdc fde5 e5d3 0adf
00000090: efe1 d2ee c8f9 dee0 f7e6 0603 f305 f1c0
000000a0: 0dea d304 d5de e6ec 17ce 07d2 d0c9 dfdb
000000b0: fecd 06f1 e3c3 0bfa eae7 d0ce fae9 f8b6
000000c0: cbe5 eed9 f7ef fde3 db05 fee7 dbda 21e8
000000d0: 14f2 eff3 f501 dfdb f300 e218 06f7 1de1
000000e0: dcdf bd06 1a1b faf9 e412 ecdf e9d9 ecbc
000000f0: ebd3 fad4 2707 ead2 e0fd 09f3 0cf0 0be8

tfl.pseudo_qconst3 i1 [64, 1, 1, 64]
-8 -81 70 26 -61 99 70 -73
59 -69 -127 58 -44 106 16 -23
114 83 -39 117 -105 -115 38 38
-8 -127 2 57 65 -80 61 -103
10 -43 60 80 28 -66 41 100
21 -2 113 -59 -2 -94 -12 33
26 1 88 51 -115 -111 -22 -11
70 26 -99 113 -35 34 -76 86
52 11 -43 18 -127 34 19 -59
47 73 0 -57 92 -18 -48 -82
-91 101 0 102 24 -11 1 19
-31 -79 15 -57 38 32 61 39
70 113 11 -84 24 -93 -38 -4
-74 -27 -68 -109 82 69 -121 -39
-81 31 72 -72 62 -100 -17 74
0 29 -86 -49 -19 74 -34 -22
-3 27 87 -90 -61 12 23 15
-34 30 -71 -116 76 -99 -47 31
-37 97 1 32 -8 107 94 -15
4 2 -79 23 -49 -23 111 61
56 93 91 -21 -86 27 15 -22
-61 -10 -95 -21 42 -5 -26 60
5 80 14 -22 14 -34 54 127
0 -22 59 40 121 38 -69 -70
92 -23 -14 -18 44 103 -36 -29
48 123 -34 -86 72 70 -56 0
-85 -73 73 -41 41 21 -29 -39
59 13 7 -15 73 -27 72 39
-59 -63 64 15 13 -8 18 -80
-92 33 -90 -8 48 115 -62 -89
-59 91 -103 47 101 -46 44 28
80 -76 76 83 -94 71 127 -5
00000000: f8af 461a c363 46b7 3bbb 813a d46a 10e9
00000010: 7253 d975 978d 2626 f881 0239 41b0 3d99
00000020: 0ad5 3c50 1cbe 2964 15fe 71c5 fea2 f421
00000030: 1a01 5833 8d91 eaf5 461a 9d71 dd22 b456
00000040: 340b d512 8122 13c5 2f49 00c7 5cee d0ae
00000050: a565 0066 18f5 0113 e1b1 0fc7 2620 3d27
00000060: 4671 0bac 18a3 dafc b6e5 bc93 5245 87d9
00000070: af1f 48b8 3e9c ef4a 001d aacf ed4a deea
00000080: fd1b 57a6 c30c 170f de1e b98c 4c9d d11f
00000090: db61 0120 f86b 5ef1 0402 b117 cfe9 6f3d
000000a0: 385d 5beb aa1b 0fea c3f6 a1eb 2afb e63c
000000b0: 0550 0eea 0ede 367f 00ea 3b28 7926 bbba
000000c0: 5ce9 f2ee 2c67 dce3 307b deaa 4846 c800
000000d0: abb7 49d7 2915 e3d9 3b0d 07f1 49e5 4827
000000e0: c5c1 400f 0df8 12b0 a421 a6f8 3073 c2a7
000000f0: c55b 992f 65d2 2c1c 50b4 4c53 a247 7ffb

tfl.pseudo_qconst5 i1 [1, 23, 1, 64]
-28 16 -9 -15 -14 -90 37 -5
-126 -127 25 51 -16 127 -32 -127
-56 -49 18 -7 28 -39 86 108
-93 113 -75 82 -127 59 -87 86
-8 2 127 84 98 -127 21 -35
6 18 95 -66 -8 -8 40 127
-40 -107 11 -78 77 -22 42 -127
-84 18 16 -5 119 9 -91 23
-66 31 -19 30 72 -100 22 -107
-63 -125 -28 -48 74 95 -127 -47
13 -48 52 -1 18 63 87 25
-111 93 -65 33 -99 68 -13 -106
38 40 110 -5 -24 -9 97 -19
42 8 -9 -47 -3 37 -60 106
11 -22 2 44 48 -83 48 -51
-126 73 18 -71 127 -65 -39 1
-2 48 -53 45 14 -111 35 -50
2 -48 -50 -2 127 68 -20 -39
-97 -7 0 -18 -102 56 118 -36
-127 -25 48 81 -86 -33 -8 -88
-16 -63 -3 -27 42 -45 17 22
42 -2 126 7 19 74 -57 85
45 -58 26 -77 13 -30 31 -49
-108 6 -22 18 114 -40 -61 40
-6 85 26 12 -38 -27 -52 -52
-70 20 62 91 97 83 51 -81
-127 60 121 15 38 62 66 6
-122 90 25 38 -57 71 -55 -56
-76 -35 69 -19 -76 1 36 -85
27 43 99 -11 -18 -9 -46 -45
-47 -49 26 60 65 51 -16 -1
21 -18 47 65 -12 -64 -101 11
00000000: e410 f7f1 f2a6 25fb 8281 1933 f07f e081
00000010: c8cf 12f9 1cd9 566c a371 b552 813b a956
00000020: f802 7f54 6281 15dd 0612 5fbe f8f8 287f
00000030: d895 0bb2 4dea 2a81 ac12 10fb 7709 a517
00000040: be1f ed1e 489c 1695 c183 e4d0 4a5f 81d1
00000050: 0dd0 34ff 123f 5719 915d bf21 9d44 f396
00000060: 2628 6efb e8f7 61ed 2a08 f7d1 fd25 c46a
00000070: 0bea 022c 30ad 30cd 8249 12b9 7fbf d901
00000080: fe30 cb2d 0e91 23ce 02d0 cefe 7f44 ecd9
00000090: 9ff9 00ee 9a38 76dc 81e7 3051 aadf f8a8
000000a0: f0c1 fde5 2ad3 1116 2afe 7e07 134a c755
000000b0: 2dc6 1ab3 0de2 1fcf 9406 ea12 72d8 c328
000000c0: fa55 1a0c dae5 cccc ba14 3e5b 6153 33af
000000d0: 813c 790f 263e 4206 865a 1926 c747 c9c8
000000e0: b4dd 45ed b401 24ab 1b2b 63f5 eef7 d2d3
000000f0: d1cf 1a3c 4133 f0ff 15ee 2f41 f4c0 9b0b

tfl.pseudo_qconst7 i1 [64, 1, 1, 64]
78 46 -42 -90 60 -74 34 -51
14 39 -35 -77 -104 11 -100 67
-13 87 -79 -47 -106 -51 -21 -42
-31 25 92 -56 -80 85 -9 -86
-32 43 -23 127 -8 76 19 -17
-31 16 -51 93 -94 -61 -19 104
-92 0 -101 -10 -105 113 88 -47
-26 -115 -77 -88 -45 14 104 -79
70 -84 25 74 -18 9 54 -7
-26 40 -78 -79 63 41 -59 -55
-25 -71 -7 11 77 19 17 79
-108 29 9 -71 21 -50 77 56
-64 75 -64 52 -5 23 74 -7
-5 52 -63 -5 99 -20 -48 -48
80 -34 127 61 -86 -84 -67 -27
-37 -21 -20 31 37 -21 -28 69
91 -117 -72 99 -47 -80 13 81
45 -57 -8 38 -7 20 63 -11
-2 -7 22 26 81 33 92 -47
-18 -77 102 125 106 104 -105 -56
47 83 -11 25 88 20 24 -23
116 55 -116 65 49 2 41 -127
-68 8 -43 -62 -67 48 105 0
113 81 65 27 44 42 80 20
49 -31 66 -74 -33 120 30 -3
89 -96 -56 -6 -88 13 -58 77
-31 43 -28 -21 47 -27 7 -48
-37 -81 -81 -97 37 -65 87 21
-33 -33 8 -16 11 -37 -19 50
-47 5 -19 -4 -73 -1 76 31
-42 25 31 29 -109 6 127 -44
-56 9 82 32 36 -51 46 34
00000000: 4e2e d6a6 3cb6 22cd 0e27 ddb3 980b 9c43
00000010: f357 b1d1 96cd ebd6 e119 5cc8 b055 f7aa
00000020: e02b e97f f84c 13ef e110 cd5d a2c3 ed68
00000030: a400 9bf6 9771 58d1 e68d b3a8 d30e 68b1
00000040: 46ac 194a ee09 36f9 e628 b2b1 3f29 c5c9
00000050: e7b9 f90b 4d13 114f 941d 09b9 15ce 4d38
00000060: c04b c034 fb17 4af9 fb34 c1fb 63ec d0d0
00000070: 50de 7f3d aaac bde5 dbeb ec1f 25eb e445
00000080: 5b8b b863 d1b0 0d51 2dc7 f826 f914 3ff5
00000090: fef9 161a 5121 5cd1 eeb3 667d 6a68 97c8
000000a0: 2f53 f519 5814 18e9 7437 8c41 3102 2981
000000b0: bc08 d5c2 bd30 6900 7151 411b 2c2a 5014
000000c0: 31e1 42b6 df78 1efd 59a0 c8fa a80d c64d
000000d0: e12b e4eb 2fe5 07d0 dbaf af9f 25bf 5715
000000e0: dfdf 08f0 0bdb ed32 d105 edfc b7ff 4c1f
000000f0: d619 1f1d 9306 7fd4 c809 5220 24cd 2e22

tfl.pseudo_qconst9 i1 [1, 15, 1, 32]
3 -79 74 103 62 -29 127 -122
75 127 84 -49 17 -8 -127 -41
-36 -76 33 -33 -56 -62 -85 60
-61 -60 127 -112 67 125 21 31
-24 36 43 61 51 -24 44 79
97 62 92 -114 -65 94 -90 54
-28 -5 19 -81 -127 -7 -127 2
0 -26 118 -81 3 127 64 18
3 -89 67 123 -73 4 12 -34
56 68 81 -25 -127 91 -58 23
26 23 15 -127 33 -61 -59 41
-65 -53 109 -45 -68 83 18 2
-15 -49 45 120 56 69 -10 93
-11 -47 4 24 12 -50 -121 127
82 -47 37 22 -27 58 -28 -73
-25 50 73 28 -46 102 29 75
-24 39 55 -39 48 4 -55 43
7 -107 -34 -2 -86 -104 -37 95
-25 -6 10 -22 61 -3 -51 -121
48 -5 18 36 80 -20 33 104
-53 102 48 -27 -25 -15 16 12
-51 -10 -100 -99 108 -43 -25 -17
-89 63 16 -9 60 -56 -40 -127
-91 -77 59 -1 -10 57 69 36
42 53 -27 23 -55 35 -16 38
-54 82 -107 -8 86 -12 6 -47
14 -7 -30 99 -36 13 50 -54
-70 -13 -16 -47 29 -33 -14 51
-66 -51 -37 -69 84 -62 90 66
87 41 109 -18 -23 -117 -21 -56
-127 -17 37 20 -59 -62 17 36
3 -73 -13 63 -30 -14 127 106
00000000: 03b1 4a67 3ee3 7f86 4b7f 54cf 11f8 81d7
00000010: dcb4 21df c8c2 ab3c c3c4 7f90 437d 151f
00000020: e824 2b3d 33e8 2c4f 613e 5c8e bf5e a636
00000030: e4fb 13af 81f9 8102 00e6 76af 037f 4012
00000040: 03a7 437b b704 0cde 3844 51e7 815b c617
00000050: 1a17 0f81 21c3 c529 bfcb 6dd3 bc53 1202
00000060: f1cf 2d78 3845 f65d f5d1 0418 0cce 877f
00000070: 52d1 2516 e53a e4b7 e732 491c d266 1d4b
00000080: e827 37d9 3004 c92b 0795 defe aa98 db5f
00000090: e7fa 0aea 3dfd cd87 30fb 1224 50ec 2168
000000a0: cb66 30e5 e7f1 100c cdf6 9c9d 6cd5 e7ef
000000b0: a73f 10f7 3cc8 d881 a5b3 3bff f639 4524
000000c0: 2a35 e517 c923 f026 ca52 95f8 56f4 06d1
000000d0: 0ef9 e263 dc0d 32ca baf3 f0d1 1ddf f233
000000e0: becd dbbb 54c2 5a42 5729 6dee e98b ebc8
000000f0: 81ef 2514 c5c2 1124 03b7 f33f e2f2 7f6a

tfl.pseudo_qconst11 i1 [1, 9, 1, 32]
49 24 -127 -19 25 127 -37 6
83 -59 -33 10 -3 57 84 127
11 12 -102 127 127 -24 -27 -115
-37 -127 -55 14 -127 69 -10 -25
-22 63 -120 32 -39 -6 44 72
-52 -6 -69 64 -51 78 127 -23
-31 21 -127 27 -29 61 -7 -28
-43 -4 -49 -40 -40 -61 -14 90
-54 13 -79 -36 -12 99 107 -45
-47 -66 83 86 11 -37 8 17
47 37 -68 -75 9 8 64 117
56 114 73 -7 48 107 -67 -20
-37 -58 -109 29 101 -45 89 127
62 -4 7 -35 -58 -127 70 12
-58 74 -112 50 -24 24 -77 80
-52 63 -103 33 -53 -127 -48 -112
-105 45 18 -83 -37 -2 60 19
-105 76 -38 -68 -31 53 -49 70
14 100 -23 41 116 93 91 -85
-69 36 51 -74 126 -69 127 -71
-42 48 27 35 43 -98 61 -18
-31 -64 127 32 101 -30 -88 -29
-26 -11 35 4 68 -58 -69 -24
-104 -39 118 -11 117 -13 90 -127
-62 -27 5 -106 -127 58 -50 15
-47 21 -13 50 70 99 -70 88
-66 -34 -101 103 -82 17 -103 127
-127 18 29 -98 -41 -50 -30 -99
-127 -82 104 -26 -103 54 -127 -79
-127 73 -35 84 34 58 36 35
-127 -50 36 -112 33 127 -127 65
58 2 127 -45 -66 -83 18 43
00000000: 3118 81ed 197f db06 53c5 df0a fd39 547f
00000010: 0b0c 9a7f 7fe8 e58d db81 c90e 8145 f6e7
00000020: ea3f 8820 d9fa 2c48 ccfa bb40 cd4e 7fe9
00000030: e115 811b e33d f9e4 d5fc cfd8 d8c3 f25a
00000040: ca0d b1dc f463 6bd3 d1be 5356 0bdb 0811
00000050: 2f25 bcb5 0908 4075 3872 49f9 306b bdec
00000060: dbc6 931d 65d3 597f 3efc 07dd c681 460c
00000070: c64a 9032 e818 b350 cc3f 9921 cb81 d090
00000080: 972d 12ad dbfe 3c13 974c dabc e135 cf46
00000090: 0e64 e929 745d 5bab bb24 33b6 7ebb 7fb9
000000a0: d630 1b23 2b9e 3dee e1c0 7f20 65e2 a8e3
000000b0: e6f5 2304 44c6 bbe8 98d9 76f5 75f3 5a81
000000c0: c2e5 0596 813a ce0f d115 f332 4663 ba58
000000d0: bede 9b67 ae11 997f 8112 1d9e d7ce e29d
000000e0: 81ae 68e6 9936 81b1 8149 dd54 223a 2423
000000f0: 81ce 2490 217f 8141 3a02 7fd3 bead 122b

tfl.pseudo_qconst13 i1 [64, 1, 1, 64]
-3 70 -30 95 7 -7 76 22
-14 53 43 1 49 -58 92 88
-83 -71 -4 -17 86 -51 -111 -105
-27 -96 -19 -63 70 -57 -71 39
52 -60 -39 -20 29 90 86 11
27 -50 -103 67 112 -56 -53 -56
57 -74 -41 -29 25 51 127 46
-44 -35 55 38 -58 -71 79 -26
-85 38 -79 -41 -16 57 7 -11
68 30 -17 -19 -4 -80 -70 -39
86 -20 65 51 24 37 -9 74
29 19 68 -39 77 -113 5 31
51 13 75 -48 52 -50 -16 20
52 -62 54 -95 38 -22 -13 -19
-47 43 35 23 43 -86 40 -127
32 -77 -82 28 -73 -60 -17 -65
-19 -116 37 -68 -66 66 84 46
-6 127 -1 -62 43 -13 -8 45
12 -55 1 22 18 21 -12 23
43 -48 30 10 37 30 -52 -1
36 18 -49 -42 107 69 25 -19
-48 -95 -5 1 -11 -87 -5 -38
53 -48 -50 44 -53 8 -3 -32
57 24 -74 -37 -22 29 20 -65
40 -49 -25 -20 -39 -30 25 -91
-122 9 63 51 -4 -20 -55 42
-16 79 -17 127 -22 -95 -7 -94
18 -99 28 55 -57 116 -38 81
14 -70 -51 81 21 -27 91 40
9 -41 4 -11 -58 -9 33 6
72 68 92 -103 34 -44 -30 8
-70 17 -41 25 33 14 -17 -1
00000000: fd46 e25f 07f9 4c16 f235 2b01 31c6 5c58
00000010: adb9 fcef 56cd 9197 e5a0 edc1 46c7 b927
00000020: 34c4 d9ec 1d5a 560b 1bce 9943 70c8 cbc8
00000030: 39b6 d7e3 1933 7f2e d4dd 3726 c6b9 4fe6
00000040: ab26 b1d7 f039 07f5 441e efed fcb0 bad9
00000050: 56ec 4133 1825 f74a 1d13 44d9 4d8f 051f
00000060: 330d 4bd0 34ce f014 34c2 36a1 26ea f3ed
00000070: d12b 2317 2baa 2881 20b3 ae1c b7c4 efbf
00000080: ed8c 25bc be42 542e fa7f ffc2 2bf3 f82d
00000090: 0cc9 0116 1215 f417 2bd0 1e0a 251e ccff
000000a0: 2412 cfd6 6b45 19ed d0a1 fb01 f5a9 fbda
000000b0: 35d0 ce2c cb08 fde0 3918 b6db ea1d 14bf
000000c0: 28cf e7ec d9e2 19a5 8609 3f33 fcec c92a
000000d0: f04f ef7f eaa1 f9a2 129d 1c37 c774 da51
000000e0: 0eba cd51 15e5 5b28 09d7 04f5 c6f7 2106
000000f0: 4844 5c99 22d4 e208 ba11 d719 210e efff

tfl.pseudo_qconst15 i1 [1, 11, 1, 32]
-41 117 127 -28 37 60 -70 -40
104 4 -91 -127 -121 90 -127 56
78 -68 -84 -20 12 -50 -56 14
69 -3 -5 -38 -20 -127 2 23
30 127 73 14 66 -96 -107 -53
9 -127 -80 82 63 112 62 -91
119 -94 -8 23 -115 -100 34 58
-73 -1 -39 -127 31 111 -15 -49
47 70 -5 -4 2 4 62 -100
119 -3 6 39 -17 25 93 -77
-58 127 -127 -113 46 2 -31 -51
-124 -67 30 -22 75 -1 31 3
-36 -14 85 -38 -26 -28 89 75
79 53 127 -42 108 66 2 -31
47 27 50 -63 -35 102 -12 -127
-85 47 -98 -80 117 -76 55 -127
-127 19 -106 -40 3 -127 -97 61
-127 35 96 37 -13 -13 -39 64
-72 -39 12 -6 70 -12 -122 -55
-58 108 33 -103 17 102 62 80
-22 87 -4 28 -96 -125 -20 -25
-8 -15 -41 90 -100 -14 -64 -62
-35 30 106 127 -126 -92 -1 41
123 75 4 -21 101 -83 -78 51
-47 -23 23 -4 -3 -63 -127 -53
110 33 100 67 -9 -74 32 94
-122 -100 -10 -118 50 -2 72 -18
-121 -18 59 -40 127 118 -127 -68
-117 -97 -42 -23 -55 53 -125 65
122 -31 34 73 -34 5 0 79
-45 121 102 21 -2 104 5 5
-127 -127 19 -34 -55 -100 30 -15
00000000: d775 7fe4 253c bad8 6804 a581 875a 8138
00000010: 4ebc acec 0cce c80e 45fd fbda ec81 0217
00000020: 1e7f 490e 42a0 95cb 0981 b052 3f70 3ea5
00000030: 77a2 f817 8d9c 223a b7ff d981 1f6f f1cf
00000040: 2f46 fbfc 0204 3e9c 77fd 0627 ef19 5db3
00000050: c67f 818f 2e02 e1cd 84bd 1eea 4bff 1f03
00000060: dcf2 55da e6e4 594b 4f35 7fd6 6c42 02e1
00000070: 2f1b 32c1 dd66 f481 ab2f 9eb0 75b4 3781
00000080: 8113 96d8 0381 9f3d 8123 6025 f3f3 d940
00000090: b8d9 0cfa 46f4 86c9 c66c 2199 1166 3e50
000000a0: ea57 fc1c a083 ece7 f8f1 d75a 9cf2 c0c2
000000b0: dd1e 6a7f 82a4 ff29 7b4b 04eb 65ad b233
000000c0: d1e9 17fc fdc1 81cb 6e21 6443 f7b6 205e
000000d0: 869c f68a 32fe 48ee 87ee 3bd8 7f76 81bc
000000e0: 8b9f d6e9 c935 8341 7ae1 2249 de05 004f
000000f0: d379 6615 fe68 0505 8181 13de c99c 1ef1

tfl.pseudo_qconst17 i1 [1, 7, 1, 32]
-36 -64 -127 12 -21 -94 -59 -64
-101 56 -70 -5 -111 -78 -14 -12
-53 -22 120 -124 -97 27 127 -68
127 -26 90 35 -68 -20 121 -52
70 -71 -6 127 -88 37 -26 -105
-115 -127 73 57 -22 -10 -22 -127
23 29 -56 127 127 5 44 -54
-62 -17 122 41 77 22 -44 33
-25 -35 109 38 6 -94 -21 -81
-35 -110 53 127 -3 78 73 -35
69 29 -127 6 3 60 -57 -77
86 -127 50 -44 38 -71 44 -14
20 -73 83 78 127 -42 12 32
-53 -119 88 -90 -108 -74 -63 70
44 -26 -124 -64 83 -31 -39 -30
84 -35 -16 55 31 -48 -19 87
-127 -80 20 -11 87 127 -127 -90
-18 -24 14 -126 127 75 -23 -32
-30 127 -25 91 22 -127 13 -8
-21 -92 28 -100 -12 -22 -127 -43
-7 -107 -91 -2 -53 80 119 26
-127 -39 26 23 -18 88 96 122
-42 -23 -59 -84 123 5 -14 -127
109 0 127 47 -58 23 -124 -91
27 -127 -83 -30 -71 -55 -41 -127
35 -5 -127 118 62 127 127 123
-127 108 -31 83 -87 4 -64 -24
106 76 24 127 -127 127 79 -127
00000000: dcc0 810c eba2 c5c0 9b38 bafb 91b2 f2f4
00000010: cbea 7884 9f1b 7fbc 7fe6 5a23 bcec 79cc
00000020: 46b9 fa7f a825 e697 8d81 4939 eaf6 ea81
00000030: 171d c87f 7f05 2cca c2ef 7a29 4d16 d421
00000040: e7dd 6d26 06a2 ebaf dd92 357f fd4e 49dd
00000050: 451d 8106 033c c7b3 5681 32d4 26b9 2cf2
00000060: 14b7 534e 7fd6 0c20 cb89 58a6 94b6 c146
00000070: 2ce6 84c0 53e1 d9e2 54dd f037 1fd0 ed57
00000080: 81b0 14f5 577f 81a6 eee8 0e82 7f4b e9e0
00000090: e27f e75b 1681 0df8 eba4 1c9c f4ea 81d5
000000a0: f995 a5fe cb50 771a 81d9 1a17 ee58 607a
000000b0: d6e9 c5ac 7b05 f281 6d00 7f2f c617 84a5
000000c0: 1b81 ade2 b9c9 d781 23fb 8176 3e7f 7f7b
000000d0: 816c e153 a904 c0e8 6a4c 187f 817f 4f81

tfl.pseudo_qconst19 i1 [64, 1, 1, 32]
28 -74 -26 -97 77 -52 43 -127
-5 49 -88 -53 105 -59 86 34
62 48 74 -51 11 97 -7 15
-80 -110 124 53 -6 115 -97 25
72 -42 45 25 -60 -67 -90 -82
-95 19 39 -59 78 62 6 -80
-90 6 -88 14 16 103 -4 98
-121 21 95 -127 -3 82 37 11
-116 14 48 69 59 -100 13 -23
29 40 -88 -127 97 99 101 123
60 -44 53 85 -102 -47 86 -101
2 100 -113 -59 5 -62 105 32
-27 -64 -64 -23 -127 -43 90 -118
39 -58 24 -105 -80 1 61 -121
17 16 46 -67 49 -88 -33 26
-124 86 -76 -89 -104 45 0 -86
31 -127 -28 -101 -68 -6 -48 7
-66 48 123 -28 -24 36 94 -47
-39 -3 63 105 -103 85 85 -49
-9 -110 -39 84 -19 55 52 -27
-100 38 -90 -85 -48 1 24 -17
-51 7 17 -44 -7 34 -2 -7
69 -58 -83 -34 -48 72 -122 44
46 71 -40 -33 -127 7 -80 63
-79 -7 90 -59 55 -34 27 63
30 0 -9 -107 -72 -44 13 83
-80 -38 -94 67 -38 102 11 -70
55 -3 -5 -43 46 103 127 18
5 -23 -34 -35 -22 -31 67 -94
-9 79 85 55 45 43 -62 -3
54 127 -3 -9 5 7 -40 4
-26 37 -45 21 78 -26 -60 -77
00000000: 1cb6 e69f 4dcc 2b81 fb31 a8cb 69c5 5622
00000010: 3e30 4acd 0b61 f90f b092 7c35 fa73 9f19
00000020: 48d6 2d19 c4bd a6ae a113 27c5 4e3e 06b0
00000030: a606 a80e 1067 fc62 8715 5f81 fd52 250b
00000040: 8c0e 3045 3b9c 0de9 1d28 a881 6163 657b
00000050: 3cd4 3555 9ad1 569b 0264 8fc5 05c2 6920
00000060: e5c0 c0e9 81d5 5a8a 27c6 1897 b001 3d87
00000070: 1110 2ebd 31a8 df1a 8456 b4a7 982d 00aa
00000080: 1f81 e49b bcfa d007 be30 7be4 e824 5ed1
00000090: d9fd 3f69 9955 55cf f792 d954 ed37 34e5
000000a0: 9c26 a6ab d001 18ef cd07 11d4 f922 fef9
000000b0: 45c6 adde d048 862c 2e47 d8df 8107 b03f
000000c0: b1f9 5ac5 37de 1b3f 1e00 f795 b8d4 0d53
000000d0: b0da a243 da66 0bba 37fd fbd5 2e67 7f12
000000e0: 05e9 dedd eae1 43a2 f74f 5537 2d2b c2fd
000000f0: 367f fdf7 0507 d804 e625 d315 4ee6 c4b3

tfl.pseudo_qconst21 i1 [1, 5, 1, 32]
-119 23 -127 51 23 -75 127 -64
-24 69 13 70 16 -127 -127 -1
86 80 127 127 117 21 96 -85
42 -56 -75 127 127 79 83 28
-62 127 -19 -127 61 104 -39 -62
-34 -66 9 19 105 12 -39 24
127 106 123 -70 7 -99 -53 34
-54 85 -127 101 -107 104 4 25
40 53 -102 36 -82 127 19 -127
106 35 -109 -52 -89 -42 -70 -43
-88 107 79 108 -73 -127 127 -127
108 -85 -56 -78 -75 96 -110 53
102 -74 -51 31 -127 -73 46 -87
1 44 -96 -127 127 -119 111 -72
-56 127 -80 54 35 -69 98 -16
-5 -127 96 -28 -59 127 -107 -62
127 86 83 -123 -107 -108 110 -78
127 127 -127 -86 -16 103 -102 -127
51 -56 -97 -19 127 92 83 75
127 -126 9 29 0 31 -127 -127
00000000: 8917 8133 17b5 7fc0 e845 0d46 1081 81ff
00000010: 5650 7f7f 7515 60ab 2ac8 b57f 7f4f 531c
00000020: c27f ed81 3d68 d9c2 debe 0913 690c d918
00000030: 7f6a 7bba 079d cb22 ca55 8165 9568 0419
00000040: 2835 9a24 ae7f 1381 6a23 93cc a7d6 bad5
00000050: a86b 4f6c b781 7f81 6cab c8b2 b560 9235
00000060: 66b6 cd1f 81b7 2ea9 012c a081 7f89 6fb8
00000070: c87f b036 23bb 62f0 fb81 60e4 c57f 95c2
00000080: 7f56 5385 9594 6eb2 7f7f 81aa f067 9a81
00000090: 33c8 9fed 7f5c 534b 7f82 091d 001f 8181

tfl.pseudo_qconst23 i1 [32, 5, 1, 40]
108 -22 46 -39 26 -5 112 20
56 -23 28 -2 23 54 -5 -22
-46 14 19 42 -53 101 25 -15
77 63 46 38 -59 22 -61 36
-13 11 -32 1 -82 -2 25 50
42 -20 43 -38 6 -43 82 60
27 -14 64 62 18 -3 49 -8
-49 2 35 -13 -57 -1 106 98
87 -5 81 46 59 -18 -63 65
74 -42 -62 -67 -46 -55 -53 34
27 -31 37 51 2 33 96 45
15 44 -48 47 47 79 -35 33
68 59 2 21 61 5 50 127
45 8 49 -23 -46 -29 -24 -25
-42 -117 -67 -91 -86 -34 -16 57
41 -13 -71 -32 98 -3 89 17
25 -23 37 -35 50 35 -53 -20
75 18 1 -27 29 34 22 122
10 123 71 43 33 37 -73 6
-89 -100 -72 -40 33 -51 3 -38
47 -116 29 -57 49 10 40 67
-49 -2 -57 -55 -24 65 18 73
42 31 26 9 -24 71 53 3
-8 102 -6 39 -24 89 -3 -46
-125 -44 -93 5 -81 34 0 60
48 42 16 59 24 71 86 63
92 58 0 15 45 -15 -30 -57
-11 31 31 -55 -1 54 -55 1
25 -9 25 -34 -38 10 27 26
42 52 24 -10 -47 -67 16 -23
93 23 65 36 25 67 47 23
-32 52 -13 19 -33 0 64 -54
00000000: 6cea 2ed9 1afb 7014 38e9 1cfe 1736 fbea
00000010: d20e 132a cb65 19f1 4d3f 2e26 c516 c324
00000020: f30b e001 aefe 1932 2aec 2bda 06d5 523c
00000030: 1bf2 403e 12fd 31f8 cf02 23f3 c7ff 6a62
00000040: 57fb 512e 3bee c141 4ad6 c2bd d2c9 cb22
00000050: 1be1 2533 0221 602d 0f2c d02f 2f4f dd21
00000060: 443b 0215 3d05 327f 2d08 31e9 d2e3 e8e7
00000070: d68b bda5 aade f039 29f3 b9e0 62fd 5911
00000080: 19e9 25dd 3223 cbec 4b12 01e5 1d22 167a
00000090: 0a7b 472b 2125 b706 a79c b8d8 21cd 03da
000000a0: 2f8c 1dc7 310a 2843 cffe c7c9 e841 1249
000000b0: 2a1f 1a09 e847 3503 f866 fa27 e859 fdd2
000000c0: 83d4 a305 af22 003c 302a 103b 1847 563f
000000d0: 5c3a 000f 2df1 e2c7 f51f 1fc9 ff36 c901
000000e0: 19f7 19de da0a 1b1a 2a34 18f6 d1bd 10e9
000000f0: 5d17 4124 1943 2f17 e034 f313 df00 40ca

tfl.pseudo_qconst24 i1 [1, 22, 1, 64] scale=0.028543767 zero_point=-128
0.0 0.0 0.0 0.0 0.0 0.0 0.0 0.0
0.0 0.0 0.0 0.0 0.0 0.0 0.0 0.0
0.0 0.0 0.0 0.0 0.0 0.0 0.0 0.0
0.0 0.0 0.0 0.0 0.0 0.0 0.0 0.0
0.0 0.0 0.0 0.0 0.0 0.0 0.0 0.0
0.0 0.0 0.0 0.0 0.0 0.0 0.0 0.0
0.0 0.0 0.0 0.0 0.0 0.0 0.0 0.0
0.0 0.0 0.0 0.0 0.0 0.0 0.0 0.0
0.0 0.0 0.0 0.0 0.0 0.0 0.0 0.0
0.0 0.0 0.0 0.0 0.0 0.0 0.0 0.0
0.0 0.0 0.0 0.0 0.0 0.0 0.0 0.0
0.0 0.0 0.0 0.0 0.0 0.0 0.0 0.0
0.0 0.0 0.0 0.0 0.0 0.0 0.0 0.0
0.0 0.0 0.0 0.0 0.0 0.0 0.0 0.0
0.0 0.0 0.0 0.0 0.0 0.0 0.0 0.0
0.0 0.0 0.0 0.0 0.0 0.0 0.0 0.0
0.0 0.0 0.0 0.0 0.0 0.0 0.0 0.0
0.0 0.0 0.0 0.0 0.0 0.0 0.0 0.0
0.0 0.0 0.0 0.0 0.0 0.0 0.0 0.0
0.0 0.0 0.0 0.0 0.0 0.0 0.0 0.0
0.0 0.0 0.0 0.0 0.0 0.0 0.0 0.0
0.0 0.0 0.0 0.0 0.0 0.0 0.0 0.0
0.0 0.0 0.0 0.0 0.0 0.0 0.0 0.0
0.0 0.0 0.0 0.0 0.0 0.0 0.0 0.0
0.0 0.0 0.0 0.0 0.0 0.0 0.0 0.0
0.0 0.0 0.0 0.0 0.0 0.0 0.0 0.0
0.0 0.0 0.0 0.0 0.0 0.0 0.0 0.0
0.0 0.0 0.0 0.0 0.0 0.0 0.0 0.0
0.0 0.0 0.0 0.0 0.0 0.0 0.0 0.0
0.0 0.0 0.0 0.0 0.0 0.0 0.0 0.0
0.0 0.0 0.0 0.0 0.0 0.0 0.0 0.0
0.0 0.0 0.0 0.0 0.0 0.0 0.0 0.0
00000000: 8080 8080 8080 8080 8080 8080 8080 8080
00000010: 8080 8080 8080 8080 8080 8080 8080 8080
00000020: 8080 8080 8080 8080 8080 8080 8080 8080
00000030: 8080 8080 8080 8080 8080 8080 8080 8080
00000040: 8080 8080 8080 8080 8080 8080 8080 8080
00000050: 8080 8080 8080 8080 8080 8080 8080 8080
00000060: 8080 8080 8080 8080 8080 8080 8080 8080
00000070: 8080 8080 8080 8080 8080 8080 8080 8080
00000080: 8080 8080 8080 8080 8080 8080 8080 8080
00000090: 8080 8080 8080 8080 8080 8080 8080 8080
000000a0: 8080 8080 8080 8080 8080 8080 8080 8080
000000b0: 8080 8080 8080 8080 8080 8080 8080 8080
000000c0: 8080 8080 8080 8080 8080 8080 8080 8080
000000d0: 8080 8080 8080 8080 8080 8080 8080 8080
000000e0: 8080 8080 8080 8080 8080 8080 8080 8080
000000f0: 8080 8080 8080 8080 8080 8080 8080 8080

tfl.pseudo_qconst25 i1 [1, 16, 1, 64] scale=0.027872423 zero_point=-128
0.0 0.0 0.0 0.0 0.0 0.0 0.0 0.0
0.0 0.0 0.0 0.0 0.0 0.0 0.0 0.0
0.0 0.0 0.0 0.0 0.0 0.0 0.0 0.0
0.0 0.0 0.0 0.0 0.0 0.0 0.0 0.0
0.0 0.0 0.0 0.0 0.0 0.0 0.0 0.0
0.0 0.0 0.0 0.0 0.0 0.0 0.0 0.0
0.0 0.0 0.0 0.0 0.0 0.0 0.0 0.0
0.0 0.0 0.0 0.0 0.0 0.0 0.0 0.0
0.0 0.0 0.0 0.0 0.0 0.0 0.0 0.0
0.0 0.0 0.0 0.0 0.0 0.0 0.0 0.0
0.0 0.0 0.0 0.0 0.0 0.0 0.0 0.0
0.0 0.0 0.0 0.0 0.0 0.0 0.0 0.0
0.0 0.0 0.0 0.0 0.0 0.0 0.0 0.0
0.0 0.0 0.0 0.0 0.0 0.0 0.0 0.0
0.0 0.0 0.0 0.0 0.0 0.0 0.0 0.0
0.0 0.0 0.0 0.0 0.0 0.0 0.0 0.0
0.0 0.0 0.0 0.0 0.0 0.0 0.0 0.0
0.0 0.0 0.0 0.0 0.0 0.0 0.0 0.0
0.0 0.0 0.0 0.0 0.0 0.0 0.0 0.0
0.0 0.0 0.0 0.0 0.0 0.0 0.0 0.0
0.0 0.0 0.0 0.0 0.0 0.0 0.0 0.0
0.0 0.0 0.0 0.0 0.0 0.0 0.0 0.0
0.0 0.0 0.0 0.0 0.0 0.0 0.0 0.0
0.0 0.0 0.0 0.0 0.0 0.0 0.0 0.0
0.0 0.0 0.0 0.0 0.0 0.0 0.0 0.0
0.0 0.0 0.0 0.0 0.0 0.0 0.0 0.0
0.0 0.0 0.0 0.0 0.0 0.0 0.0 0.0
0.0 0.0 0.0 0.0 0.0 0.0 0.0 0.0
0.0 0.0 0.0 0.0 0.0 0.0 0.0 0.0
0.0 0.0 0.0 0.0 0.0 0.0 0.0 0.0
0.0 0.0 0.0 0.0 0.0 0.0 0.0 0.0
0.0 0.0 0.0 0.0 0.0 0.0 0.0 0.0
00000000: 8080 8080 8080 8080 8080 8080 8080 8080
00000010: 8080 8080 8080 8080 8080 8080 8080 8080
00000020: 8080 8080 8080 8080 8080 8080 8080 8080
00000030: 8080 8080 8080 8080 8080 8080 8080 8080
00000040: 8080 8080 8080 8080 8080 8080 8080 8080
00000050: 8080 8080 8080 8080 8080 8080 8080 8080
00000060: 8080 8080 8080 8080 8080 8080 8080 8080
00000070: 8080 8080 8080 8080 8080 8080 8080 8080
00000080: 8080 8080 8080 8080 8080 8080 8080 8080
00000090: 8080 8080 8080 8080 8080 8080 8080 8080
000000a0: 8080 8080 8080 8080 8080 8080 8080 8080
000000b0: 8080 8080 8080 8080 8080 8080 8080 8080
000000c0: 8080 8080 8080 8080 8080 8080 8080 8080
000000d0: 8080 8080 8080 8080 8080 8080 8080 8080
000000e0: 8080 8080 8080 8080 8080 8080 8080 8080
000000f0: 8080 8080 8080 8080 8080 8080 8080 8080

tfl.pseudo_qconst26 i1 [1, 2, 1, 40] scale=0.101960786 zero_point=-128
0.0 0.0 0.0 0.0 0.0 0.0 0.0 0.0
0.0 0.0 0.0 0.0 0.0 0.0 0.0 0.0
0.0 0.0 0.0 0.0 0.0 0.0 0.0 0.0
0.0 0.0 0.0 0.0 0.0 0.0 0.0 0.0
0.0 0.0 0.0 0.0 0.0 0.0 0.0 0.0
0.0 0.0 0.0 0.0 0.0 0.0 0.0 0.0
0.0 0.0 0.0 0.0 0.0 0.0 0.0 0.0
0.0 0.0 0.0 0.0 0.0 0.0 0.0 0.0
0.0 0.0 0.0 0.0 0.0 0.0 0.0 0.0
0.0 0.0 0.0 0.0 0.0 0.0 0.0 0.0
00000000: 8080 8080 8080 8080 8080 8080 8080 8080
00000010: 8080 8080 8080 8080 8080 8080 8080 8080
00000020: 8080 8080 8080 8080 8080 8080 8080 8080
00000030: 8080 8080 8080 8080 8080 8080 8080 8080
00000040: 8080 8080 8080 8080 8080 8080 8080 8080

tfl.pseudo_qconst27 i1 [1, 4, 1, 32] scale=0.6496625 zero_point=-128
0.0 0.0 0.0 0.0 0.0 0.0 0.0 0.0
0.0 0.0 0.0 0.0 0.0 0.0 0.0 0.0
0.0 0.0 0.0 0.0 0.0 0.0 0.0 0.0
0.0 0.0 0.0 0.0 0.0 0.0 0.0 0.0
0.0 0.0 0.0 0.0 0.0 0.0 0.0 0.0
0.0 0.0 0.0 0.0 0.0 0.0 0.0 0.0
0.0 0.0 0.0 0.0 0.0 0.0 0.0 0.0
0.0 0.0 0.0 0.0 0.0 0.0 0.0 0.0
0.0 0.0 0.0 0.0 0.0 0.0 0.0 0.0
0.0 0.0 0.0 0.0 0.0 0.0 0.0 0.0
0.0 0.0 0.0 0.0 0.0 0.0 0.0 0.0
0.0 0.0 0.0 0.0 0.0 0.0 0.0 0.0
0.0 0.0 0.0 0.0 0.0 0.0 0.0 0.0
0.0 0.0 0.0 0.0 0.0 0.0 0.0 0.0
0.0 0.0 0.0 0.0 0.0 0.0 0.0 0.0
0.0 0.0 0.0 0.0 0.0 0.0 0.0 0.0
00000000: 8080 8080 8080 8080 8080 8080 8080 8080
00000010: 8080 8080 8080 8080 8080 8080 8080 8080
00000020: 8080 8080 8080 8080 8080 8080 8080 8080
00000030: 8080 8080 8080 8080 8080 8080 8080 8080
00000040: 8080 8080 8080 8080 8080 8080 8080 8080
00000050: 8080 8080 8080 8080 8080 8080 8080 8080
00000060: 8080 8080 8080 8080 8080 8080 8080 8080
00000070: 8080 8080 8080 8080 8080 8080 8080 8080

tfl.pseudo_qconst28 i1 [1, 10, 1, 64] scale=0.03422186 zero_point=-128
0.0 0.0 0.0 0.0 0.0 0.0 0.0 0.0
0.0 0.0 0.0 0.0 0.0 0.0 0.0 0.0
0.0 0.0 0.0 0.0 0.0 0.0 0.0 0.0
0.0 0.0 0.0 0.0 0.0 0.0 0.0 0.0
0.0 0.0 0.0 0.0 0.0 0.0 0.0 0.0
0.0 0.0 0.0 0.0 0.0 0.0 0.0 0.0
0.0 0.0 0.0 0.0 0.0 0.0 0.0 0.0
0.0 0.0 0.0 0.0 0.0 0.0 0.0 0.0
0.0 0.0 0.0 0.0 0.0 0.0 0.0 0.0
0.0 0.0 0.0 0.0 0.0 0.0 0.0 0.0
0.0 0.0 0.0 0.0 0.0 0.0 0.0 0.0
0.0 0.0 0.0 0.0 0.0 0.0 0.0 0.0
0.0 0.0 0.0 0.0 0.0 0.0 0.0 0.0
0.0 0.0 0.0 0.0 0.0 0.0 0.0 0.0
0.0 0.0 0.0 0.0 0.0 0.0 0.0 0.0
0.0 0.0 0.0 0.0 0.0 0.0 0.0 0.0
0.0 0.0 0.0 0.0 0.0 0.0 0.0 0.0
0.0 0.0 0.0 0.0 0.0 0.0 0.0 0.0
0.0 0.0 0.0 0.0 0.0 0.0 0.0 0.0
0.0 0.0 0.0 0.0 0.0 0.0 0.0 0.0
0.0 0.0 0.0 0.0 0.0 0.0 0.0 0.0
0.0 0.0 0.0 0.0 0.0 0.0 0.0 0.0
0.0 0.0 0.0 0.0 0.0 0.0 0.0 0.0
0.0 0.0 0.0 0.0 0.0 0.0 0.0 0.0
0.0 0.0 0.0 0.0 0.0 0.0 0.0 0.0
0.0 0.0 0.0 0.0 0.0 0.0 0.0 0.0
0.0 0.0 0.0 0.0 0.0 0.0 0.0 0.0
0.0 0.0 0.0 0.0 0.0 0.0 0.0 0.0
0.0 0.0 0.0 0.0 0.0 0.0 0.0 0.0
0.0 0.0 0.0 0.0 0.0 0.0 0.0 0.0
0.0 0.0 0.0 0.0 0.0 0.0 0.0 0.0
0.0 0.0 0.0 0.0 0.0 0.0 0.0 0.0
00000000: 8080 8080 8080 8080 8080 8080 8080 8080
00000010: 8080 8080 8080 8080 8080 8080 8080 8080
00000020: 8080 8080 8080 8080 8080 8080 8080 8080
00000030: 8080 8080 8080 8080 8080 8080 8080 8080
00000040: 8080 8080 8080 8080 8080 8080 8080 8080
00000050: 8080 8080 8080 8080 8080 8080 8080 8080
00000060: 8080 8080 8080 8080 8080 8080 8080 8080
00000070: 8080 8080 8080 8080 8080 8080 8080 8080
00000080: 8080 8080 8080 8080 8080 8080 8080 8080
00000090: 8080 8080 8080 8080 8080 8080 8080 8080
000000a0: 8080 8080 8080 8080 8080 8080 8080 8080
000000b0: 8080 8080 8080 8080 8080 8080 8080 8080
000000c0: 8080 8080 8080 8080 8080 8080 8080 8080
000000d0: 8080 8080 8080 8080 8080 8080 8080 8080
000000e0: 8080 8080 8080 8080 8080 8080 8080 8080
000000f0: 8080 8080 8080 8080 8080 8080 8080 8080

tfl.pseudo_qconst29 i1 [1, 14, 1, 64] scale=0.028220898 zero_point=-128
0.0 0.0 0.0 0.0 0.0 0.0 0.0 0.0
0.0 0.0 0.0 0.0 0.0 0.0 0.0 0.0
0.0 0.0 0.0 0.0 0.0 0.0 0.0 0.0
0.0 0.0 0.0 0.0 0.0 0.0 0.0 0.0
0.0 0.0 0.0 0.0 0.0 0.0 0.0 0.0
0.0 0.0 0.0 0.0 0.0 0.0 0.0 0.0
0.0 0.0 0.0 0.0 0.0 0.0 0.0 0.0
0.0 0.0 0.0 0.0 0.0 0.0 0.0 0.0
0.0 0.0 0.0 0.0 0.0 0.0 0.0 0.0
0.0 0.0 0.0 0.0 0.0 0.0 0.0 0.0
0.0 0.0 0.0 0.0 0.0 0.0 0.0 0.0
0.0 0.0 0.0 0.0 0.0 0.0 0.0 0.0
0.0 0.0 0.0 0.0 0.0 0.0 0.0 0.0
0.0 0.0 0.0 0.0 0.0 0.0 0.0 0.0
0.0 0.0 0.0 0.0 0.0 0.0 0.0 0.0
0.0 0.0 0.0 0.0 0.0 0.0 0.0 0.0
0.0 0.0 0.0 0.0 0.0 0.0 0.0 0.0
0.0 0.0 0.0 0.0 0.0 0.0 0.0 0.0
0.0 0.0 0.0 0.0 0.0 0.0 0.0 0.0
0.0 0.0 0.0 0.0 0.0 0.0 0.0 0.0
0.0 0.0 0.0 0.0 0.0 0.0 0.0 0.0
0.0 0.0 0.0 0.0 0.0 0.0 0.0 0.0
0.0 0.0 0.0 0.0 0.0 0.0 0.0 0.0
0.0 0.0 0.0 0.0 0.0 0.0 0.0 0.0
0.0 0.0 0.0 0.0 0.0 0.0 0.0 0.0
0.0 0.0 0.0 0.0 0.0 0.0 0.0 0.0
0.0 0.0 0.0 0.0 0.0 0.0 0.0 0.0
0.0 0.0 0.0 0.0 0.0 0.0 0.0 0.0
0.0 0.0 0.0 0.0 0.0 0.0 0.0 0.0
0.0 0.0 0.0 0.0 0.0 0.0 0.0 0.0
0.0 0.0 0.0 0.0 0.0 0.0 0.0 0.0
0.0 0.0 0.0 0.0 0.0 0.0 0.0 0.0
00000000: 8080 8080 8080 8080 8080 8080 8080 8080
00000010: 8080 8080 8080 8080 8080 8080 8080 8080
00000020: 8080 8080 8080 8080 8080 8080 8080 8080
00000030: 8080 8080 8080 8080 8080 8080 8080 8080
00000040: 8080 8080 8080 8080 8080 8080 8080 8080
00000050: 8080 8080 8080 8080 8080 8080 8080 8080
00000060: 8080 8080 8080 8080 8080 8080 8080 8080
00000070: 8080 8080 8080 8080 8080 8080 8080 8080
00000080: 8080 8080 8080 8080 8080 8080 8080 8080
00000090: 8080 8080 8080 8080 8080 8080 8080 8080
000000a0: 8080 8080 8080 8080 8080 8080 8080 8080
000000b0: 8080 8080 8080 8080 8080 8080 8080 8080
000000c0: 8080 8080 8080 8080 8080 8080 8080 8080
000000d0: 8080 8080 8080 8080 8080 8080 8080 8080
000000e0: 8080 8080 8080 8080 8080 8080 8080 8080
000000f0: 8080 8080 8080 8080 8080 8080 8080 8080
